furhatBartender/userPerception/training/cnn.pth (torch, 539633 bytes, 10 tensors)

W1 f4 [16, 1, 5, 5]
0	0x3dc799c3	0.097461246
1	0xbd493f62	-0.049132712
2	0x3da9c291	0.08289064
3	0x3d0dbf06	0.034606002
4	0xbcb17d90	-0.021666318
5	0x3e0cdd7a	0.13756362
6	0x3d23cf6f	0.039992746
7	0xbde9937f	-0.11405086
8	0xbe39cf08	-0.18145382
9	0xbe13bf07	-0.1442834
10	0x3e49b6ee	0.19698688
11	0x3d93e8c4	0.07222131
12	0x3e1582b6	0.14600644
13	0x3cd3c2d9	0.025849747
14	0x3c74fd6b	0.014952998
15	0x3cc4c1e6	0.02401824
16	0xbe3cb410	-0.18428063
17	0xbdb6898a	-0.08912952
18	0x3d90300f	0.070404164
19	0xbd98eb87	-0.07466798
20	0xbd49f13b	-0.04930232
21	0x3e1ca8fc	0.15298837
22	0xbcad6471	-0.021166058
23	0xbd133c8d	-0.035946418
24	0x3d2158ec	0.039391443
25	0x3e9cb919	0.30609968
26	0x3dab51e1	0.083652265
27	0xbb082484	-0.0020773718
28	0xbdfd91a7	-0.123812966
29	0xbb796506	-0.00380546
30	0x3d810426	0.062996194
31	0xbd04cc4e	-0.032421403
32	0xbcf5db0a	-0.030011673
33	0x3e2804d8	0.16408098
34	0x3de7aeeb	0.1131266
35	0x3d2a59f3	0.04158969
36	0x3dc4305d	0.09579537
37	0x3e8bdd45	0.27317253
38	0x3cacdec8	0.021102324
39	0x3da933e5	0.08261851
40	0xbe4500dc	-0.19238609
41	0xbd42f30d	-0.047595073
42	0xbdd539b7	-0.10411399
43	0xbdbdcae6	-0.092672154
44	0xbe340b05	-0.17582329
45	0xbe941280	-0.28920364
46	0x3cc0f79e	0.023555573
47	0x3d1a9228	0.03773704
48	0xbd9c5d0a	-0.07634933
49	0xbd6bbf1c	-0.057555303
50	0x3c66e215	0.014091988
51	0x3e06f096	0.13177714
52	0x3de8de99	0.11370582
53	0xbd94bec1	-0.07262946
54	0xbe9ebfef	-0.3100581
55	0xbc8283d8	-0.015932009
56	0xbda0ded6	-0.078550026
57	0xbc8a124f	-0.016854433
58	0xbe2aaf62	-0.16668466
59	0x3da79377	0.081824236
60	0x3d2aee5a	0.041731216
61	0xbcf046eb	-0.029330691
62	0xbd038053	-0.0321048
63	0x3e319824	0.17343193
64	0xbd2be773	-0.041968774
65	0x3caf1774	0.021373488
66	0x3c13444b	0.00898845
67	0x3de14d95	0.11001126
68	0xbdf345d7	-0.11878555
69	0xbdf7a9f7	-0.12092965
70	0x3da98079	0.08276457
71	0x3a4ced1d	0.0007817315
72	0x3dd8c258	0.10583943
73	0x3e2c8782	0.16848567
74	0x3d36289e	0.04447233
75	0xbdcf854d	-0.10132847
76	0x3ca7659f	0.020434199
77	0x3d9eae26	0.0774806
78	0x3e125a49	0.14292254
79	0xbe3a77f1	-0.18209817
80	0x3e3b7214	0.18305236
81	0x3df6188d	0.120164014
82	0xbb5cc3d3	-0.0033686056
83	0x3da7e619	0.081981845
84	0x3e88fb04	0.2675401
85	0xbdb12ab5	-0.08650724
86	0x3e12fd07	0.14354335
87	0x3d8c6eba	0.06857057
88	0x3d88edbc	0.06685969
89	0x3d9621c4	0.07330659
90	0x3e335ae8	0.17515147
91	0x3cdc5258	0.026894733
92	0xbdb6d1db	-0.089267455
93	0xbd721733	-0.059104156
94	0xbd8dc820	-0.069229364
95	0xbbe44450	-0.0069661513
96	0xbda9eb6e	-0.08296858
97	0x3d11df34	0.035613254
98	0x3d3488ad	0.044075657
99	0xbcab8f87	-0.020942463
100	0xbde3ac43	-0.11116841
101	0x3d131382	0.035907276
102	0xbd6a5ce6	-0.0572175
103	0x3d7a09b4	0.06104441
104	0x3ce84775	0.028354386
105	0x3d613878	0.054985493
106	0xbd7c0e14	-0.061536863
107	0x3d3bbe5d	0.04583584
108	0x3e0a98ed	0.13534899
109	0xbd91b207	-0.07114034
110	0xbddd2f09	-0.10799987
111	0xbdcf0f7f	-0.101103775
112	0xbe080816	-0.13284335
113	0xbce2929e	-0.027657803
114	0xbd967611	-0.07346738
115	0x3daad7f2	0.083419695
116	0xbdcff5fe	-0.10154341
117	0x3dc76739	0.09736485
118	0xbe14c4c0	-0.14528179
119	0x3e075577	0.13216196
120	0x3d9d9cfb	0.07695957
121	0xbe247db2	-0.16063574
122	0x3df835b3	0.12119617
123	0x3d96b21f	0.07358193
124	0x3b818a3a	0.0039532455
125	0x3c3ed108	0.011646517
126	0x3ccbb8ab	0.02486833
127	0xbbcff43f	-0.006346255
128	0x3dc062a6	0.09393816
129	0x3cfc839b	0.030824473
130	0xbe105bab	-0.14097469
131	0x3cc68120	0.024231493
132	0x3de4a84a	0.11164911
133	0xbc981f5d	-0.018569643
134	0xbe3d4ebe	-0.18487069
135	0xbdb11e15	-0.08648316
136	0xbdb81d83	-0.08990004
137	0x3d812221	0.06305338
138	0xbd39fb94	-0.04540594
139	0xbdea9994	-0.11455074
140	0x3e1754cf	0.14778446
141	0xbdf35600	-0.118816376
142	0x3c83721a	0.016045619
143	0x3da74aa8	0.081685364
144	0xbd6495cc	-0.05580692
145	0xbe729404	-0.23689276
146	0x3e8940fc	0.26807392
147	0xbd39fafa	-0.045405366
148	0xbddce0ac	-0.1078504
149	0xbe5e15cf	-0.21688007
150	0xbce3aa72	-0.027791236
151	0xbca5c399	-0.02023487
152	0x3cda693f	0.026661513
153	0x3d38e236	0.045137607
154	0xbe199cc9	-0.15001215
155	0xbd13bfae	-0.036071472
156	0x3d99fe08	0.07519156
157	0x3d14cc5f	0.036327716
158	0xbcf4b689	-0.029872196
159	0xbe01e805	-0.12686165
160	0xbcca00bc	-0.024658553
161	0xbd9943c2	-0.07483627
162	0xbe349ba3	-0.17637496
163	0xbd7675bd	-0.060170878
164	0x3d926fa2	0.071501985
165	0xbb801686	-0.003908935
166	0x3b59b921	0.0033221918
167	0xbd0b81f3	-0.034059476
168	0x3e35bce4	0.17747837
169	0x3d823a47	0.06358772
170	0x3d40034c	0.046878144
171	0x3e2290b4	0.15875512
172	0xbd04fbc2	-0.032466657
173	0x3e46388d	0.1935751
174	0x3da12787	0.07868867
175	0x3e760f90	0.24029374
176	0x3d8529e3	0.0650213
177	0xbce5d5fd	-0.02805614
178	0x3b2a8000	0.0026016235
179	0x3db3a7ac	0.08772215
180	0xbcf3cffc	-0.02976226
181	0x3d5589f8	0.05213353
182	0xbe2471f5	-0.16059096
183	0x3d06f8ca	0.032952107
184	0xbdb5fea1	-0.08886457
185	0x3e2b8b0c	0.16752261
186	0xbdacc4ba	-0.0843596
187	0x3d8a6481	0.06757451
188	0xbdbc1ad4	-0.091848046
189	0xbe4457dc	-0.1917414
190	0xbdbc63e1	-0.09198738
191	0x3e7cfecf	0.24706577
192	0x3d2ad04a	0.041702546
193	0x3cfd7e38	0.030943975
194	0xbd1096a0	-0.035299897
195	0xbda7874f	-0.08180105
196	0xbdf160a7	-0.11786013
197	0x3d805277	0.06265729
198	0x3e049d85	0.12950714
199	0x3cda9cb1	0.026686044
200	0xbd12eedb	-0.03587232
201	0xbce31ff4	-0.027725197
202	0x3e34ebde	0.17668101
203	0x3d4d5739	0.05013201
204	0x3dbfe0b5	0.09369031
205	0x3d84dabe	0.06487034
206	0xbd3d6dce	-0.046247296
207	0xbdbcde22	-0.09222056
208	0x3e6ae7a3	0.22939925
209	0xbc49f612	-0.012326734
210	0xbd4c6a3b	-0.049905997
211	0x3d970961	0.07374836
212	0x3dce96ad	0.10087333
213	0x3df7a218	0.12091464
214	0xbde69754	-0.11259332
215	0x3c7f5e4c	0.015586447
216	0xbd72e523	-0.059300553
217	0x3cfe05cc	0.031008624
218	0xbc935bd2	-0.01798812
219	0x3d4afa4a	0.0495551
220	0xbe1e1cf7	-0.15440737
221	0xbe0b7820	-0.13620043
222	0x3d52b3b4	0.05144091
223	0xbe49a64d	-0.19692345
224	0x3e88388f	0.2660565
225	0x3da606f6	0.081067964
226	0x3dc48da3	0.095973276
227	0xbe792dce	-0.2433388
228	0xbd589d33	-0.05288429
229	0xba015906	-0.0004934225
230	0x3d4e98c0	0.050438643
231	0x3d2151c6	0.039384626
232	0xbcb45031	-0.022010894
233	0xbd10688f	-0.035255965
234	0xbd7f83f2	-0.062381692
235	0xbac7564f	-0.0015208217
236	0x3de74c0f	0.11293804
237	0xbd6cc425	-0.057804246
238	0x3e75d451	0.24006774
239	0x3a00b3ba	0.0004909594
240	0x3e061b5e	0.13096377
241	0x3d916456	0.07099216
242	0x3d509e78	0.050932378
243	0x3e1486a2	0.14504483
244	0xbd3cd6c3	-0.04610325
245	0x3c703676	0.014661422
246	0x3a9c8564	0.0011941609
247	0x3d456652	0.048193283
248	0xbe4eec58	-0.20207345
249	0xbc17117e	-0.009220479
250	0xbd0a660c	-0.033788726
251	0x3cff4696	0.031161588
252	0x3e59c9bb	0.2126836
253	0xbcc1115f	-0.023567853
254	0x3e332453	0.17494325
255	0xbd75a041	-0.059967283

b1 f4 [16]
0	0x3d237114	0.03990276
1	0x3e0e1557	0.13875328
2	0x3dae7d8f	0.08520042
3	0x3d58cc86	0.052929424
4	0x3de74bd8	0.11293763
5	0xbc345a78	-0.011007898
6	0x3e00a1f1	0.12561776
7	0x3de101b6	0.109866545
8	0x3d8b69d1	0.06807292
9	0x3e0fe104	0.1405068
10	0x3dcc2a22	0.09968974
11	0x3da2dfd1	0.07952846
12	0x3e05d264	0.13068539
13	0x3e03e221	0.1287923
14	0x3dbb8cde	0.09157728
15	0x3d96fe18	0.07372683

W2 f4 [32, 16, 5, 5]
0	0xbdc0427c	-0.09387681
1	0x3c0d66a0	0.008630425
2	0xbe4aa1fc	-0.19788355
3	0xbe01983f	-0.12655734
4	0x3a4900df	0.00076676713
5	0x3e12c72d	0.14333792
6	0xbdb22793	-0.086989544
7	0xbd25a54e	-0.04044085
8	0x3d01d9cb	0.031701844
9	0xbc9908eb	-0.01868101
10	0x3c52b073	0.012859452
11	0xbe640503	-0.22267537
12	0xbe58328f	-0.21113037
13	0xbe34c74a	-0.17654148
14	0xbd68a4a8	-0.056797653
15	0xbe63e313	-0.2225459
16	0xbe1892f2	-0.14899805
17	0xbc070564	-0.008241031
18	0xbd7ba5f9	-0.06143758
19	0x3daa81b2	0.08325519
20	0xbda064e2	-0.07831742
21	0xbc54c3ce	-0.012986137
22	0x3d2e1af8	0.04250619
23	0xbd91f592	-0.07126917
24	0xbde13c98	-0.109978855
25	0x3d64b157	0.055833187
26	0xbc8de77e	-0.017322298
27	0xbdea5e78	-0.114438
28	0xbe11e48e	-0.14247343
29	0xbd3e9612	-0.046529837
30	0x3c7382fd	0.014862773
31	0xbdc3f5cc	-0.095683664
32	0xbd801d8f	-0.06255638
33	0xbe43009c	-0.19043201
34	0xbc2a673a	-0.010400588
35	0xbb9d284a	-0.0047960626
36	0xbdf0002a	-0.11718781
37	0x3c01dfa1	0.007926852
38	0x3cff76f3	0.03118465
39	0xbc1d5ea4	-0.009605084
40	0x3db64849	0.08900506
41	0xbdc3b42e	-0.09555851
42	0x3ca0b1e7	0.01961608
43	0x3dfb4327	0.12268668
44	0x3e34a943	0.17642693
45	0x3d0adc44	0.033901468
46	0xbd2b7784	-0.041862026
47	0x3d450cf4	0.048108056
48	0x3ca23040	0.019798398
49	0xbd0bf2f5	-0.03416725
50	0x3e0512e7	0.12995492
51	0xbd0cc705	-0.034369487
52	0x3cea7c39	0.028623687
53	0x3e051a55	0.12998326
54	0x3df612a8	0.12015277
55	0x3d9c4557	0.07630413
56	0xbd46ffd1	-0.04858381
57	0xbe090e3d	-0.13384338
58	0xbdb1f2bd	-0.08688877
59	0xbe032d8a	-0.1281034
60	0xbdeee47f	-0.11664676
61	0x3d6b48d1	0.05744249
62	0xbe5ec18f	-0.21753524
63	0xbd007f36	-0.031371318
64	0xbe09cd15	-0.13457139
65	0xbdfc3592	-0.12314905
66	0xbe2ee0dc	-0.17077965
67	0x3d3d4841	0.046211485
68	0xbd9fa60e	-0.07795344
69	0x3ca2cbd6	0.019872587
70	0xbcdcff28	-0.026977137
71	0xbe9274df	-0.2860479
72	0x3dbe39e4	0.092883855
73	0x3e08b428	0.13349974
74	0xbc271dbf	-0.010199963
75	0xbda32f82	-0.07968046
76	0x3d831a78	0.06401533
77	0xbd81071e	-0.063001856
78	0x3bc6e67f	0.0060699577
79	0xbe0cf755	-0.13766225
80	0xbd2b82ae	-0.041872673
81	0x3d80de94	0.062924534
82	0xbe192d10	-0.14958596
83	0x3cbc253b	0.022966972
84	0x3e7ee2b6	0.24891171
85	0xbc3b2285	-0.011421804
86	0xbd1371be	-0.035997145
87	0xbe330510	-0.174824
88	0x3d66fd3d	0.05639385
89	0x3d3a0025	0.045410294
90	0xbd392018	-0.045196623
91	0x3dd22fab	0.10262998
92	0x3d937ac3	0.07201149
93	0x3e551aaa	0.20810953
94	0x3d908ca4	0.07058075
95	0x3e0726e4	0.1319843
96	0xbbac7581	-0.005263031
97	0x3d90ba86	0.070668265
98	0x3e0a6a7b	0.13517182
99	0x3e2ce659	0.16884746
100	0xbd3364d0	-0.043797314
101	0x3e03aa33	0.12857895
102	0xbc73d44f	-0.014882161
103	0xbde7bd22	-0.11315371
104	0xbda94703	-0.082654975
105	0x3acb8bc4	0.0015529324
106	0x3dfe617d	0.12420938
107	0x3e1b00e3	0.15137057
108	0xbd55c97d	-0.052194107
109	0x3e050295	0.12989266
110	0x3e63e8fc	0.22256845
111	0xbdb679d8	-0.089099586
112	0x3de1e15b	0.11029311
113	0x3e024ef0	0.12725425
114	0xbbf9a740	-0.0076188147
115	0xbc96a05e	-0.018387016
116	0x3d83ccef	0.06435572
117	0x3d8a6c52	0.06758942
118	0xbe7699a4	-0.24082047
119	0x3c8b1080	0.016975641
120	0xbe2b9e73	-0.16759662
121	0x3db9182a	0.09037812
122	0xbd0be0c3	-0.034149896
123	0x3e1742f1	0.1477163
124	0x3d53dbb2	0.05172319
125	0xbd789303	-0.060687076
126	0x3e1b904c	0.15191764
127	0xbc45e4a3	-0.012078437
128	0x3bd20d1c	0.006410254
129	0xbe1264bf	-0.14296244
130	0xbd5bfb24	-0.053706303
131	0x3e091394	0.13386375
132	0xbe043b6b	-0.12913291
133	0x3da5806b	0.080811344
134	0x3d463adc	0.048395976
135	0xbd2c8641	-0.042120222
136	0xbe0a5380	-0.13508415
137	0xbbc80bd2	-0.0061049247
138	0xbdef51ee	-0.11685549
139	0x3c89113e	0.016731855
140	0xbce4bd01	-0.027922155
141	0x3da628bc	0.08113238
142	0x3d6bd2e9	0.057574186
143	0x3d7eb631	0.06218547
144	0xbc86c36a	-0.016450603
145	0x3ca087cc	0.019596003
146	0x3d1e913a	0.038712718
147	0xbcb14b9a	-0.021642495
148	0xbe5de4a1	-0.21669246
149	0x3d8370fd	0.06418035
150	0x3be15d08	0.0068775453
151	0x3d39d5ee	0.045370035
152	0x3dbb75d7	0.091533355
153	0xbd34bea6	-0.04412713
154	0x3e153cff	0.1457405
155	0x3e2ff554	0.17183429
156	0xbd31e7e7	-0.04343405
157	0x3dfeeec5	0.124478854
158	0x3d97d794	0.07414165
159	0x3d6546b8	0.055975646
160	0xbcf4731a	-0.029840041
161	0x3d7c37ee	0.061576776
162	0xbd7c3150	-0.061570466
163	0xbd83a848	-0.064285815
164	0xbd0d9798	-0.0345684
165	0xbdf88ba8	-0.12136012
166	0xbd5f635e	-0.054538123
167	0xbdbd8694	-0.09254184
168	0xbd671d02	-0.05642415
169	0x3d1b5b39	0.037928794
170	0xbdb6a974	-0.08919039
171	0x3d752087	0.059845474
172	0x3d561e7d	0.05227517
173	0x3e807c9d	0.25095072
174	0x3a82cbb5	0.0009978922
175	0xbcd9a919	-0.02656989
176	0xbc89e69e	-0.0168336
177	0xbe8b1208	-0.27162194
178	0xbdf966ce	-0.121778116
179	0xbe0b9a1a	-0.13633004
180	0x3c5dc995	0.01353683
181	0xbdcf63a1	-0.101264246
182	0xbe118090	-0.14209199
183	0xbd620115	-0.055176813
184	0x3ba62001	0.005069733
185	0xbe4f768c	-0.20260066
186	0xbea96e6e	-0.33092064
187	0xbded0745	-0.11573652
188	0x3d8bb722	0.06822039
189	0xbd270b98	-0.04078254
190	0x3de521d0	0.1118809
191	0xbc9e7e70	-0.0193474
192	0xbc9acdb7	-0.01889692
193	0xbd125c5c	-0.035732612
194	0x3c9bc53a	0.019014943
195	0x3d84f386	0.06491761
196	0xbd62cb7f	-0.05536985
197	0x3c5e9fff	0.013587951
198	0xbe18b230	-0.14911723
199	0x3da64829	0.08119232
200	0x3dfa663b	0.1222653
201	0xbdc734d5	-0.09726874
202	0x3d0f77a8	0.035026222
203	0x3de9d35b	0.11417266
204	0x3d63a465	0.0555767
205	0xbe00d6ea	-0.12581983
206	0x3cb52df0	0.022116631
207	0xbdb6aba0	-0.089194536
208	0x3d724119	0.059144113
209	0xbb888307	-0.0041660103
210	0xbda533d8	-0.08066529
211	0x3d5e42e5	0.054263014
212	0xbcf1c53c	-0.029512994
213	0x3d12faed	0.035883833
214	0x3da5afc8	0.08090168
215	0x3c2e4dbc	0.0106386505
216	0xbd0c69ec	-0.034280702
217	0x3d0ce3d3	0.034396958
218	0x3c3f87d8	0.0116901025
219	0xbd11ad65	-0.035565753
220	0xbd8e29a4	-0.06941536
221	0xbd50259c	-0.050817117
222	0xbe4b7c29	-0.19871582
223	0x3d08604a	0.033294953
224	0xbd2125f0	-0.03934282
225	0xbe034f02	-0.12823108
226	0xbcfc5f18	-0.030807063
227	0xbdb8be89	-0.09020717
228	0xbcab28a6	-0.020893406
229	0xbd48e429	-0.049045715
230	0xbda1770d	-0.07884035
231	0xbe42b753	-0.19015245
232	0xbdb522ab	-0.08844503
233	0xbbb15166	-0.005411315
234	0x3c848aed	0.016179526
235	0x3da2b1e8	0.07944089
236	0x3a284955	0.0006419619
237	0xbe06dd13	-0.1317027
238	0x3e018a56	0.12650427
239	0x3dee8fa2	0.116484895
240	0x3c395908	0.011312731
241	0xbe075db4	-0.13219339
242	0xbd399623	-0.045309197
243	0x3e5ac1f6	0.21363053
244	0xbdc9a368	-0.098456204
245	0x3e6f918a	0.23395362
246	0x3e16c1ae	0.1472232
247	0xbca92b35	-0.020650486
248	0xbde2e7c1	-0.1107936
249	0x3daadb9f	0.08342671
250	0x3c9c8984	0.019108541
251	0x3b508218	0.0031815823
252	0xbc308957	-0.010774932
253	0xbd7f3c85	-0.062313575
254	0xbd5c8991	-0.05384213
255	0x3c2bc938	0.010484986

b2 f4 [32]
0	0x3de4e2fe	0.11176108
1	0x3db1b99d	0.08677981
2	0x3dc44a49	0.09584481
3	0x3d9c9af0	0.076467395
4	0x3da4ba04	0.08043292
5	0x3db234e0	0.08701491
6	0x3da16f86	0.078825995
7	0x3dc26343	0.09491589
8	0x3db61f2f	0.088926665
9	0x3d26a77d	0.040687073
10	0x3e07eef0	0.13274741
11	0x3e03d56c	0.12874383
12	0x3db87a06	0.09007649
13	0x3d8a44cf	0.067514054
14	0x3ddc72b9	0.10764069
15	0x3dfaa944	0.12239316
16	0x3d99bc8d	0.07506666
17	0x3dce1710	0.100629926
18	0x3db0d949	0.08635194
19	0x3d970be0	0.07375312
20	0x3dcc3c51	0.09972442
21	0x3db6eafc	0.089315385
22	0x3dcc93e2	0.09989144
23	0x3dcaab63	0.09895971
24	0x3d9720d3	0.073793076
25	0x3da15edc	0.07879421
26	0x3da0d442	0.07852985
27	0x3dabdcdf	0.08391737
28	0x3dbbfbab	0.09178861
29	0x3de43eb9	0.11144776
30	0x3d74b4ff	0.059742924
31	0x3daa4437	0.08313792

W3 f4 [48, 32, 4, 4]
0	0x3d235457	0.039875355
1	0x3ae59f2d	0.0017518752
2	0x3dd04291	0.101689465
3	0xbd2205d6	-0.039556347
4	0x3d9325a0	0.07184911
5	0xbd7a2e27	-0.06107917
6	0x3e633473	0.22187977
7	0x3e06134e	0.13093302
8	0x3ea03f19	0.3129814
9	0xbd994f0d	-0.07485781
10	0xbd2033a2	-0.03911174
11	0xbde91493	-0.11380877
12	0xbd46ee63	-0.048567187
13	0xbdc56a11	-0.09639371
14	0x3d5da768	0.05411473
15	0x3c88fc5c	0.016721897
16	0xbc5f1a36	-0.013617089
17	0xbc062a17	-0.008188746
18	0xbe16ecb7	-0.14738737
19	0xbde367e8	-0.11103803
20	0xbcf3a540	-0.029741883
21	0xbe0f6c68	-0.14006197
22	0x3d6c684b	0.05771665
23	0x3cd91e9a	0.02650385
24	0xbdf400be	-0.11914204
25	0xbd526e22	-0.051374562
26	0x3e42640a	0.18983474
27	0x3c24f550	0.010068253
28	0x3cb3d64d	0.021952773
29	0xbe53d79f	-0.20687722
30	0xbca1f4ca	-0.019770045
31	0x3da9cf65	0.082915105
32	0x3cfb22a7	0.030656172
33	0xbcf72e03	-0.030173307
34	0x3defdd2a	0.117121056
35	0x3df6d95a	0.12053175
36	0x3ba32737	0.00497904
37	0xbcc2eb01	-0.0237937
38	0x3dd71a91	0.10503114
39	0xbc53c771	-0.0129259685
40	0xbe800cb7	-0.250097
41	0x3d884627	0.066540055
42	0xbcee6af7	-0.02910374
43	0x3c1d112f	0.009586616
44	0xbd3c72c9	-0.046007905
45	0xbd414c0d	-0.04719167
46	0x3d15e184	0.03659202
47	0x3e5a561d	0.21321912
48	0xbe02e429	-0.12782349
49	0x3e29c6a5	0.16579683
50	0xbd4ced63	-0.050031077
51	0x3de4ce2d	0.111721374
52	0xbcea8246	-0.028626572
53	0xbe098a01	-0.1343155
54	0x3dfbee48	0.12301308
55	0x3dafe8b9	0.0858931
56	0x3d674e4b	0.05647115
57	0xbba4b898	-0.005026888
58	0xbe53f931	-0.20700528
59	0xbc4a45da	-0.0123457555
60	0xbdcafbc9	-0.099113055
61	0xbc47c8d4	-0.012193877
62	0xbd450dc5	-0.048108835
63	0xbda4b397	-0.080420665
64	0x3cd00469	0.025392728
65	0x3e045b50	0.12925458
66	0x3e0d564b	0.1380245
67	0xbc94e092	-0.01817349
68	0xbd2496a4	-0.040182725
69	0x3db1acf8	0.08675569
70	0x3d2c377b	0.042045098
71	0x3c7c66b9	0.01540535
72	0x3cfb4176	0.030670863
73	0x3e3abdf5	0.18236525
74	0xbc863750	-0.016383797
75	0x3b857c9b	0.004073692
76	0xbe48abdd	-0.1959681
77	0x3cb88048	0.022522107
78	0x3e06e1fe	0.13172147
79	0xbcc0971a	-0.02350955
80	0xbd04d109	-0.032425914
81	0xbd08f387	-0.03343537
82	0xbdd7d550	-0.10538733
83	0x3d749ea8	0.05972162
84	0xbd2302ab	-0.039797466
85	0x3dd4d517	0.10392206
86	0xbde51c0c	-0.1118699
87	0x3dbd139c	0.09232256
88	0xbdb611ed	-0.08890138
89	0xbce334ee	-0.0277352
90	0xbc4d6f2a	-0.012538711
91	0xbd315829	-0.043296967
92	0x3d83bf42	0.06432964
93	0x3cd7d65f	0.026347337
94	0x3e74688a	0.23868003
95	0xbe366514	-0.17811996
96	0xbde94922	-0.11390902
97	0xbcbff3a8	-0.023431614
98	0x3dfabeaa	0.122433975
99	0xbdde67e9	-0.10859663
100	0x3d667e97	0.05627307
101	0xbd71be1a	-0.059019186
102	0xbd8bdda1	-0.06829382
103	0x3d43f106	0.04783728
104	0x3d795fc3	0.06088234
105	0x3d1caf9f	0.038253423
106	0xbd86fb02	-0.06590845
107	0xbe1d8342	-0.15382102
108	0x3d90d0d9	0.070710845
109	0xbddbf06e	-0.10739218
110	0x3ad9741a	0.0016590387
111	0x3c7ab984	0.015303019
112	0x3e9567b2	0.29180676
113	0x3dd05869	0.10173113
114	0x3ce8122d	0.02832898
115	0x35f64300	1.8347928e-06
116	0xbdbb0f75	-0.091338076
117	0x3ca9f130	0.02074489
118	0x3d828373	0.06372728
119	0x3dd9c3bc	0.106330365
120	0x3d081f88	0.033233196
121	0x3d5ba127	0.053620484
122	0x3d33f11f	0.043931123
123	0x3d84887a	0.06471343
124	0xbe480b8e	-0.19535658
125	0xbdaaa3c7	-0.08332019
126	0xbc121351	-0.008915738
127	0xbde6cb95	-0.11269299
128	0x3dc630d4	0.09677282
129	0xbd81fbfd	-0.06346891
130	0xbd8858c0	-0.06657553
131	0x3d289832	0.04116077
132	0xbe10a57a	-0.14125624
133	0xbb8f5b16	-0.004374872
134	0x3d50fc4e	0.051021867
135	0xbdb08da1	-0.086207636
136	0x3d93b1a3	0.07211616
137	0x3e1c1ab0	0.15244555
138	0x3e89b429	0.26895264
139	0xbdf6e67d	-0.12055681
140	0x3d1e0c02	0.03858567
141	0x3e00e5d0	0.12587667
142	0x3de2c7b9	0.1107325
143	0xbdaca24e	-0.08429395
144	0xbd7e924b	-0.062151235
145	0x3d0eac5e	0.03483235
146	0xbd8e98d3	-0.06962743
147	0x3b951487	0.004549566
148	0xbd8b6ac6	-0.06807475
149	0x3d2d383f	0.04228997
150	0xbd98699b	-0.07442018
151	0x3dad13b4	0.08451024
152	0xbe15e6b9	-0.14638795
153	0x3dacb07c	0.08432099
154	0xbcc82291	-0.024430545
155	0xbdaf1ccf	-0.08550417
156	0x3e3abe15	0.18236573
157	0x3b7d7c37	0.0038678774
158	0x3dd75091	0.10513414
159	0xbe0b9417	-0.1363071
160	0x3d63b022	0.055587895
161	0x3db3041a	0.08741017
162	0xbdafb48d	-0.08579359
163	0x3df678eb	0.12034782
164	0x3cf5ce73	0.03000567
165	0xbe23dde7	-0.16002618
166	0xbe14450a	-0.14479461
167	0xbbd405c2	-0.006470413
168	0xbe5a0425	-0.21290644
169	0xbd050480	-0.032474995
170	0xbdd2ed41	-0.10299159
171	0xbe24cbe7	-0.16093408
172	0x3ba54f64	0.0050448645
173	0xbc91ed3c	-0.017813317
174	0x3db305f6	0.08741371
175	0xbd9bdbf8	-0.07610315
176	0x3d9a597a	0.075365975
177	0xbd8608d1	-0.0654465
178	0x3e16c270	0.1472261
179	0x3e567782	0.20944026
180	0x3dc109da	0.09425707
181	0xbdd648ea	-0.10463126
182	0x3c073e06	0.008254534
183	0xbd89b17f	-0.06723308
184	0x3db71ad5	0.08940665
185	0xbd7aeeb7	-0.061262812
186	0x3dfff70f	0.124982946
187	0xbdbaf00e	-0.09127818
188	0xbd1f0022	-0.038818486
189	0x3c153c3a	0.009108597
190	0x3b45bff2	0.0030174223
191	0xbd46f8b4	-0.048577026
192	0xbdad4288	-0.084599555
193	0xbdf2a063	-0.118469976
194	0xbe3220b7	-0.17395292
195	0x377b89f0	1.4992882e-05
196	0x3c5dcab5	0.013537099
197	0xbc10fb4f	-0.008848979
198	0x3d0b5e60	0.03402555
199	0xbe029e7f	-0.12755774
200	0xbe0b0641	-0.13576604
201	0x3c2c821e	0.010529069
202	0xbe39bdff	-0.18138884
203	0x3d9d955d	0.076945044
204	0xbde0c30b	-0.109747015
205	0x3d4a664e	0.04941397
206	0x39f776a6	0.0004719991
207	0xbe6666a8	-0.22500098
208	0xbd6c50af	-0.057694133
209	0xbd8814a2	-0.066445604
210	0xbdc9c887	-0.09852701
211	0x3e17ab4d	0.1481144
212	0xbc974b9c	-0.01846867
213	0xbbb1f060	-0.0054302663
214	0x3cbcbdce	0.023039725
215	0x3db17fc8	0.086669505
216	0x3d333593	0.043752264
217	0xbcb02a24	-0.02150447
218	0x3d95c443	0.073128246
219	0x3e21a5f1	0.15785958
220	0xbda1fbb7	-0.07909339
221	0x3d8abcc1	0.06774283
222	0x3e01d0e8	0.12677348
223	0xbce86de6	-0.028372716
224	0xbddfd843	-0.109299205
225	0xbddfcb73	-0.10927477
226	0xbe35b696	-0.17745432
227	0xbd1cfe99	-0.03832874
228	0x3c643cce	0.013930513
229	0xbd78c779	-0.060737107
230	0x3cd0546d	0.025430882
231	0xbdf91c9c	-0.1216366
232	0xbde195a7	-0.11014872
233	0x3beca2b7	0.0072215456
234	0xbdeec070	-0.11657798
235	0x3d2f348d	0.042774726
236	0xbdb700ba	-0.089356855
237	0x3d8391ef	0.06424319
238	0x3d64a8b4	0.05582495
239	0xbd8af12d	-0.06784282
240	0x3dc5b276	0.09653179
241	0xbd9990bc	-0.07498309
242	0x3d19b35d	0.03752457
243	0xbd7c0f1c	-0.061537847
244	0xbca87524	-0.02056367
245	0xbde6c041	-0.11267138
246	0x3ad38300	0.0016137064
247	0x3bfc8493	0.0077062338
248	0xbdcdb692	-0.10044588
249	0xbdb006ba	-0.08595033
250	0xbd12ccee	-0.035839967
251	0x3d18caeb	0.037302893
252	0x38a1bfdc	7.712815e-05
253	0xbdf7cc54	-0.12099519
254	0xbdec18cf	-0.11528169
255	0xbdacbbb4	-0.08434239

b3 f4 [48]
0	0x3d759d11	0.059964243
1	0x3d23c3f6	0.039981805
2	0x3d354933	0.04425926
3	0x3da74724	0.08167866
4	0x3db5e309	0.08881194
5	0x3e285a47	0.16440688
6	0x3de1a142	0.110170856
7	0x3d9b7c1a	0.0759203
8	0x3dbd24b2	0.09235515
9	0x3d9cb221	0.07651163
10	0x3dbe475b	0.09290954
11	0x3d7ffa86	0.062494777
12	0x3de4de0b	0.11175164
13	0x3d4f6da9	0.05064169
14	0x3e00baf6	0.1257132
15	0x3db87df8	0.09008402
16	0x3dac7142	0.0842004
17	0x3e195f84	0.14977843
18	0x3cc38b1b	0.023870042
19	0x3dda8c28	0.10671264
20	0x3d7136eb	0.058890264
21	0x3d553ef3	0.052061986
22	0x3da4eabb	0.08052584
23	0x3d304e49	0.04304341
24	0x3dea3165	0.114352025
25	0x3cc6b3c3	0.024255639
26	0x3dcb57fe	0.099288926
27	0x3de37b2e	0.11107479
28	0x3dbe9ccd	0.09307251
29	0x3d51c128	0.0512096
30	0x3e181f38	0.14855659
31	0x3da4401e	0.08020042
32	0x3e1c21ac	0.1524722
33	0x3d93493b	0.07191702
34	0x3dd008ba	0.101579145
35	0x3cfa0449	0.030519621
36	0x3da9c642	0.08289768
37	0x3e01cdb0	0.1267612
38	0x3d021c19	0.031765077
39	0x3db4af42	0.0882249
40	0x3db8fa3d	0.09032104
41	0x3c9242cc	0.017854117
42	0x3db39f0b	0.087705694
43	0x3d84a21a	0.06476231
44	0x3e0f072d	0.13967581
45	0x3d8f58e6	0.06999378
46	0x3e04314c	0.1290943
47	0x3ddec9ae	0.10878311

W4 f4 [2352, 40]
0	0xbe37e501	-0.17958452
1	0xbcb0fcbb	-0.021604886
2	0x3c8cf07d	0.017204517
3	0xbe52162c	-0.2051627
4	0xbdea8c22	-0.114525095
5	0xbca549a7	-0.020176722
6	0x3b8f295a	0.004368943
7	0x3d59c936	0.053170405
8	0xbc01704f	-0.007900312
9	0xbe2e9f2c	-0.17052907
10	0xbe228fd6	-0.15875182
11	0xbd9783db	-0.07398196
12	0xbd77fcf1	-0.060543958
13	0xbbb295f8	-0.0054500066
14	0x3d1405fa	0.036138512
15	0x3e0a1ddd	0.13487954
16	0xbce205df	-0.02759069
17	0x3e160ba8	0.14652884
18	0x3d9575ab	0.07297834
19	0x3dd945cc	0.10609016
20	0xbd97e776	-0.074171945
21	0xbe35a90a	-0.17740265
22	0x3c9c988a	0.019115705
23	0x3e1b4787	0.15164004
24	0xbe3bb1ef	-0.18329595
25	0x3d20aac3	0.03922535
26	0xbde4d5b5	-0.11173574
27	0x3e50d8cc	0.20395201
28	0xbd3eed6b	-0.04661314
29	0xbdf3d15d	-0.11905167
30	0xbd8e451a	-0.06946774
31	0x3d0a907a	0.03382919
32	0xbccf9ad0	-0.025342375
33	0x3cc4db97	0.02403049
34	0x3cf52a05	0.029927263
35	0xbdaffd42	-0.08593227
36	0x3e43d7b8	0.19125259
37	0x3cacdbcc	0.021100901
38	0xbd847df7	-0.064693384
39	0x3d840608	0.06446463
40	0x3cd26a27	0.025685383
41	0xbcb69a9c	-0.02229052
42	0xbe268109	-0.1626016
43	0x3d09913f	0.033585783
44	0xbda0ddf7	-0.078548364
45	0xbe1837c2	-0.1486502
46	0xbc0f7854	-0.008756716
47	0xbd2580b0	-0.04040593
48	0xbe3d2ca7	-0.18474065
49	0xbd9ee5d1	-0.07758678
50	0xbca9b5e3	-0.020716613
51	0xbe893867	-0.26800844
52	0xbc959e35	-0.018263916
53	0xbe131688	-0.14364064
54	0x3ddc1398	0.10745925
55	0xbda31a4e	-0.079640016
56	0x3df6e9d1	0.12056316
57	0xbc93ad4a	-0.018026967
58	0xbe3f86bf	-0.18703745
59	0x3e1019e3	0.14072375
60	0x3bc59f79	0.0060309735
61	0xbd419b02	-0.047266968
62	0xbda4ac49	-0.08040673
63	0xbd751d6e	-0.05984252
64	0x3dd79a3e	0.10527466
65	0xbe61ccb4	-0.22050744
66	0x3c2a4230	0.010391757
67	0x3d59eb36	0.05320283
68	0x3de14762	0.10999943
69	0x3d5b5ff2	0.053558297
70	0xbbe33271	-0.0069335033
71	0xbdcace71	-0.09902657
72	0xbd3fe08a	-0.046844997
73	0x3db1aa77	0.08675092
74	0xbcf602d3	-0.030030644
75	0xbc9fa453	-0.019487536
76	0x3dc3bdde	0.09557699
77	0xbd2dca5d	-0.042429317
78	0xbda2583a	-0.07926984
79	0xbbbe4aa9	-0.00580724
80	0xbca11532	-0.019663427
81	0x3db0d811	0.086349614
82	0xbdd49a35	-0.10380975
83	0xbca25ad9	-0.01981871
84	0xbb51732f	-0.0031959524
85	0xbd2fee5a	-0.04295192
86	0x3d8ce8a8	0.06880313
87	0xbd6d3740	-0.05791402
88	0x3dbce041	0.092224605
89	0x3d70179a	0.05861626
90	0x3ddf6dce	0.109096155
91	0xbd1eb7a0	-0.038749337
92	0xbcc99a68	-0.02460976
93	0xbd71b9d6	-0.059015118
94	0xbe2b82c2	-0.16749099
95	0x3dc662ab	0.09686788
96	0x3e7eb8cb	0.2487518
97	0x3ce71591	0.028208526
98	0xbcf6ab8b	-0.030111095
99	0xbd6f0100	-0.058350563
100	0xbcc00724	-0.023440905
101	0xbda55fa1	-0.080748804
102	0xbb6923bb	-0.0035574276
103	0x3b04dc3b	0.002027287
104	0xbd3146ed	-0.04328053
105	0x3d839471	0.06424797
106	0xbd9871fb	-0.07443615
107	0x3d710c21	0.058849458
108	0x3d6c0c2f	0.057628807
109	0xbdae2162	-0.08502461
110	0x3e1911f5	0.14948256
111	0xbd4d08d1	-0.050057236
112	0x3de6eb7c	0.11275384
113	0xbe13b4c1	-0.14424421
114	0x3e06c8bb	0.1316251
115	0xbd880b07	-0.06642728
116	0xbc601777	-0.013677469
117	0xbb3e1540	-0.0029004365
118	0x3cb4e39b	0.022081187
119	0x3da8b3cd	0.08237419
120	0xbe1c957d	-0.152914
121	0xbddad4fa	-0.10685153
122	0xbe73ef5f	-0.23821782
123	0x3d261fea	0.04055778
124	0x3db7f224	0.089817315
125	0xbc56767c	-0.013089772
126	0xbdc4eeff	-0.096158974
127	0xbd33edda	-0.043928005
128	0xbda087ab	-0.078383766
129	0x3c9e6025	0.019332955
130	0xbdc9ee58	-0.098599136
131	0x3d7e8cc8	0.06214598
132	0x3b751bb1	0.0037400539
133	0xbd795167	-0.060868647
134	0xba96b29f	-0.0011497325
135	0xbdae8808	-0.0852204
136	0x3d81a959	0.063311286
137	0xbcef5075	-0.02921317
138	0xbdc33d6d	-0.095332004
139	0xbdf2fbe3	-0.1186445
140	0xbdec0ac8	-0.11525494
141	0xbe079973	-0.1324213
142	0xbccccaff	-0.02499914
143	0xbdc6edf3	-0.09713354
144	0xbd0fca0d	-0.0351048
145	0xbd6d2456	-0.05789598
146	0x3e8d0fd7	0.27551147
147	0xb97cc463	-0.00024105753
148	0x39f9177b	0.00047510475
149	0x3cf51766	0.029918384
150	0x3d3263a1	0.043552045
151	0x3d22bccf	0.039730843
152	0xbdac7b3b	-0.08421942
153	0xbd65a136	-0.056061946
154	0x3d44a064	0.048004523
155	0xbda4e3c5	-0.08051256
156	0xbda86eb4	-0.0822424
157	0x3d0876ee	0.033316545
158	0xbd5d3a6b	-0.05401079
159	0xbe13ff8a	-0.14452949
160	0xbd7b9dee	-0.06142991
161	0xbe0a4f7c	-0.13506883
162	0x3d2241c7	0.03961351
163	0xbddbf43f	-0.107399456
164	0x3dd9e26c	0.1063889
165	0x3dbb5482	0.09146978
166	0xbd4dc401	-0.050235752
167	0x3e06b08b	0.13153283
168	0x3e184817	0.1487125
169	0xbd46c9d7	-0.048532333
170	0x3d5b6b06	0.053568862
171	0x3bd57285	0.006513896
172	0xbd109c3f	-0.035305258
173	0x3e2ac189	0.1667539
174	0xbd049c2e	-0.032375507
175	0x3dec1721	0.11527849
176	0x3dca3a1f	0.09874367
177	0xbdca48a9	-0.0987714
178	0x3e295e20	0.16539812
179	0xbe01754a	-0.12642398
180	0x3c5c65ae	0.013451977
181	0x3d9118ee	0.07084833
182	0x3d3e0b3e	0.04639744
183	0x3cfdabd7	0.030965729
184	0xbd5d1c2a	-0.053981937
185	0x3da1dd5e	0.079035506
186	0x3da72381	0.08161069
187	0xbc807b39	-0.015683757
188	0x3dc7722d	0.09738574
189	0xbe2a6181	-0.16638757
190	0x3ced3252	0.028954659
191	0x3da5cb13	0.08095374
192	0x3e29bff6	0.16577134
193	0x3e2b4843	0.16726784
194	0x3e25c3f5	0.16188033
195	0xbe678ed1	-0.22613074
196	0xbc397058	-0.011318289
197	0xbac34072	-0.0014896526
198	0xbdc88706	-0.09791379
199	0xbd11e7fa	-0.03562162
200	0x3d1ae541	0.03781629
201	0x3d46849a	0.048466302
202	0xbc5931de	-0.013256518
203	0x3da30791	0.079604276
204	0x3cc98fba	0.024604667
205	0xbd9f8093	-0.077881955
206	0x3d896965	0.067095555
207	0xbe030d5e	-0.12798068
208	0x3c6963cf	0.014244988
209	0x3dbd7c9f	0.09252285
210	0x3bf45401	0.007456303
211	0x3e1b9614	0.15193969
212	0x3d96c395	0.07361523
213	0xbe5a9a29	-0.2134787
214	0x3d8f3277	0.06992047
215	0x3da9ee97	0.082974605
216	0xbe3d1023	-0.18463187
217	0x3e25e82b	0.16201846
218	0x3de6bc22	0.11266352
219	0x3d022ccf	0.031781014
220	0x3c68739d	0.014187721
221	0xbcf3a7f1	-0.029743167
222	0xbe9a2946	-0.30109614
223	0xbcfef0c4	-0.031120665
224	0xbe065116	-0.1311687
225	0xbd3f1939	-0.046654914
226	0xbdb18373	-0.0866765
227	0x3d966c06	0.073448226
228	0xbd3f20d8	-0.04666218
229	0xbd8de0ef	-0.06927668
230	0xbc89a3b1	-0.016801687
231	0xbd4e9e45	-0.050443906
232	0xbe1fc856	-0.15603766
233	0xbcd8921d	-0.02643686
234	0xbb056c48	-0.002035873
235	0x3d6e406a	0.0581669
236	0x3d43852e	0.047734432
237	0x3d2cc1cb	0.042177003
238	0x3c92821d	0.017884308
239	0x3d3d9e52	0.046293564
240	0xbd62e753	-0.05539639
241	0xbc31d9a5	-0.010855113
242	0xbd2549dd	-0.040353645
243	0x3e61db8c	0.22056407
244	0x3df82603	0.12116625
245	0xbddf0230	-0.10889089
246	0x3c6ca803	0.014444354
247	0x3d4c6926	0.049904965
248	0xbd85196b	-0.06498989
249	0xbd4aaa0e	-0.049478583
250	0x3c0b1ac8	0.008490272
251	0x3db0f938	0.08641285
252	0xbd9aefb3	-0.0756525
253	0xbe02a1c1	-0.12757017
254	0x3c63137c	0.013859626
255	0x3d8660a5	0.06561402

b4 f4 [40]
0	0x3d99a150	0.07501471
1	0x3d9dafe6	0.076995656
2	0x3e17d9f6	0.14829239
3	0x3d9dac82	0.07698919
4	0x3e02acb4	0.12761194
5	0x3d8367a8	0.06416255
6	0x3d893a67	0.067005925
7	0x3da9decf	0.082944505
8	0x3db23ede	0.08703397
9	0x3e07ea27	0.13272916
10	0x3e517f3f	0.20458697
11	0x3da794b6	0.08182661
12	0x3db06b93	0.08614268
13	0x3e2e9a6d	0.17051096
14	0x3e25b573	0.16182499
15	0x3dbb1324	0.0913451
16	0x3da7c43f	0.08191728
17	0x3d94f6d4	0.07273641
18	0x3da9283b	0.082596265
19	0x3d837294	0.064183384
20	0x3d83ef68	0.064421475
21	0x3e09e1cc	0.13465041
22	0x3d997d1e	0.07494567
23	0x3de2a9ad	0.11067519
24	0x3dc13e46	0.09435706
25	0x3dde6526	0.10859136
26	0x3daf45d3	0.0855824
27	0x3d95b526	0.07309942
28	0x3daa142e	0.0830463
29	0x3daca2b3	0.0842947
30	0x3d9219c7	0.07133823
31	0x3d989425	0.07450131
32	0x3d7e1d8a	0.06203989
33	0x3dae74ea	0.08518393
34	0x3daebd48	0.08532196
35	0x3d974f3f	0.07388162
36	0x3e03b50a	0.1286203
37	0x3ddb1949	0.10698182
38	0x3e3916ec	0.1807515
39	0x3e058537	0.13039099

W5 f4 [40, 4]
0	0x3d474865	0.048653025
1	0x3da5bed9	0.08093042
2	0x3e02021f	0.12696122
3	0xbcceff63	-0.025268262
4	0x3c1999f5	0.009375085
5	0xbc53e6cf	-0.012933447
6	0x3da46849	0.08027703
7	0xbdd13220	-0.10214639
8	0x3c41f04c	0.011837076
9	0x3d5b3fbf	0.05352759
10	0xbce11da6	-0.027479958
11	0x3e116591	0.14198901
12	0x3d417047	0.047226217
13	0x3d088c82	0.033337124
14	0xbc1e9777	-0.009679667
15	0x3ce1fb08	0.027585521
16	0xbe34697e	-0.17618367
17	0xbcbc411b	-0.022980263
18	0x3e4345d8	0.19069612
19	0xbb28078d	-0.0025639266
20	0x3cede569	0.029040055
21	0x3d1da5cd	0.038488198
22	0x3c5b45b8	0.013383321
23	0xbbe9f125	-0.0071393424
24	0x3d4c8805	0.049934406
25	0xbd975536	-0.073892996
26	0xbcb5f177	-0.022209866
27	0xbe85a3f9	-0.26101664
28	0xbda1317e	-0.07870768
29	0xbe728904	-0.2368508
30	0xbc4913d6	-0.012272796
31	0x3d9c49f3	0.07631292
32	0xbdcab4e6	-0.09897785
33	0xbdc2f41d	-0.09519217
34	0x3e3b723d	0.18305297
35	0x3a4af583	0.00077422726
36	0xbd3564c3	-0.044285547
37	0x3c11403d	0.008865413
38	0x3c16a53b	0.009194667
39	0x3cc6ce56	0.02426831
40	0xbdb2cb42	-0.087301746
41	0xbd9d90d9	-0.07693643
42	0x3d84b4e6	0.06479816
43	0x3cbfcc90	0.023412973
44	0xbd5af01a	-0.053451635
45	0xbe2c82cb	-0.16846769
46	0x3e339b4a	0.17539707
47	0xbe22be9b	-0.15893023
48	0x3e2f5689	0.17122854
49	0xbcadef9a	-0.021232415
50	0x3d1be55f	0.038060542
51	0x3d01502b	0.031570595
52	0xbd489105	-0.048966426
53	0xbd114b82	-0.0354724
54	0x3de7c2e5	0.1131647
55	0xbc2dc98a	-0.010607133
56	0xbca776de	-0.020442422
57	0xbd6e1ace	-0.05813103
58	0xbe2c0bcf	-0.1680138
59	0x3c8261c3	0.015915757
60	0x3e192d72	0.14958742
61	0x3d3ed5e4	0.0465907
62	0xbd7e0f4d	-0.06202631
63	0x3db710be	0.0893874
64	0xbd0b9a49	-0.034082685
65	0xbe378fc4	-0.17925936
66	0x3e1f49fb	0.15555565
67	0xbe1e8548	-0.1548053
68	0xbdf70e4e	-0.12063275
69	0xbd57f163	-0.05272044
70	0x3e13f40c	0.14448565
71	0xbe3efdd8	-0.18651521
72	0x3d0213a0	0.031756997
73	0x3daf530e	0.08560763
74	0xbdbe82fd	-0.09302328
75	0xbdc09ba4	-0.09404686
76	0xbd519c02	-0.05117417
77	0x3da90856	0.08253543
78	0xbbe76cda	-0.0070625367
79	0xbe333a34	-0.17502671
80	0x3dd5fb0b	0.10448273
81	0x3d25703c	0.04039024
82	0xbd52bf10	-0.051451743
83	0xbd254db2	-0.0403573
84	0xbe05d22c	-0.13068455
85	0x3b83f380	0.00402683
86	0x3daa447d	0.08313844
87	0xbb7dea9e	-0.003874458
88	0xbcdf63b3	-0.02726922
89	0x3e00c2e0	0.12574339
90	0xbcb5f236	-0.022210222
91	0xbdeb0c1d	-0.1147692
92	0x3dbb15fc	0.091350526
93	0xbb1c7596	-0.0023873798
94	0xbca2d9d4	-0.01987926
95	0x3d1ea0b9	0.038727496
96	0x3e0944af	0.13405107
97	0x3caa56b0	0.020793289
98	0x3e9b7380	0.30361557
99	0x3dc21f40	0.09478617
100	0x3d25aae0	0.040446162
101	0xbcc1385c	-0.023586445
102	0xbd3fc19e	-0.046815507
103	0x3d0716e2	0.032980807
104	0x3de8dcab	0.11370214
105	0x3c7268b7	0.014795474
106	0xbe266a77	-0.1625155
107	0x3e043c81	0.12913705
108	0xbcea1c16	-0.028577846
109	0xbe051479	-0.12996091
110	0x3d71da27	0.059045937
111	0x3df2f4b3	0.11863079
112	0x3d8d52e3	0.06900575
113	0xbd9c3b03	-0.07628443
114	0x3daf5ee1	0.085630186
115	0xbdab0baa	-0.08351834
116	0x3e381e10	0.17980218
117	0xbe38553d	-0.18001266
118	0xbe4e5bad	-0.20152159
119	0x3c5d9c47	0.013526029
120	0x3dde18e6	0.10844593
121	0xbdc9775c	-0.09837219
122	0xbdb3205f	-0.08746409
123	0xbd878e55	-0.066189446
124	0x3da10467	0.07862168
125	0xbb4cb34e	-0.0031234804
126	0xbd513802	-0.051078804
127	0x3d5de92a	0.05417744
128	0x3d192b09	0.037394557
129	0x3bf98077	0.007614191
130	0xbdcd4fd3	-0.10024991
131	0xbd9701fa	-0.07373424
132	0x3db7ca13	0.089740895
133	0xbd27c62c	-0.040960476
134	0x3d8f6603	0.07001879
135	0x3e3bd777	0.18343912
136	0xbd2c79b4	-0.042108253
137	0xbe393754	-0.18087512
138	0xbd008e4b	-0.0313857
139	0xbc459142	-0.012058558
140	0xbdc91e5e	-0.09820245
141	0x3c2bd083	0.010486725
142	0xbdaaac0f	-0.08333599
143	0xbd905380	-0.07047176
144	0x3da14bff	0.07875823
145	0x3d2b2aef	0.04178899
146	0xbdf2aac2	-0.11848976
147	0x3cc2d6e6	0.023784112
148	0xbe0bda3f	-0.13657473
149	0x3daba272	0.08380593
150	0x3d0ef416	0.034900747
151	0x3dbbc753	0.091688775
152	0x3d4f454f	0.050603207
153	0x3c6f9f1e	0.014625339
154	0x3e2526e1	0.16128112
155	0x3e135167	0.14386521
156	0xbbc3da83	-0.0059769764
157	0x3ca2b06f	0.01985952
158	0xbe6673c8	-0.22505105
159	0xbcd1fb2c	-0.025632463

b5 f4 [4]
0	0x3dbc2d16	0.09188287
1	0x3d570bee	0.05250161
2	0x3dd1806f	0.10229575
3	0x3e0e479e	0.13894507
