furhatBartender/userPerception/training/cnn.pth (torch, 539208 bytes, 10 tensors)

W1 f4 [16, 1, 5, 5]
0	0x3d83f9d6	0.06444137
1	0x3ced29d0	0.028950602
2	0xbcbfcc3b	-0.023412814
3	0xbd9e4e97	-0.077298336
4	0xbe2796a0	-0.16366053
5	0x3e17bc55	0.14817937
6	0xbc9fbeb4	-0.019500114
7	0x3dc6a75c	0.0969989
8	0xbb98d46d	-0.004663995
9	0xbd09d5a7	-0.03365102
10	0x3cef9ed5	0.029250542
11	0x3cd6fcd3	0.026243603
12	0x3e1506ff	0.1455345
13	0xbd46be71	-0.048521463
14	0xbd6bbf3c	-0.057555422
15	0x3ddcfcb5	0.107903875
16	0x3cb21bb7	0.021741731
17	0xbd97501c	-0.073883265
18	0xbd4af91c	-0.049553975
19	0xbcba7431	-0.022760483
20	0xbe1ea2ef	-0.15491842
21	0x3e5b5048	0.21417344
22	0xbc12ec67	-0.0089674955
23	0xbd1ebc8b	-0.038754027
24	0xbd26903e	-0.040664904
25	0x3db755f3	0.089519404
26	0x3d21c88d	0.0394979
27	0xbc3302c5	-0.010925953
28	0xbda7ac45	-0.08187155
29	0x3e4df0f2	0.20111445
30	0x3e1d4e49	0.15361895
31	0xbd38f1b0	-0.045152366
32	0xbe067670	-0.13131118
33	0xbe1c9fbe	-0.15295312
34	0xbc556567	-0.0130246645
35	0xbd0860ac	-0.03329532
36	0x3d52de08	0.051481277
37	0xbd37abe4	-0.044841662
38	0x3d831618	0.064006984
39	0x3de96719	0.113966174
40	0x3dd7bc01	0.10533906
41	0xbe435a81	-0.19077493
42	0x3c86ba63	0.016446298
43	0x3e8bef46	0.2733099
44	0xbe047951	-0.12936904
45	0xbde0fef6	-0.1098613
46	0x3db1731f	0.08664536
47	0x3e182b0b	0.1486017
48	0xbda0d8b4	-0.07853833
49	0xbd092737	-0.033484664
50	0xbc1d1f5b	-0.009589995
51	0xbd0b2004	-0.03396608
52	0x3d65769b	0.056021314
53	0x3d72d2ce	0.05928307
54	0x3cd95c98	0.02653341
55	0x3cc72ea1	0.024314227
56	0xbd2e9c1b	-0.042629343
57	0x3dd1581d	0.102218844
58	0x3e4a168d	0.19735165
59	0xbd17cda1	-0.037061337
60	0xbdcec341	-0.100958355
61	0xbd1ef881	-0.03881121
62	0x3d8304e6	0.06397419
63	0xbdb12875	-0.08650295
64	0xbd66142f	-0.056171592
65	0x3e16da63	0.14731745
66	0x3c84ef3f	0.016227363
67	0xbd93243a	-0.07184644
68	0xbd833948	-0.0640741
69	0xbd3cd7be	-0.046104185
70	0x3de95baf	0.113944404
71	0x3cc3901d	0.02387243
72	0x3e323d46	0.17406186
73	0xbd8f9582	-0.07010938
74	0x3d3b69b9	0.04575512
75	0x3bade243	0.0053065135
76	0xbb737aa9	-0.0037151969
77	0xbd98e4a1	-0.074654825
78	0xbdd706a8	-0.104993165
79	0xbda9930e	-0.082800016
80	0xbd3fc863	-0.046821963
81	0xbe080af7	-0.13285433
82	0x3dd48636	0.10377161
83	0x3dac9668	0.08427125
84	0x3e1f4d95	0.15556939
85	0xbd891c9b	-0.06694909
86	0x3d88d170	0.06680572
87	0x3d245d68	0.04012814
88	0xbd67125a	-0.056413986
89	0xbde51f10	-0.11187565
90	0xbdd14624	-0.102184564
91	0x3df71a0b	0.12065514
92	0x3d75a468	0.059971243
93	0xbce0c33d	-0.027436847
94	0x3e4e435c	0.20142883
95	0x3d8db1df	0.06918692
96	0x3d9a4ec9	0.07534558
97	0x3bd03d4b	0.006354963
98	0x3d1f204d	0.038849164
99	0xbd92cd39	-0.07168049
100	0x3c85e5b3	0.01634488
101	0xbd61005f	-0.054931995
102	0x3e193e8e	0.14965269
103	0x3ac4fbe0	0.0015028678
104	0x3dd80c34	0.105492026
105	0x3c244a56	0.010027489
106	0x3db3594a	0.08757265
107	0x3c9348a0	0.017978966
108	0xbd0a3c7c	-0.03374909
109	0xbcd177d3	-0.025569832
110	0x3afd2914	0.001931461
111	0x3def76ae	0.11692558
112	0xbc17a20f	-0.009254946
113	0x3cbcc2a5	0.023042032
114	0xbb4f252d	-0.0031607852
115	0xbe83d631	-0.25749353
116	0x3e22d6fc	0.15902323
117	0xba398a89	-0.0007077833
118	0xbe532125	-0.20618112
119	0x3e03e88c	0.12881678
120	0xbd02c2a8	-0.03192392
121	0xbda3ed77	-0.08004277
122	0xbd65765a	-0.056021072
123	0x3d25671b	0.040381532
124	0x3e1160f8	0.14197147
125	0x3da49ba8	0.080375016
126	0xbe037253	-0.1283658
127	0x3e297dd8	0.16551912
128	0xbc10137e	-0.00879371
129	0xbd5e6ba3	-0.05430187
130	0xbe865ddb	-0.2624348
131	0x3c75e99b	0.015009309
132	0x3d6c92f9	0.05775735
133	0x3c680f67	0.014163828
134	0xbd984593	-0.07435145
135	0x3db74345	0.089483775
136	0xbc2c2c4f	-0.010508611
137	0xbdab6d14	-0.083704144
138	0x3e2b1163	0.16705851
139	0x3ddcf890	0.10789597
140	0xbdfb394d	-0.12266789
141	0x3d040c22	0.032238133
142	0x3db208e0	0.08693099
143	0x3df63611	0.12022031
144	0xbd747325	-0.059680123
145	0x3dd9cf09	0.10635192
146	0x3e48a6cc	0.19594878
147	0xbd87d0b7	-0.06631606
148	0x3d0edf5c	0.03488098
149	0x3d4de6c4	0.050268903
150	0xbdbab942	-0.091173664
151	0x3dc2b32f	0.09506833
152	0xbc13d8c3	-0.009023848
153	0x3df0af28	0.117521584
154	0x3e18c812	0.14920071
155	0xbd766f51	-0.060164753
156	0xbc8371f4	-0.016045548
157	0x3cdf6b9b	0.02727299
158	0xbded42d6	-0.115850136
159	0xbe37266d	-0.17885752
160	0xbb691a44	-0.0035568634
161	0xbdcc02f0	-0.09961498
162	0x3da568c0	0.0807662
163	0xbd8e796f	-0.06956755
164	0x3c9d9edb	0.019240787
165	0x3dc2067d	0.09473894
166	0x3df23790	0.11827004
167	0x3e192c1c	0.14958233
168	0x3e0350de	0.12823817
169	0xbd3c46c0	-0.04596591
170	0x3c0fa5ca	0.008767555
171	0x3e06cc01	0.13163759
172	0x3d61f6b7	0.055166926
173	0x3cbe9c78	0.02326797
174	0xbe115cb3	-0.14195518
175	0x3d940bea	0.07228835
176	0x3d9b4dbd	0.07583187
177	0xbdd14084	-0.102173835
178	0xbe0629b5	-0.13101847
179	0xbcb08bb4	-0.02155099
180	0x3db59d7b	0.08867928
181	0xbca43bc5	-0.020048032
182	0x3d02993a	0.03188441
183	0xbe0b7b2b	-0.13621204
184	0x3c1552bc	0.009113964
185	0x3db54d3b	0.08852621
186	0xbad0af34	-0.0015921355
187	0x3c1484bc	0.0090648495
188	0x3e1b6d27	0.15178357
189	0x3d260915	0.040536005
190	0xbd97dc92	-0.07415117
191	0xbd002d6e	-0.031293325
192	0xbe3dc358	-0.18531549
193	0x3e123a7c	0.14280123
194	0x3c750cba	0.0149566475
195	0xbc36ac23	-0.011149439
196	0x3bb89e9f	0.0056341435
197	0x3e456b30	0.1927917
198	0xbd8dba28	-0.06920272
199	0x3b8aec25	0.0042395764
200	0x3db28ce1	0.08718277
201	0xbdb89a83	-0.09013846
202	0x3e064984	0.13113981
203	0x3c9f21c1	0.019425275
204	0xbc98a91f	-0.01863533
205	0x3c3ac8f4	0.01140045
206	0xbd858ef4	-0.06521407
207	0x3c840472	0.016115401
208	0x3d4e2535	0.050328452
209	0xbd0c2bd4	-0.034221485
210	0xbd76a7fb	-0.060218792
211	0x3b95c94b	0.004571115
212	0xbda998eb	-0.0828112
213	0x3e4216c2	0.18953994
214	0x3d03a66e	0.03214114
215	0xbe419a0d	-0.18906422
216	0x3c6fcc97	0.01463618
217	0x3c65b756	0.0140207615
218	0xbd05bc23	-0.032650124
219	0xbca06e4a	-0.01958384
220	0x3d1bca15	0.038034517
221	0x3db618e5	0.08891467
222	0x3e0512ee	0.12995502
223	0x3dfd522b	0.12369188
224	0xbd9cbaa8	-0.07652789
225	0x3d590456	0.05298265
226	0xbdfe9147	-0.12430053
227	0x3d5fb24e	0.054613404
228	0xbc583c2b	-0.013197939
229	0x3da306b8	0.07960266
230	0x3e840ab8	0.25789428
231	0xbdd5717d	-0.10422037
232	0x3dca3583	0.09873488
233	0x3d9b9f93	0.07598796
234	0xbe0a79f8	-0.1352309
235	0xbd4ef56c	-0.05052702
236	0x3dc26afa	0.094930604
237	0x3da42053	0.08013978
238	0xbd32949d	-0.04359876
239	0xbb8d4839	-0.004311588
240	0x39b0c3bb	0.00033715167
241	0xbd46e0ac	-0.048554108
242	0xbd7c2fd2	-0.061569043
243	0x3af99496	0.0019041474
244	0xbe135354	-0.14387256
245	0x3c16a89d	0.009195474
246	0xbd6d151c	-0.05788146
247	0x3cafd6d0	0.021464735
248	0xbda4db3a	-0.08049627
249	0x3c1a380e	0.009412779
250	0x3bcf1b03	0.0063203587
251	0x3d102e56	0.03520044
252	0xbddae5c6	-0.10688357
253	0x3df913bf	0.121619694
254	0x3d8bc003	0.06823733
255	0x3e17a590	0.14809251

b1 f4 [16]
0	0x3d5c62bb	0.053805094
1	0x3d4ec084	0.050476566
2	0x3d8537f0	0.0650481
3	0x3da92506	0.08259015
4	0x3d7bbadf	0.06145751
5	0x3d12b0b4	0.03581305
6	0x3d11d7cf	0.0356062
7	0x3d6636a2	0.056204446
8	0x3db3a1c2	0.08771087
9	0x3d2c189f	0.042015668
10	0x3d5fed4b	0.05466966
11	0x3d699458	0.057026237
12	0x3d96b398	0.073584735
13	0x3d649c90	0.055813372
14	0x3dfc47bf	0.12318372
15	0x3d9209a0	0.07130742

W2 f4 [32, 16, 5, 5]
0	0xbdd03635	-0.10166589
1	0x3e90f096	0.28308553
2	0x3d8e54e1	0.06949783
3	0x3d69862b	0.05701272
4	0x3bc3aee9	0.0059717786
5	0x3d6ef564	0.05833949
6	0xbc8647ac	-0.016391598
7	0xbd765026	-0.06013503
8	0xbd977b72	-0.07396592
9	0x3e12a121	0.14319278
10	0xbd4cd386	-0.050006412
11	0x3e1b8c18	0.1519016
12	0x3de7b153	0.11313119
13	0x3c698895	0.014253755
14	0xbd81686c	-0.06318745
15	0xbe22772c	-0.15865773
16	0x3e709bbe	0.23496911
17	0xbd53d125	-0.051713128
18	0xbe3b7a8a	-0.18308464
19	0x3e02793d	0.12741561
20	0x3d0dfb0b	0.03466324
21	0xbdf72f56	-0.120695755
22	0x3e411098	0.18853986
23	0xbd00fc7e	-0.031490795
24	0x3bff2ea2	0.0077875415
25	0x3dd7fb9b	0.10546037
26	0xbcc6bf59	-0.024261164
27	0xbc6ec1b8	-0.014572553
28	0xbe06c76a	-0.13162008
29	0xbd95cb77	-0.073141985
30	0xba9d46aa	-0.0011999209
31	0x3d17a46a	0.03702203
32	0xbe4ea545	-0.20180233
33	0x3da5e6fa	0.08100696
34	0xbc5f1294	-0.013615269
35	0xbe2040e8	-0.1564976
36	0x3ce7bbd2	0.028287802
37	0x3dcae3c2	0.099067226
38	0x3ba896ce	0.0051449304
39	0x3cad6647	0.021166934
40	0xbd998a0c	-0.074970335
41	0x3d58cc58	0.052929252
42	0x3e0b4873	0.13601856
43	0xbd462966	-0.048379324
44	0xbd389880	-0.04506731
45	0xbd717826	-0.058952473
46	0xbe4af7dc	-0.19821113
47	0xbce21689	-0.027598636
48	0xbde8c766	-0.11366157
49	0xbd1212c0	-0.035662413
50	0x3c7b8fc9	0.015354105
51	0x3c8adcb3	0.01695094
52	0xbe5312b7	-0.20612608
53	0xbc9e7bf0	-0.019346207
54	0x3e46babf	0.19407175
55	0xbddbbabb	-0.107289754
56	0xbdf69169	-0.120394535
57	0x3d6ebc88	0.058285266
58	0x3e22dca5	0.15904482
59	0xbe303943	-0.17209344
60	0x3ddbed9b	0.10738679
61	0x3d6f0f68	0.058364302
62	0xbd031d0b	-0.03201012
63	0x3ccaf987	0.024777187
64	0xbd07d273	-0.033159684
65	0xbddf849d	-0.10913966
66	0xbe964dec	-0.29356325
67	0x3d47b73d	0.048758734
68	0xbdd21f72	-0.10259904
69	0xbd92fd0e	-0.071771726
70	0xbe2bdfc3	-0.16784577
71	0x3d04611e	0.03231918
72	0xbe4c44cf	-0.19948123
73	0x3c1d01ef	0.009582981
74	0x3e00f878	0.12594783
75	0xbdb8d196	-0.0902435
76	0xbc80760a	-0.015681285
77	0x3e1fcb07	0.15604793
78	0x3e1997e7	0.14999352
79	0x3b534301	0.0032235982
80	0xbcaa590e	-0.020794418
81	0x3e4446c1	0.19167615
82	0x3b6f461d	0.0036510297
83	0x3dae0208	0.08496481
84	0xbce34c3e	-0.027746316
85	0xbd4c6383	-0.04989959
86	0xbd0d4343	-0.034487974
87	0xbd8f8b21	-0.070089586
88	0xbc4f4543	-0.012650791
89	0x3d01272a	0.03153149
90	0x3cbbb056	0.022911232
91	0xbd13750b	-0.036000293
92	0x3e19ff21	0.1503873
93	0x3cc222ea	0.023698289
94	0xbe1e5716	-0.15462908
95	0x3e071293	0.13190679
96	0xbe191b5a	-0.1495184
97	0xbe10cb6c	-0.141401
98	0xbd4977c7	-0.049186494
99	0xbe3e3c21	-0.18577625
100	0xbdc3b08c	-0.09555158
101	0xbdc46b33	-0.09590759
102	0x3e5931f2	0.21210459
103	0x3d4fbd20	0.050717473
104	0xbe974424	-0.29544175
105	0xbd09d854	-0.033653572
106	0x3dac0849	0.08400018
107	0x3d5808d2	0.052742787
108	0xbe4cbcab	-0.19993846
109	0xbdb0618b	-0.08612355
110	0x3e0215cb	0.12703626
111	0xbd267b01	-0.04064465
112	0xbd984eff	-0.07436942
113	0xbe275eb0	-0.16344714
114	0x3df4b412	0.11948408
115	0x3dacbaaa	0.08434041
116	0x3dc443b9	0.095832296
117	0xbd7ee996	-0.062234484
118	0xbba4f318	-0.005033862
119	0xbd65a46f	-0.05606502
120	0xbce5f572	-0.028071139
121	0x3da6bcff	0.08141517
122	0xbd2b017f	-0.041749474
123	0xbe20f263	-0.15717463
124	0x3d814a42	0.06312992
125	0xbd80113c	-0.06253287
126	0x3cc55125	0.024086544
127	0xbd3fca59	-0.046823833
128	0xbb8f21c0	-0.004368037
129	0xbdfae274	-0.12250224
130	0x3c6369b1	0.013880179
131	0xbd126f9d	-0.035750974
132	0xbe4d2d67	-0.20036851
133	0xbe14cdec	-0.14531678
134	0xbc15959a	-0.009129906
135	0xbdebf8a8	-0.11522037
136	0xbdd21876	-0.10258572
137	0x3e3b5b21	0.18296482
138	0x3e14c01f	0.14526413
139	0x3c0d3fe7	0.008621193
140	0x3cfa4314	0.030549563
141	0xbd021ae2	-0.03176392
142	0xbd696a8c	-0.056986377
143	0xbc92526d	-0.01786157
144	0xbdc3ea49	-0.09566171
145	0xbb268115	-0.0025406529
146	0xbc4fd095	-0.012684007
147	0x3d1cd769	0.03829137
148	0x3d42bef4	0.04754539
149	0xbe1c4283	-0.15259747
150	0x3d6b1355	0.057391483
151	0x3cd20798	0.025638387
152	0x3d2a216c	0.04153578
153	0xbdf172a3	-0.11789443
154	0xbd9d9056	-0.076935455
155	0x3d22b60c	0.039724395
156	0x3c69d306	0.014271503
157	0xbe2eb0ca	-0.17059627
158	0xbe1115af	-0.14168428
159	0x3d8cbfb2	0.068725005
160	0x3daa43ee	0.08313738
161	0x3d2e60a0	0.042572618
162	0xbd74ee03	-0.0597973
163	0x3dff127d	0.12454698
164	0xbd89d0be	-0.067292675
165	0xbd605e5d	-0.05477749
166	0xbe3184c2	-0.173358
167	0xbdab53b2	-0.08365573
168	0xbc3e435c	-0.011612739
169	0x3d83d3e2	0.06436898
170	0x3d0239ca	0.031793393
171	0x3e34bcb3	0.17650108
172	0xbd830ef8	-0.063993394
173	0xbde476e5	-0.1115549
174	0x3dc2a3f6	0.09503929
175	0xbe52c441	-0.20582677
176	0xbab44afc	-0.0013755257
177	0x3dd50d3e	0.10402916
178	0xbe075121	-0.13214542
179	0xb99973ff	-0.00029268858
180	0xbc3731cf	-0.011181309
181	0xbdac280e	-0.08406077
182	0x3db5f2aa	0.08884175
183	0x3dbce23a	0.09222837
184	0xbd37b21d	-0.044847596
185	0xbb903c4e	-0.00440172
186	0x3c898b9a	0.0167902
187	0xbdbf4fb8	-0.09341377
188	0xbd9049b5	-0.070453085
189	0xbe021d02	-0.12706378
190	0x3dbdeef6	0.09274094
191	0xbcacc816	-0.021091502
192	0x3e16df07	0.14733516
193	0xbd7fe916	-0.062478147
194	0xbda0f0c1	-0.0785842
195	0xbe30126f	-0.17194532
196	0x3c57c8c8	0.013170429
197	0xbe342f81	-0.17596246
198	0x3d3e1b8b	0.046412986
199	0x3ca90b10	0.020635158
200	0x3e5896a3	0.21151213
201	0xbd740fca	-0.05958537
202	0xbcf64792	-0.030063424
203	0x3d29805a	0.04138217
204	0xbd37841b	-0.04480372
205	0xbe741a97	-0.23838268
206	0x3d6a47dd	0.05719744
207	0xbe677a6c	-0.22605294
208	0x3d340fe2	0.04396046
209	0xbd12c088	-0.035828143
210	0xbdb05a70	-0.086109996
211	0x3e7ca963	0.24673991
212	0xbc0b3842	-0.0084973
213	0xbb984ace	-0.0046475893
214	0xbe3889f6	-0.18021378
215	0xbdedf038	-0.11618084
216	0xbcc51a49	-0.024060385
217	0xbd9a4631	-0.07532919
218	0xbd06fbdc	-0.032955036
219	0xbd3f0358	-0.04663405
220	0x3d15ddb6	0.036588393
221	0x3e5084a3	0.20363097
222	0xbd0b3a24	-0.033990994
223	0x3ccf8a36	0.025334459
224	0x3cf4669f	0.02983409
225	0xbe00880c	-0.12551898
226	0xbdbaef99	-0.09127731
227	0xbc9af67f	-0.018916367
228	0xbd5e4228	-0.05426231
229	0xbdb48f04	-0.088163406
230	0x3dcfe37f	0.10150813
231	0x3df63052	0.12020935
232	0xbd751c50	-0.059841454
233	0x3bbd2388	0.005772058
234	0xbd22424e	-0.039614014
235	0xbd229eac	-0.039702103
236	0xbc2c5d74	-0.010520328
237	0xbcfb1ec3	-0.030654317
238	0xbe26fcd8	-0.1630739
239	0xbdc03fb7	-0.09387153
240	0x3df0ef5d	0.11764405
241	0xbdbc342f	-0.09189641
242	0xbda65868	-0.08122331
243	0x3c82d440	0.01597035
244	0xbe0d86d9	-0.13820972
245	0x3be9cdf4	0.007135147
246	0x3d320fc8	0.04347208
247	0x3c2d850a	0.010590801
248	0x3d9ef487	0.07761484
249	0x3da001eb	0.07812866
250	0x3e13d741	0.14437582
251	0xbe2b72c8	-0.16743004
252	0xbe691081	-0.22760202
253	0xbe20d9f5	-0.15708144
254	0xbccde5ab	-0.025133928
255	0xbb3bec25	-0.0028674689

b2 f4 [32]
0	0x3d9a8572	0.07544984
1	0x3dc9353d	0.098246075
2	0x3dde3576	0.108500406
3	0x3db27cee	0.08715235
4	0x3dc7ed1a	0.097620204
5	0x3db7e572	0.0897931
6	0x3dbffd5b	0.093744956
7	0x3da594b4	0.080850035
8	0x3db46620	0.08808541
9	0x3dc33638	0.09531826
10	0x3dce6e11	0.10079587
11	0x3dc47028	0.095917046
12	0x3d9d457f	0.07679271
13	0x3da8cc55	0.08242098
14	0x3da4fc1c	0.080558985
15	0x3d9cd2a1	0.07657362
16	0x3daa0db2	0.083033934
17	0x3dc8fc24	0.09813717
18	0x3da9973c	0.08280799
19	0x3de68a89	0.11256892
20	0x3e1755d6	0.14778838
21	0x3d9d24dd	0.07673047
22	0x3dbbd867	0.09172135
23	0x3da86567	0.08222466
24	0x3de3b06f	0.111176364
25	0x3dabfa56	0.08397357
26	0x3db8d3ce	0.090247735
27	0x3da1151e	0.07865356
28	0x3d98e52a	0.074655846
29	0x3df9a1ce	0.12189065
30	0x3db99129	0.0906089
31	0x3daa0fe1	0.0830381

W3 f4 [48, 32, 4, 4]
0	0xbda842c3	-0.08215859
1	0x3d74f758	0.059806198
2	0xbddff263	-0.109349035
3	0x3e08a3fb	0.13343804
4	0xbdadbd3c	-0.08483359
5	0x3eac3ec3	0.33641633
6	0x3da949b5	0.082660116
7	0x3d7594d4	0.059956387
8	0x3d02b490	0.03191048
9	0xbdd88e93	-0.10574069
10	0xbe03ddb9	-0.12877549
11	0xbd949a7b	-0.07256027
12	0x3e316ce0	0.17326689
13	0xbe9fd025	-0.3121349
14	0x3dcb18a4	0.09916809
15	0x3e0554db	0.13020651
16	0xbde46e4b	-0.11153849
17	0x3b32d03a	0.0027284757
18	0xbddef8cc	-0.10887298
19	0xbdda5352	-0.10660423
20	0xbe2acb16	-0.16679034
21	0xbe0675a9	-0.13130821
22	0x3d581c08	0.052761108
23	0xbdae8c7a	-0.085228875
24	0x3e0ccbab	0.13749568
25	0xbe645278	-0.22297084
26	0xbc134f4e	-0.008991076
27	0xbda23fea	-0.07922347
28	0x3c917efb	0.017760744
29	0xbdbde561	-0.09272266
30	0xbe6e1f08	-0.23254025
31	0xbd1ada94	-0.03780611
32	0x3e1be8aa	0.15225473
33	0x3dc6a323	0.096990846
34	0xbd9dcdb3	-0.0770525
35	0x3e281011	0.16412379
36	0xbd21712c	-0.03941457
37	0xbdad48c7	-0.08461147
38	0xbdd31e1d	-0.10308478
39	0x3dde977f	0.10868739
40	0xbdb6c222	-0.08923747
41	0xbc4b036d	-0.0123909535
42	0xbda3952a	-0.07987435
43	0xbe4dfc77	-0.20115839
44	0xbde21797	-0.11039656
45	0xbc9646fb	-0.018344393
46	0xbdb86f3e	-0.09005593
47	0x3e1a8efb	0.15093605
48	0xbdab8d9a	-0.08376618
49	0x3dc6bb16	0.097036526
50	0x3c8fd2f5	0.017556647
51	0x3b710ad2	0.003678013
52	0x3dbca537	0.092112
53	0x3cbacf7d	0.022804016
54	0xbe0047ca	-0.12527385
55	0xbe476956	-0.19473776
56	0x3dfd76b1	0.12376154
57	0x3d1ad56c	0.03780119
58	0x3d243c30	0.04009646
59	0xbe84a99c	-0.25910652
60	0xbd4e4956	-0.050362907
61	0x3d04fa94	0.032465532
62	0xbd8c6b6d	-0.06856427
63	0x3d9f9cf9	0.07793612
64	0xbe4c4cdd	-0.19951196
65	0xbde4be90	-0.111691594
66	0xbc249ec9	-0.010047623
67	0xbd89a9c4	-0.06721833
68	0xbd9ff5b4	-0.07810536
69	0x3dec607e	0.11541842
70	0x3cde76bd	0.027156228
71	0x3d1de573	0.038548898
72	0xbdf6a2a8	-0.12042743
73	0xbe3bb7a8	-0.18331778
74	0x3d47fffd	0.048828114
75	0xbd3595f9	-0.04433248
76	0x3e112815	0.14175446
77	0x3dc051c0	0.093905926
78	0x3dbe2239	0.09283871
79	0xbe3c75cd	-0.18404312
80	0x3c4c594f	0.012472465
81	0xbc93fe11	-0.018065484
82	0xbd3d34a7	-0.04619279
83	0x3e1f3b4e	0.15549967
84	0x3c430a1b	0.011904265
85	0xbddbb2f7	-0.10727494
86	0xbc7787e7	-0.015108085
87	0x3d398749	0.045295034
88	0x3d95609c	0.072938174
89	0xbcb0cf68	-0.021583274
90	0xbdf71585	-0.120646514
91	0xbd9d93ff	-0.07694244
92	0xbdb92f67	-0.090422444
93	0xbd8e6489	-0.06952769
94	0xbc825938	-0.015911683
95	0x3dadbf36	0.08483736
96	0xbdd8e02f	-0.105896346
97	0xbc820030	-0.01586923
98	0xbd28dbf0	-0.041225374
99	0xbe1c2edf	-0.15252255
100	0xbcae62c7	-0.021287335
101	0x3e636200	0.22205353
102	0xbe21bbd2	-0.15794304
103	0xbdc72edb	-0.09725734
104	0xbe10cdc6	-0.14140996
105	0xbd382dcd	-0.044965554
106	0x3caa2625	0.020770142
107	0xbc214c89	-0.009844908
108	0x3e0ed065	0.13946684
109	0xbe392dd8	-0.18083894
110	0x3e103ca3	0.14085631
111	0x3db4c354	0.088263184
112	0xbe2e9b98	-0.17051542
113	0x3e519ea7	0.20470677
114	0xbdc77f97	-0.09741133
115	0xbdd16741	-0.10224772
116	0x3cd9c53f	0.026583312
117	0xbe287fab	-0.16454951
118	0x3d83dc95	0.06438557
119	0xbde45581	-0.11149121
120	0xbdc1d0c1	-0.09463645
121	0x3de4306b	0.111420475
122	0xbd9f1c3a	-0.07769056
123	0xbe0a846f	-0.13527082
124	0x3cb276cd	0.021785164
125	0x3d9e455e	0.077280745
126	0xbdc006dc	-0.09376308
127	0x3cf38492	0.0297263
128	0x3d5319a2	0.051538117
129	0xbd38ce9c	-0.045118913
130	0xbcb667aa	-0.022266228
131	0x3debfd90	0.115229726
132	0xbdf8bc89	-0.12145335
133	0x3c61ddd6	0.0137858
134	0xbdb08d9c	-0.0862076
135	0x3ddb0293	0.1069385
136	0xbe07051a	-0.1318554
137	0x3d661e9e	0.056181543
138	0xbdbe7721	-0.09300066
139	0x3c31c508	0.010850199
140	0x3e262512	0.16225079
141	0x3e17766a	0.14791265
142	0x3e0605c1	0.13088132
143	0x3958f98d	0.0002069233
144	0xbd612b42	-0.054972894
145	0x3c625366	0.013813829
146	0xbccfe51f	-0.025377808
147	0x3e052644	0.13002878
148	0x3e02d57c	0.1277675
149	0xbd51317a	-0.051072575
150	0x3c9440c9	0.018097298
151	0x3da3fefa	0.08007617
152	0xbd767827	-0.06017318
153	0xbda26f39	-0.0793137
154	0xbe40ce16	-0.18828616
155	0x3e1362cf	0.14393161
156	0xbe5001af	-0.20313142
157	0x3dbe6832	0.092972174
158	0xbd02eb30	-0.031962574
159	0xbd688e9b	-0.056776624
160	0xbbd8456a	-0.0066000717
161	0xbca19702	-0.019725326
162	0xbd754b6f	-0.059886392
163	0xbd240fd2	-0.04005415
164	0xbe326c9c	-0.17424244
165	0xbe11ecd1	-0.14250495
166	0xbe338fef	-0.17535375
167	0xbd96566c	-0.073407024
168	0xbc8ff889	-0.017574565
169	0xbdffe214	-0.12494293
170	0xbe31a97f	-0.17349814
171	0xbb77bd12	-0.0037801904
172	0xbdf379d2	-0.1188847
173	0xbdcfaeb7	-0.10140746
174	0x3c01d9fe	0.007925509
175	0x3d1519e1	0.036401633
176	0x3e28b6ca	0.16475978
177	0x3c418017	0.011810324
178	0xbde88d35	-0.11355058
179	0x3e3a2bb8	0.1818074
180	0xbe4f1159	-0.20221461
181	0x3dd3fd96	0.10351102
182	0x3c71d628	0.0147605315
183	0xbe8784b7	-0.2646844
184	0x3d49b03a	0.04924033
185	0xbdb0ded9	-0.08636255
186	0x3cbbef09	0.02294113
187	0xbd441fb1	-0.047881786
188	0xbce302a2	-0.027711216
189	0x3dd51484	0.10404304
190	0xbe041140	-0.12897205
191	0x3d85f590	0.06540978
192	0x3d9ec7fa	0.07752986
193	0xbe081e82	-0.13292888
194	0xbe1f083b	-0.15530483
195	0x3bfbcfa2	0.007684664
196	0x3da081f9	0.0783729
197	0xbc4810ff	-0.012211083
198	0xbd22199e	-0.03957521
199	0x3c9a5666	0.018840026
200	0x3cf18633	0.029482936
201	0xbdf40481	-0.119149216
202	0xb916a061	-0.0001436486
203	0xbd4ac704	-0.049506202
204	0x3e30d540	0.17268848
205	0xbe131145	-0.14362057
206	0xbde7d6eb	-0.11320289
207	0xbe1f8d33	-0.15581207
208	0x3e0c544a	0.13704029
209	0x3dd7a0b3	0.10528698
210	0x3d614e66	0.055006407
211	0xbe24ef73	-0.16106968
212	0x3bc1ce0b	0.005914455
213	0xbc677e0c	-0.014129173
214	0x3e2e19c3	0.17002015
215	0x3d7e0b72	0.062022634
216	0x3c45444c	0.012040209
217	0xbdd2c282	-0.10291006
218	0x3d9e6173	0.07733431
219	0xbc3ebf4e	-0.01164229
220	0xbc9f0a54	-0.019414105
221	0xbd8dd5c5	-0.06925539
222	0xbd1617d2	-0.03664381
223	0x3da336b8	0.07969421
224	0x3d11f416	0.03563317
225	0xbc6c82cf	-0.014435484
226	0xbd677aa0	-0.05651343
227	0xbdf4fbc4	-0.11962083
228	0xbd978e44	-0.07400182
229	0x3d9ed7ad	0.07755981
230	0xbc895989	-0.016766327
231	0xbc81d4d1	-0.01584855
232	0xbcdd55a6	-0.02701838
233	0x3d418c90	0.04725319
234	0xbe062348	-0.13099396
235	0xbcaddcab	-0.021223387
236	0x3dda9ff2	0.106750384
237	0xbb77f47a	-0.0037834928
238	0x3e1398c1	0.1441374
239	0x3e1ae447	0.15126143
240	0xbde39a06	-0.11113362
241	0xbc1931ab	-0.009350221
242	0x3dc5870d	0.096448995
243	0xbd8a109d	-0.0674145
244	0xbc779e3b	-0.015113409
245	0xbda5ae45	-0.0808988
246	0x3ddef240	0.10886049
247	0xbdb94269	-0.0904587
248	0x3df8881d	0.121353365
249	0x3c43e225	0.0119557725
250	0x3ddcdf35	0.10784761
251	0x3d842bcf	0.06453668
252	0xbcbed753	-0.023296034
253	0xbe0ad238	-0.13556755
254	0x3dda229b	0.10651132
255	0x3c587c3b	0.013213213

b3 f4 [48]
0	0x3da8640a	0.08222206
1	0x3d951fab	0.07281431
2	0x3da198e2	0.07890488
3	0x3d9d6ab6	0.07686369
4	0x3d861124	0.06546238
5	0x3d95c872	0.073136225
6	0x3de86956	0.11348216
7	0x3dabf00d	0.083953954
8	0x3dcf5494	0.10123554
9	0x3d9f9501	0.07792092
10	0x3d89990e	0.06718646
11	0x3da59365	0.08084754
12	0x3d49635b	0.04916702
13	0x3d7dc603	0.061956417
14	0x3d548a18	0.05188951
15	0x3da00019	0.078125186
16	0x3d819e4d	0.063290216
17	0x3da0c4e3	0.07850053
18	0x3d71e3f1	0.059055272
19	0x3d625feb	0.055267256
20	0x3d83614e	0.06415044
21	0x3dd00032	0.10156287
22	0x3d6cbfc1	0.05780006
23	0x3d096d86	0.033551715
24	0x3db2ab40	0.087240696
25	0x3d8db04a	0.0691839
26	0x3dd64e3c	0.10464141
27	0x3d908316	0.07056253
28	0x3dab2d44	0.08358243
29	0x3d79cd26	0.06098666
30	0x3db85fc0	0.09002638
31	0x3d79c04d	0.060974408
32	0x3d7c9bde	0.061672084
33	0x3d898e08	0.067165434
34	0x3d9fbe75	0.07799999
35	0x3d9722c8	0.07379681
36	0x3db0e198	0.086367786
37	0x3d585cb0	0.05282277
38	0x3d925077	0.07144254
39	0x3d9667f3	0.073440455
40	0x3d80c516	0.06287591
41	0x3db5fda7	0.08886271
42	0x3d6b17a4	0.057395592
43	0x3d844e65	0.06460265
44	0x3da17cf6	0.078851625
45	0x3da00669	0.07813723
46	0x3dadf6fc	0.08494374
47	0x3dcfd5e0	0.10148215

W4 f4 [2352, 40]
0	0xbc8d7d06	-0.01727153
1	0x3e168cd1	0.14702155
2	0x3c14e17c	0.009086963
3	0x3d97a1fb	0.07403942
4	0x3dcc35e2	0.09971215
5	0xbda37324	-0.07980946
6	0xbd30dc78	-0.043179005
7	0x3d944907	0.07240491
8	0x3e1409fd	0.14456935
9	0x3d02a369	0.03189412
10	0xbe30c32d	-0.17261954
11	0xbd9becdb	-0.07613536
12	0xbde2d15d	-0.11075089
13	0x3d484080	0.048889637
14	0x3da2c870	0.07948387
15	0xbded10c0	-0.115754604
16	0x3de3c69f	0.11121868
17	0x3d720edb	0.0590962
18	0x3b95eb8e	0.0045751994
19	0xbe1c9dcc	-0.1529457
20	0xbe58b292	-0.21161869
21	0xbd3f3eec	-0.046690866
22	0x3e322046	0.17395124
23	0x3d837a79	0.06419844
24	0xbe23c22d	-0.15992041
25	0x3d9eaa38	0.077473104
26	0xbcf25ae9	-0.029584365
27	0xbdefdefd	-0.117124535
28	0x3d717973	0.058953714
29	0x3ce65f4a	0.02812161
30	0xbd681e72	-0.05666966
31	0x3d217694	0.039419726
32	0xbdd41746	-0.103560016
33	0x3d802109	0.06256301
34	0x3e73834d	0.23780556
35	0xbdb507f7	-0.0883941
36	0xbe388448	-0.18019211
37	0xbbdf37e3	-0.006812082
38	0x3e1d14f1	0.1534002
39	0x3e603016	0.21893343
40	0x3cf8938b	0.030343791
41	0x3ddf1c16	0.10894029
42	0xbd4d64f9	-0.050145123
43	0x3e01988d	0.1265585
44	0xbda966a9	-0.08271534
45	0xbe3d86f3	-0.1850851
46	0xbccfe226	-0.02537639
47	0xbe227391	-0.15864398
48	0x3e1428b2	0.14468649
49	0x3ddc70c8	0.10763699
50	0xbdcc28cb	-0.09968718
51	0x3ba5c222	0.005058543
52	0x3b0a7b2f	0.0021130552
53	0x3c0c2d75	0.00855576
54	0x3c830c6d	0.015997136
55	0xbc9b5840	-0.01896298
56	0xbdd63e82	-0.10461141
57	0x3cfbba0c	0.030728363
58	0xbe5c1dc6	-0.21495733
59	0x3d01de07	0.031705882
60	0xbd930835	-0.071793
61	0xbd2cd5ca	-0.042196073
62	0x3d67cd02	0.056591995
63	0x3c894c07	0.016759885
64	0xbe866307	-0.26247427
65	0xbd31ff31	-0.04345626
66	0xbcd04b72	-0.0254266
67	0x3d38b07a	0.045090176
68	0xbdf458a6	-0.11930971
69	0xbdefbbc5	-0.11705736
70	0xbc108edd	-0.008823124
71	0x3d426eb4	0.047468856
72	0xbe0244bc	-0.12721533
73	0x3e419d46	0.18907651
74	0x3cd201c4	0.025635608
75	0xbd024837	-0.03180715
76	0x3d2af80e	0.04174047
77	0xbe2328ac	-0.15933484
78	0xbe1bbb4d	-0.15208168
79	0xbd13e94e	-0.03611117
80	0xbdc0a50a	-0.09406479
81	0xbdfec8a6	-0.124406144
82	0xbcab8945	-0.020939479
83	0xbdaabd5f	-0.08336901
84	0x3d91ef8f	0.0712577
85	0x3cb2d2a4	0.021828957
86	0xbd35d216	-0.044389807
87	0x3d4a4060	0.0493778
88	0xbdb88546	-0.09009795
89	0x3d851e39	0.06499905
90	0x3da32b3f	0.07967233
91	0x3d3fe812	0.04685218
92	0xbda78ae1	-0.08180786
93	0x3d9151f2	0.07095708
94	0x3c71bcdd	0.014754501
95	0x3e6c2f1f	0.2306485
96	0x3cb2d645	0.021830687
97	0xbda1d4e0	-0.07901931
98	0xbacb39b5	-0.0015504869
99	0x3d10531d	0.035235513
100	0xbd918f47	-0.07107406
101	0x3dfd139e	0.12357257
102	0x3bd6fc76	0.0065608574
103	0xbd30b9ff	-0.04314613
104	0xbbe2aee7	-0.0069178226
105	0xbad0838b	-0.0015908343
106	0x3cf6c439	0.030122863
107	0x3d8dc2a2	0.06921889
108	0xbc93d63e	-0.018046495
109	0x3de3297b	0.11091896
110	0xbdb8b1d7	-0.09018295
111	0xbd1cb0a9	-0.038254414
112	0xbd409949	-0.047021184
113	0x3d79fa6a	0.06102983
114	0xbd21915a	-0.03944526
115	0x3d8f600b	0.070007406
116	0x3d9215ef	0.0713309
117	0xbdaf2171	-0.085513
118	0xbd6919fd	-0.05690955
119	0xbd0182f6	-0.031619035
120	0xbcce25db	-0.025164535
121	0xbe744217	-0.23853336
122	0x3e093d30	0.13402247
123	0xbcc27670	-0.023738116
124	0x3e10ed2e	0.14152977
125	0xbd4ad757	-0.04952177
126	0x3d439298	0.047747225
127	0x3dde4a4e	0.10854016
128	0x3e277ca0	0.16356134
129	0x3dbd7366	0.09250526
130	0xbb877ed7	-0.0041349935
131	0xbde0e73e	-0.10981606
132	0x3e071d4f	0.13194774
133	0xbd19314a	-0.03740052
134	0xbcc3fb41	-0.023923518
135	0x3dc83dc0	0.09777403
136	0x3e2ffa37	0.17185293
137	0x3d0138ff	0.031548496
138	0x3da803ca	0.08203848
139	0x3dec95e0	0.11552024
140	0x3dcfbcca	0.101434305
141	0xbe6165ee	-0.2201154
142	0x3dcfa36a	0.10138591
143	0x3cf177bc	0.02947604
144	0x3cf51566	0.02991743
145	0x3bb6dccb	0.00558052
146	0x3dc6b75a	0.0970294
147	0x3e57aaf0	0.21061301
148	0xbd8b736c	-0.06809124
149	0xbc98cfcc	-0.018653773
150	0xbce863bc	-0.02836787
151	0x3d03db91	0.032191817
152	0xbda73163	-0.08163717
153	0xbe2078b7	-0.15671049
154	0xbdda274e	-0.10652028
155	0xbc752da8	-0.014964499
156	0xbd60cdb9	-0.054883692
157	0xbd150cc7	-0.03638914
158	0xbdc8137f	-0.097693436
159	0xbdf068ee	-0.11738764
160	0x3d8268d9	0.06367654
161	0xbd6d8a6b	-0.057993334
162	0xbe431f11	-0.1905482
163	0xbe3424f8	-0.17592227
164	0x3d7a051b	0.061040025
165	0xbd69a9d2	-0.05704672
166	0x3d968695	0.07349888
167	0xb8916ea4	-6.934747e-05
168	0x3d8fb0df	0.07016157
169	0x3ca0146c	0.019540988
170	0xbc0fe29b	-0.008782054
171	0x3d6ad800	0.0573349
172	0x3db2a51a	0.08722897
173	0x3d8436af	0.064557426
174	0x3dc85255	0.097813286
175	0xbd8eb0dd	-0.06967328
176	0xbd86a040	-0.06573534
177	0x3cb4ebf9	0.022085177
178	0x3c9deff3	0.019279456
179	0x3ceeed0f	0.029165773
180	0x3d6de47f	0.05807924
181	0x3d21bb78	0.039485425
182	0xbdaeb9bf	-0.08531522
183	0x3d2ad756	0.041709267
184	0xbdac3c40	-0.08409929
185	0xbe0fb815	-0.14035065
186	0x3dc143d1	0.09436763
187	0x3d07c99c	0.033151254
188	0x3db1fc85	0.086907424
189	0xbcc4482e	-0.0239602
190	0xbd0ceefa	-0.034407593
191	0x3dff2be6	0.12459545
192	0xbd9129d0	-0.07088053
193	0x3e043859	0.1291212
194	0x3e7125a0	0.23549509
195	0x3e1b55ac	0.151694
196	0x3d6e3447	0.058155324
197	0x3e01dfd1	0.12683035
198	0xbd780336	-0.060549937
199	0x3e1e5032	0.1546028
200	0x3e09fd3b	0.13475506
201	0x3d11ce56	0.035597168
202	0xbd8f3ea1	-0.069943674
203	0x3c354d1c	0.011065748
204	0xbdcb63b1	-0.09931124
205	0x3d36e050	0.044647515
206	0xbd614299	-0.054995153
207	0xba4a84ae	-0.0007725459
208	0xbdb4a13e	-0.08819817
209	0x3dd1abab	0.10237821
210	0x3c23bf4d	0.00999434
211	0x3cadb02e	0.021202173
212	0x3cd31575	0.025767067
213	0xbdb62eef	-0.088956706
214	0x3d8d1ea6	0.06890611
215	0x3e0e959c	0.13924259
216	0x3d090483	0.03345157
217	0x3da31515	0.079630055
218	0xbda4b38c	-0.08042058
219	0x3d93254e	0.0718485
220	0xbe252dc0	-0.16130733
221	0xbcb0f44f	-0.02160087
222	0xbd38a85e	-0.045082442
223	0xbd653325	-0.05595698
224	0xbd4e6388	-0.05038789
225	0xbe6ce108	-0.23132718
226	0xbb7bb239	-0.003840579
227	0xbcfafb94	-0.03063754
228	0x3d56f69b	0.052481275
229	0xbc00e363	-0.007866713
230	0x3e3e5a2c	0.18589085
231	0xbe179c68	-0.14805758
232	0xbc455ce2	-0.012046071
233	0x3e050c09	0.12992872
234	0x3d513d82	0.05108405
235	0xbd7d300b	-0.061813395
236	0x3d3d5149	0.046220098
237	0xbd0a1e6e	-0.033720426
238	0x3e29f008	0.16595471
239	0x3e2a9c2b	0.16661136
240	0xbd270c3c	-0.040783152
241	0x3cdb9a74	0.026807047
242	0xbe3213ae	-0.1739032
243	0xbde792b3	-0.113072775
244	0x3d1d3ad2	0.038386174
245	0xbe46404d	-0.19360466
246	0xbd0956bf	-0.033529993
247	0xbd5af482	-0.053455837
248	0xbd839e21	-0.06426645
249	0x3dafb508	0.08579451
250	0x3c07fe90	0.0083004385
251	0xbd57d3bb	-0.052692156
252	0x3ded6ccf	0.11593019
253	0x3de5f0d2	0.112275735
254	0x3da10f5c	0.07864258
255	0x3e09aedc	0.1344561

b4 f4 [40]
0	0x3da9f123	0.08297946
1	0x3db15f49	0.08660752
2	0x3d9a0368	0.07520181
3	0x3dcab1e3	0.098972104
4	0x3d57800b	0.052612346
5	0x3d72f07a	0.059311368
6	0x3e4418ca	0.19150081
7	0x3d9b4655	0.07581774
8	0x3d641431	0.05568332
9	0x3e08569e	0.13314292
10	0x3e061e28	0.13097441
11	0x3d8d23bf	0.06891584
12	0x3da21ad5	0.07915274
13	0x3dbcfb16	0.09227578
14	0x3d935b1d	0.07195113
15	0x3dd7c219	0.10535068
16	0x3da80933	0.082048796
17	0x3d7f1a46	0.062280916
18	0x3daec25f	0.08533167
19	0x3dda3d3b	0.1065621
20	0x3e02c827	0.12771665
21	0x3da808bf	0.08204793
22	0x3d945815	0.07243363
23	0x3d9efd56	0.07763164
24	0x3e2a4ed0	0.16631627
25	0x3d95266d	0.0728272
26	0x3d9e3056	0.07724063
27	0x3dbcb14c	0.09213504
28	0x3db1402d	0.08654819
29	0x3e0f066f	0.13967298
30	0x3e0122d4	0.12610942
31	0x3d94d36a	0.072668865
32	0x3da812e2	0.082067266
33	0x3d7ec691	0.062201086
34	0x3da0fce8	0.07860738
35	0x3dbc12c0	0.09183264
36	0x3da7a3eb	0.08185562
37	0x3d70d942	0.058800943
38	0x3db95751	0.090498574
39	0x3d9c7273	0.07639017

W5 f4 [40, 4]
0	0x3cc878d0	0.02447167
1	0x3d880726	0.066419885
2	0xbcbbf1cd	-0.022942448
3	0x3d840605	0.06446461
4	0x3e7b9ba0	0.24571085
5	0xbe15b02b	-0.14617984
6	0x3c025bcd	0.007956457
7	0x3dced95b	0.10100051
8	0xbc8cde70	-0.01719591
9	0x3e4ff1cd	0.20307083
10	0xbd7db687	-0.06194165
11	0xbcaccfee	-0.021095242
12	0x3d020da8	0.031751305
13	0xbd23bd58	-0.039975494
14	0xbc4f8469	-0.012665846
15	0x3df45c3b	0.11931654
16	0x3d8ae20d	0.06781397
17	0x3d48a64d	0.04898672
18	0x3cba12cb	0.02271404
19	0x3c2d688e	0.01058401
20	0x3d6fd2cc	0.05855064
21	0x3d4bedbf	0.04978728
22	0x3d599b37	0.05312654
23	0xbda5e395	-0.081000485
24	0xbdafb190	-0.08578789
25	0xbdfc35fa	-0.12314983
26	0x3d2196e1	0.03945053
27	0x3e5b3606	0.21407327
28	0xbd7c0993	-0.06153257
29	0xbde5335d	-0.111914374
30	0x3d5479e4	0.051874056
31	0xbd4524b8	-0.04813072
32	0x3d6cbc21	0.0577966
33	0x3cbfafd7	0.023399277
34	0x3d0eae21	0.03483403
35	0xbdf0a574	-0.11750308
36	0xbe893456	-0.26797742
37	0xbb9dc201	-0.004814387
38	0x398834fb	0.00025979415
39	0x3c0a2a1b	0.00843289
40	0xbd2959bf	-0.041345354
41	0x3e0a7a56	0.1352323
42	0xbe1b9cad	-0.15196486
43	0x3e699d63	0.22813945
44	0xbd8f68ff	-0.07002448
45	0x3df6e410	0.12055218
46	0xbdcdaf02	-0.10043146
47	0x3e2df442	0.16987708
48	0xbcf7795a	-0.030209232
49	0x3d3bfb24	0.045893803
50	0x3c839631	0.016062828
51	0xbda430d3	-0.08017125
52	0x3e18b9bf	0.14914607
53	0xbdba86a0	-0.09107709
54	0xbc1969ee	-0.0093636345
55	0x3dba1150	0.09085333
56	0xbe3bec62	-0.18351892
57	0x3dd18814	0.10231033
58	0xbe330663	-0.17482905
59	0xbdf02c82	-0.11727239
60	0xbce157f5	-0.027507761
61	0xbb8cbcd6	-0.004294972
62	0x3d52f3d7	0.051502075
63	0xbd725c6b	-0.059170168
64	0xbde2eed9	-0.11080713
65	0x3e2f4b4e	0.1711857
66	0x3c691c4f	0.014227941
67	0xbb427cd6	-0.0029676459
68	0xbc070e74	-0.008243192
69	0xbc81296a	-0.015766818
70	0x3baa833d	0.005203633
71	0xbdca8bce	-0.09889947
72	0xbb868b74	-0.0041059796
73	0x3b873792	0.0041264975
74	0xbd351ed8	-0.044218868
75	0x3dce7e33	0.10082664
76	0xbdbd1ada	-0.09233637
77	0xbca91869	-0.020641522
78	0x3da7b556	0.08188884
79	0xbe149dfb	-0.1451339
80	0xbdd8b333	-0.105810545
81	0x3b30b4b6	0.002696318
82	0xbdfdcd77	-0.12392705
83	0x3e5544a3	0.20826964
84	0x3c89796d	0.016781533
85	0xbe0978ac	-0.13424939
86	0xbc7356f7	-0.014852277
87	0xbb8870c8	-0.004163835
88	0x3e0c7afb	0.13718788
89	0x3d211d1f	0.039334413
90	0x3abe4868	0.0014517428
91	0x3c92e5e2	0.017931882
92	0x3d3f9bc2	0.0467794
93	0x3d713e2c	0.058897182
94	0xbd2d1873	-0.042259645
95	0xbe0630d9	-0.13104571
96	0xbde49dab	-0.11162885
97	0xbe1f8a60	-0.1558013
98	0xbd4e0ccd	-0.050305177
99	0x3d4be315	0.04977711
100	0xbd98022c	-0.07422289
101	0x3dea1e7d	0.114315964
102	0xbe38c8fc	-0.1804542
103	0xbd424d99	-0.047437284
104	0x3e254dbb	0.16142933
105	0x3d616a21	0.055032853
106	0xbe5904b7	-0.21193205
107	0x3c872e03	0.016501432
108	0xbdade488	-0.084908545
109	0x3d8932d7	0.0669915
110	0x3e10fc3e	0.14158723
111	0xbe087a7d	-0.13327976
112	0x3e24ce9f	0.16094445
113	0xbcd85dd0	-0.02641192
114	0xbeb36ece	-0.35045475
115	0x3bacb116	0.0052701337
116	0xbd6a052d	-0.057133842
117	0xbc147123	-0.009060177
118	0x3d871301	0.065954216
119	0x3d3ae0bf	0.04562449
120	0xbcd41f8e	-0.025893953
121	0xbe1c9541	-0.15291311
122	0x3b5b355d	0.0033448555
123	0x3e14b389	0.14521612
124	0x3e507cfb	0.20360176
125	0x3e20d9f7	0.15708147
126	0x3d4d4eed	0.050124098
127	0xbde0b670	-0.10972297
128	0x3e4371dd	0.19086404
129	0x3d44a874	0.048012212
130	0xbc4d5c98	-0.012534283
131	0x3e4af45e	0.19819781
132	0x3d078c46	0.03309276
133	0x3bdd6271	0.00675612
134	0xbd63036b	-0.05542318
135	0x3ab6dc04	0.0013951068
136	0x3ca68ef8	0.020331845
137	0x3df597b5	0.119918264
138	0xbd420f33	-0.047377776
139	0xbdf00ce2	-0.11721207
140	0xbda1c609	-0.078991
141	0x3e2bedb1	0.16789891
142	0xbdcfd9dd	-0.10148976
143	0xbdf170bd	-0.11789081
144	0xbbe5d3f6	-0.007013793
145	0x3e04230a	0.12903991
146	0xbd15df0e	-0.036589675
147	0x3bd27845	0.0064230287
148	0x3dd36c78	0.10323423
149	0x3d025c97	0.03182658
150	0x3c794be4	0.015215848
151	0xbe4f690d	-0.20254917
152	0xbcf65719	-0.030070828
153	0x3d1b28b0	0.0378806
154	0xbe03948f	-0.1284964
155	0x3db64817	0.08900469
156	0xbc7cd4a9	-0.0154315615
157	0xbc9bf752	-0.01903883
158	0x3cbbca4d	0.022923613
159	0xbdc50e34	-0.0962185

b5 f4 [4]
0	0x3d8dab8b	0.06917485
1	0x3da7f2e0	0.082006216
2	0x3ddd0333	0.10791626
3	0x3dbbcd54	0.091700226
