furhatBartender/userPerception/training/cnn.pth (torch, 539979 bytes, 10 tensors)

W1 f4 [16, 1, 5, 5]
000000 37 0f 80 3d 84 fd e0 3d 14 d3 0d bd 30 55 27 3e
       0.06252902 0.10985854 -0.034625128 0.1634109
000010 a4 0a e0 3d db c9 d5 3b c3 c9 0a bd c2 f2 a7 3d
       0.109395295 0.006524307 -0.03388382 0.08200599
000020 dd ea e5 bd 0e bd 5e 3d 99 21 8b 3c 80 48 80 3d
       -0.11226437 0.054379515 0.016983794 0.06263828
000030 2b 0b 3f 3c 68 17 27 3d 75 ae 8b bc 57 ed 37 3d
       0.0116603775 0.040793806 -0.017050961 0.04490408
000040 56 b8 5f 3d ce df 8f 3d 94 6a 08 3e b0 8f 03 be
       0.054619156 0.07025109 0.13321906 -0.12847781
000050 20 7c 31 3d a1 a7 ae 3d 5c f8 09 3e 35 57 95 bd
       0.043331265 0.085280664 0.13473648 -0.07292024
000060 a7 dc 58 bd 36 2e 96 bd 8e 31 f4 bd 81 40 1d be
       -0.052944805 -0.07333033 -0.11923514 -0.15356638
000070 16 a1 bd bd 60 94 10 be 58 ef 5f bd fb 69 82 bd
       -0.0925924 -0.141191 -0.054671615 -0.063678704
000080 e2 74 01 be 66 51 c4 3d ab 33 a4 3d 80 71 4b 3d
       -0.12642244 0.09585838 0.080176674 0.04966879
000090 9f 7b a1 be ca 3c ba bd 8f 57 ca bd 61 2c 14 3e
       -0.31539628 -0.09093626 -0.09879982 0.14470054
0000a0 33 86 d6 bd 9f e7 b6 bd 46 00 46 be aa 13 fb bc
       -0.10474815 -0.08930897 -0.19336042 -0.030649025
0000b0 1c 6a 02 be 0d 4b 39 be e6 d6 93 bd b3 c1 5e 3d
       -0.1273579 -0.18095036 -0.07218723 0.054383945
0000c0 4a d4 7d bd 3c 3f 82 3c 7a d1 90 bc 11 f0 54 3e
       -0.061970033 0.015899293 -0.017678011 0.20794703
0000d0 6b c6 1f 3d 0f a8 24 be 50 40 22 3d 32 d7 6b bd
       0.039007585 -0.16079734 0.039612114 -0.057578273
0000e0 eb 53 0a be 88 b3 9d 3d 1f 17 bd 3d 65 b9 0b bd
       -0.13508575 0.077002585 0.092329256 -0.034112353
0000f0 34 e3 03 be d1 9b 4b bd 7e ee 52 bd 12 26 e1 bd
       -0.1287964 -0.049709145 -0.051496975 -0.109935895
000100 2f 67 01 3e f6 2a 3b 3d 1e 17 20 bd 2f 0f d3 3d
       0.12637018 0.045695268 -0.039084546 0.103056304
000110 29 68 e0 bd 24 70 87 bd 0a 3e 13 3d b2 77 d8 3d
       -0.10957367 -0.06613186 0.035947837 0.10569705
000120 c2 7d f2 bd 73 fd 19 be 0b 7e e4 bd 90 6a 36 3c
       -0.11840393 -0.1503809 -0.11156853 0.011133805
000130 6e 38 03 bd ab 60 21 3e b0 19 21 be 14 12 23 bd
       -0.032036237 0.15759532 -0.15732455 -0.039812163
000140 fa 08 b1 bd 33 e7 43 3e 66 84 09 3d 94 fd 5b bd
       -0.0864429 0.19131164 0.03357353 -0.053708628
000150 73 13 e4 bd 2a 5d 11 bd c3 1f fa 3d fd 1e f8 bd
       -0.11136522 -0.03548924 0.12213089 -0.121152855
000160 6e ee 0c be ac 35 8c bd a7 52 52 bb 64 d0 56 3d
       -0.13762829 -0.068461746 -0.0032092722 0.05244483
000170 2e e7 97 bd 0d 82 86 be ab 47 06 3e b9 9d 0c 3d
       -0.07417141 -0.26271096 0.13113277 0.034330104
000180 f2 57 e5 3d 5a bd 18 be 76 71 ec bc 6e 9a 8e 3d
       0.11198415 -0.14915982 -0.028862696 0.06963049
000190 9c 82 55 be a9 ee 43 3e 42 53 47 be 9d 9c dc bd
       -0.20850605 0.1913401 -0.19465354 -0.10772059
0001a0 44 f5 6d bc 91 d9 09 be 0c d5 95 3d 64 ae c6 3c
       -0.014523808 -0.13461901 0.07316026 0.024253078
0001b0 28 57 40 3d f4 19 3a be 2f b9 39 bd 86 5b 4a bd
       0.04695812 -0.18173963 -0.04534262 -0.04940369
0001c0 d4 b5 b0 3d 84 88 80 3d 03 e4 84 be 95 10 1e be
       0.08628431 0.06276038 -0.2595521 -0.15436013
0001d0 f5 f1 ec 3d 3e cc ab 3d 5d 24 0a 3c bb b8 8a be
       0.11569587 0.083885655 0.008431521 -0.27094063
0001e0 09 d8 ec bd bd 4c 0f be 40 2e af 3c 7a fd c9 bd
       -0.11564643 -0.13994117 0.021384358 -0.098628
0001f0 84 82 6a bd 20 59 c0 bd 27 48 ef bc 11 1b 59 3d
       -0.057253376 -0.09391999 -0.02920921 0.05300433
000200 37 85 a8 bd d0 ca be bd 5e dd 5c 3d 56 fb 0f be
       -0.08228534 -0.09316027 0.05392205 -0.14060721
000210 55 ff ef bd ec 04 6a 3d a8 00 a4 bd b2 57 39 be
       -0.117186226 0.0571336 -0.08007938 -0.1809986
000220 a5 d4 15 3d 3a 79 d9 bd 3f ad 32 be 72 ec 66 bd
       0.036579747 -0.10618825 -0.174489 -0.056377836
000230 6a bd e1 bd 82 14 af bd 14 7b 16 be 11 ea 39 be
       -0.11022456 -0.085488334 -0.14695388 -0.18155695
000240 b2 c9 68 bd 97 50 e8 3d 17 33 47 3d e1 82 92 bc
       -0.056832977 0.11343496 0.048632707 -0.017884674
000250 83 8f 09 be d9 99 88 3c 82 74 89 bd c2 f2 35 3b
       -0.13433652 0.016674923 -0.06711675 0.0027763103
000260 38 7b 22 be dc 8b f5 bc ac ae 11 be aa f9 0e be
       -0.15867317 -0.029973917 -0.14226788 -0.13962427
000270 5f e2 a0 bc 06 5e 23 bd 79 32 d4 bc 7a 9a fd bd
       -0.019639192 -0.03988459 -0.025902973 -0.1238298
000280 d9 9c bb bd c5 18 3f bd 15 18 85 bd ea d1 32 3d
       -0.09160776 -0.04665448 -0.06498734 0.04365722
000290 0f ad 1e be b7 d4 76 3d 1f d5 b5 bd f0 b6 0d 3c
       -0.15495704 0.060261454 -0.0887854 0.008649573
0002a0 88 f0 16 be b0 55 e4 bd 47 2a 90 3d 27 9a fc bd
       -0.14740193 -0.11149156 0.07039314 -0.1233409
0002b0 6f 59 17 3c 85 cd 23 be 44 44 c2 bc 5d b1 8c bc
       0.009237631 -0.15996368 -0.023714192 -0.017174417
0002c0 b9 34 a9 bc ae 4e a2 bd 46 f4 84 3c b6 65 ff bd
       -0.020655023 -0.07925163 0.01622976 -0.12470572
0002d0 54 e2 82 be 5f f1 80 bd 8c 3b c0 bd 28 5f e6 3d
       -0.255633 -0.06296038 -0.09386358 0.11248618
0002e0 05 97 05 be 2e e7 bf 3d 94 7b a9 3c 47 7c 23 be
       -0.1304589 0.09370266 0.02068881 -0.15965377
0002f0 fd f3 00 ba 99 9b 35 bd 71 df 90 bd 45 c8 3b be
       -0.00049191696 -0.044337843 -0.07073868 -0.18338116
000300 4c 11 39 3c 29 04 57 bd 5c 37 15 be bf f6 23 be
       0.011295628 -0.0524942 -0.14571899 -0.16012095
000310 1d e3 2e be a5 0f 13 3c 83 88 15 bc ed 43 0f be
       -0.17078824 0.008975898 -0.009126785 -0.13990755
000320 bc ce c0 3d e9 4a 1e be 9a ce 80 be 66 19 37 bc
       0.094144315 -0.15458263 -0.25157624 -0.011175489
000330 d1 f7 00 3d b4 55 1b 3d 42 a2 cf 3d b6 6b df bc
       0.031486336 0.03792353 0.1013837 -0.02727304
000340 2f b8 53 3d 65 ab a8 3d 9e bd 4e 3d 09 f0 ec bb
       0.051689323 0.08235816 0.0504738 -0.007230763
000350 35 91 0a 3c 28 41 71 3d ad 79 1c 3e 01 6a cb bc
       0.008457472 0.05890003 0.1528079 -0.02483082
000360 97 94 a0 3d e9 1b 91 3b 69 91 1b 3d 10 56 81 3d
       0.07840841 0.004428376 0.03798047 0.06315243
000370 c2 2f b7 3d 60 b3 45 be 28 4e d2 bd 12 5b 41 bd
       0.08944656 -0.19306707 -0.10268813 -0.047205992
000380 40 b6 15 3d 8c 0d 8b be 98 13 b1 3c b2 e7 9b bd
       0.03655076 -0.27158773 0.021615788 -0.07612552
000390 b6 52 10 be 98 5f 49 be 06 25 35 be 5a 7d e8 3b
       -0.14094052 -0.19665372 -0.17689905 0.007095021
0003a0 65 d6 ca 3c b0 d6 4b be e7 05 92 bd 84 7b b7 3d
       0.024760434 -0.19906116 -0.07130032 0.089591056
0003b0 ce 80 ed 3d b0 a4 2c bd 93 9e 27 3e d6 18 fe 3d
       0.11596833 -0.042149246 0.16369085 0.12407081
0003c0 65 f5 38 3e 56 44 18 be 71 7d ee 3c f3 7c 02 3e
       0.1806236 -0.14869818 0.02911255 0.12742977
0003d0 2d 8b 0b 3e fe 8c 04 3e b6 30 e7 3c b5 57 88 3d
       0.1362731 0.12944409 0.02822147 0.06657354
0003e0 bd 6f be bc 1d 51 c7 bd 2e 98 14 bd 35 bc 38 3d
       -0.02324664 -0.09732268 -0.036277942 0.045101363
0003f0 df 69 f0 bc 0f 69 69 3e 9e 40 31 3c e7 ef 26 bc
       -0.029347358 0.22793983 0.010818629 -0.010189033

b1 f4 [16]
000000 fe 9d 23 3d 75 e5 23 3e 5b 9d 23 3d 57 e5 23 3e
       0.039945595 0.160055 0.039944988 0.16005455
000010 65 9d 23 3d 62 9d 23 3d 74 9d 23 3d 49 e5 23 3e
       0.039945025 0.039945014 0.03994508 0.16005434
000020 67 9d 23 3d 6c e5 23 3e 70 9d 23 3d 6e e5 23 3e
       0.039945032 0.16005486 0.039945066 0.16005489
000030 65 9d 23 3d 71 e5 23 3e 78 9d 23 3d 75 e5 23 3e
       0.039945025 0.16005494 0.039945096 0.160055

W2 f4 [32, 16, 5, 5]
000000 8d 3d 28 3e 15 e7 2b 3d 8d 78 1c 3e 6f d8 8f 3d
       0.1642973 0.041968424 0.15280361 0.07023703
000010 98 d9 76 3e 45 9b 24 be ae 62 98 3d 03 eb 17 3d
       0.24106443 -0.16074856 0.07440697 0.03708936
000020 b3 82 51 3e a1 ba 9d bd 99 54 86 3c a2 16 e1 3d
       0.20460014 -0.07701612 0.016397761 0.10990645
000030 fa ee 20 bc 78 84 1e 3e ae db 8a 3d 13 8f 37 bd
       -0.009822601 0.1548022 0.06780182 -0.04481418
000040 92 63 2a 3e 91 1c d3 3c cf 87 ab 3c 42 97 67 3d
       0.16639546 0.025770457 0.020938782 0.056540735
000050 23 cc cc bd 98 62 a5 3d ef 4b 70 3e 56 f0 3d 3e
       -0.099998735 0.08075446 0.23466466 0.18548712
000060 8e 1b c2 bc 22 cd d2 3d 38 d9 8e 3d 4d 51 9b 3c
       -0.02369478 0.10293032 0.06975025 0.018959666
000070 de 57 37 3e a4 45 12 3d 38 5a 13 3e 53 99 b9 bd
       0.17904612 0.035710946 0.14389884 -0.090624474
000080 b4 0b 5d bd 09 6b 25 3d 16 15 65 3e 7a 4c 07 3e
       -0.05396624 0.04038528 0.22371325 0.13212767
000090 30 4b 8d 3d f9 34 95 bd ae 3b d9 3d 73 97 19 3e
       0.068991065 -0.07285494 0.10607086 0.1499918
0000a0 f3 59 db 3d f4 51 80 bd d8 54 73 3d 75 b2 b0 3b
       0.10710516 -0.06265631 0.059407085 0.0053923675
0000b0 ee 3f 55 bc fe 36 1c 3e a7 3e 54 3e 95 48 17 3d
       -0.01301573 0.15255353 0.20727025 0.036934454
0000c0 6b 27 4b 3e 09 ba 17 3e f5 08 25 bb cd c5 ff 3d
       0.19839256 0.1481706 -0.002518234 0.124888994
0000d0 a1 9b 32 bc e6 74 64 be af 68 20 3e b3 e4 0d 3d
       -0.010901363 -0.22310218 0.15664934 0.034641933
0000e0 b8 84 42 3e 45 a1 b1 3d 6f e1 2e bd 61 e9 54 3e
       0.1899594 0.08673338 -0.04269546 0.20792152
0000f0 7d e7 98 3d 96 85 c5 3d f1 93 ad bd 04 46 42 3d
       0.07466028 0.0964462 -0.08475483 0.047430053
000100 aa f2 4e 3e 0f ec ef 3c 42 d9 48 3e 89 8b 8a 3e
       0.20209756 0.029287366 0.19614127 0.27059582
000110 76 2b 84 3c 6b bb 25 3e fd 27 8d 3d 33 b3 93 bc
       0.016134005 0.16184776 0.06892393 -0.018029785
000120 d4 41 a4 bc 85 27 71 3d 22 bb 5b 3d 5d d4 5e 3e
       -0.02005092 0.05887558 0.05364526 0.21760698
000130 2d 49 58 3e f7 7d 8d 3d d2 98 68 3d 4e d3 0e 3e
       0.21121664 0.069087915 0.056786366 0.13947794
000140 4e 0d a9 3d f2 ff f8 bd 60 70 e0 3d 0f 1a a3 bd
       0.08254491 -0.12158193 0.10958934 -0.07963955
000150 fb 98 9b 3d c4 64 aa 3d ed 0e 06 3e 59 cc da bd
       0.07597538 0.08320001 0.13091631 -0.106835075
000160 43 91 fa 3d 38 29 7d 3d 25 aa 6c 3d 84 39 16 3d
       0.12234738 0.061806887 0.05777945 0.036675945
000170 bb ce 05 3e 69 44 d1 3d 64 e9 fb 3c ea 8e 70 bc
       0.13067143 0.10218126 0.030750938 -0.014682511
000180 a2 d1 e2 3d 0a 75 77 bd a7 e7 23 3e c0 b1 d8 3d
       0.110751405 -0.06041435 0.16006337 0.10580778
000190 bf 79 81 3d 55 ab fe bd fd 5d 8a 3b 18 ad 11 3d
       0.06322049 -0.12435023 0.00422263 0.035565466
0001a0 ad 3a 42 3d a5 58 e4 3d 19 52 30 3c 14 a9 05 3d
       0.04741924 0.1114972 0.010761761 0.03263195
0001b0 22 06 60 3e 66 f1 b2 bd 26 09 30 be 83 4f 30 3e
       0.2187734 -0.08737449 -0.1719099 0.17217831
0001c0 36 17 f9 3d 79 98 a1 3e dc db 61 3e db 85 1f bd
       0.1216263 0.3156164 0.22056526 -0.038946014
0001d0 3f ae 7b bd eb 43 d5 3d 17 36 bf 3c e7 79 7b 3d
       -0.06144547 0.10413345 0.023341222 0.061395552
0001e0 ce 7d 19 3e 0c 33 ec 3d e9 e8 4e 3c 17 03 d4 3d
       0.14989397 0.11533174 0.012628772 0.10352152
0001f0 1c 7d 24 bd 16 53 1f 3e 97 f2 14 3d 8e 9b 31 3e
       -0.040158376 0.15559039 0.036364164 0.17344496
000200 17 9b a6 3c f6 2b 0d be 67 cb db 3d 9a dd c6 3d
       0.020337624 -0.13786301 0.10732155 0.09710236
000210 d2 58 ab 3e 7b a9 cd 3e a3 46 55 3e 86 88 54 3e
       0.33466202 0.40168366 0.20827727 0.20755205
000220 f1 b1 10 bd 71 02 45 3e a3 36 58 3e 50 81 80 3d
       -0.03532595 0.19239213 0.21114592 0.062746644
000230 62 dc c0 3d 8c 89 1a bd 7c 30 3b 3e 8b bc 02 bd
       0.09417035 -0.03772883 0.18280214 -0.03191809
000240 8b 34 4e 3d aa 70 b2 3d bc 20 b7 bd 2f e6 88 3e
       0.050343078 0.08712895 -0.089417905 0.26738116
000250 66 e7 a9 3d c1 67 5c bd fa 34 ac 3d 9c 9d 09 3e
       0.08296089 -0.053809885 0.08408542 0.1343903
000260 05 c9 44 3e 2b ea b8 3c fb 91 3e 3e 81 5a 5f 3e
       0.19217308 0.022572597 0.18610375 0.21811868
000270 e0 31 8a 3d 08 2d 51 3d 94 e6 9a 3d bf ea ea bd
       0.06747794 0.051068336 0.075635105 -0.114705555
000280 80 d6 ab 3d 0a 31 91 3c 78 ac 3e 3e dd 85 5e bc
       0.08390522 0.017723579 0.18620479 -0.01358172
000290 78 19 de 3d 31 f6 2c 3c 0a bc cc 3d 9d 7c 4f bd
       0.108447015 0.0105567435 0.09996803 -0.05065595
0002a0 29 cd 62 3c cb a0 45 bd 26 86 91 3d 23 48 fd bc
       0.013842859 -0.048249047 0.07105665 -0.030918187
0002b0 6f eb ba 3d 50 eb 98 bd 0a 17 f8 3b 4b 75 b8 3c
       0.09126937 -0.07466757 0.007571106 0.022516867
0002c0 79 04 b9 3d fd ae 7b bc 61 c4 ab 3d ea 4f 2e 3d
       0.09034056 -0.015361545 0.08387066 0.04255668
0002d0 0a 0d e8 3d 34 82 64 bd c7 ad 98 3d fb b7 cd bb
       0.11330612 -0.055788234 0.074550204 -0.0062780357
0002e0 e9 b2 9e 3c 08 89 0a be 43 43 18 3e db 22 0a 3e
       0.01937242 -0.13528836 0.14869408 0.13489859
0002f0 07 df 66 bd 61 8d ab bd 15 50 d2 3d 9a 2b a1 3d
       -0.05636504 -0.08376575 0.10269181 0.078696445
000300 d2 bc 12 3e 8e d7 a7 bc 2b 0b f2 3c 39 14 c7 3d
       0.14329842 -0.020488527 0.02954634 0.09720654
000310 ce d9 41 3d bc d7 ce 3b 7a a5 ba bd 3e 4a f9 bd
       0.047326855 0.0063123386 -0.091135934 -0.12172364
000320 0c c7 43 bd 23 21 47 3e 07 a3 f7 3d 98 7d 82 3e
       -0.047797248 0.19446234 0.12091642 0.25486445
000330 cd 24 98 ba 60 8c b2 3d aa 3e 4a 3e b8 64 0d bd
       -0.0011607647 0.08718181 0.19750467 -0.03451988
000340 d3 d4 c2 3b aa 26 13 3e 71 ed 3c 3d cc 3f ca bc
       0.005945781 0.14370218 0.04612488 -0.024688624
000350 31 61 e0 3d 4a 05 db 3d fc 72 ca bd de 6a a1 3c
       0.10956038 0.10694368 -0.09885213 0.019704279
000360 f7 85 53 3c 28 4f 06 3e b6 ad 33 3e 69 62 ad 3d
       0.012910358 0.13116133 0.17546734 0.08466036
000370 25 2b 00 3e 7b e2 69 bd 75 0a da bc a4 f3 89 3c
       0.12516458 -0.057100754 -0.026616314 0.01683981
000380 18 13 d1 bc df cc 0c 3e 72 f6 8c 3d 83 8b ae bc
       -0.0255218 0.13750027 0.06882943 -0.021306759
000390 21 5b ea 3c bc 86 98 3d d3 f3 80 b8 2e 3e 0d 3e
       0.028607907 0.074475735 -6.1489314e-05 0.13793251
0003a0 18 1a 10 3e 47 97 a5 3e c8 42 56 3d 51 d4 0f bd
       0.14072454 0.32341978 0.05230978 -0.03511459
0003b0 32 7a 45 3e c6 53 b5 ba 93 01 9a 3d 5c 21 16 3d
       0.19284895 -0.001383417 0.075198315 0.036652908
0003c0 44 94 b6 3d b8 38 7a 3d 2b b0 a1 3d 79 4a 4a 3e
       0.08914998 0.061089247 0.078949295 0.19754972
0003d0 0e 81 8f bd bc 05 1d be 10 f4 c4 bd 7d 47 66 ba
       -0.07007037 -0.15334219 -0.09616864 -0.00087844563
0003e0 6a b1 d4 3d 41 3b 0f 3e 46 12 46 3e 73 11 f2 3d
       0.103854015 0.13987447 0.19342908 0.118197344
0003f0 f6 0e f7 3d be 0f e2 3d 5f 4f 29 3c 98 0e c6 3d
       0.120634004 0.11038159 0.010333865 0.09670752

b2 f4 [32]
000000 75 e5 23 3e 6f e5 23 3e 67 e5 23 3e 60 9f 23 3d
       0.160055 0.1600549 0.16005479 0.039946914
000010 91 9d 23 3d 57 e2 23 3e 6c 9d 23 3d 65 9d 23 3d
       0.03994519 0.1600431 0.03994505 0.039945025
000020 72 9d 23 3d c8 9d 23 3d 82 9d 23 3d da 9d 23 3d
       0.039945073 0.039945394 0.039945133 0.03994546
000030 6c e5 23 3e ae 9d 23 3d 4e e5 23 3e 8c 9d 23 3d
       0.16005486 0.039945297 0.16005442 0.03994517
000040 20 e4 23 3e 82 9d 23 3d 67 9d 23 3d d1 9e 23 3d
       0.16004992 0.039945133 0.039945032 0.03994638
000050 b6 9d 23 3d 67 9d 23 3d 83 9d 23 3d 6a 9d 23 3d
       0.039945327 0.039945032 0.039945137 0.039945044
000060 6d e5 23 3e d7 9d 23 3d 68 e5 23 3e 6e e5 23 3e
       0.16005488 0.03994545 0.1600548 0.16005489
000070 93 9d 23 3d 5c e5 23 3e 5c e5 23 3e 62 9d 23 3d
       0.039945196 0.16005462 0.16005462 0.039945014

W3 f4 [48, 32, 4, 4]
000000 2c b3 a5 3d e1 2c 5b 3d d3 9b 2f 3e e3 7e 9c bd
       0.08090815 0.053509597 0.17149286 -0.07641389
000010 ef b1 1f 3e 33 1c 8a 3e c3 02 5f 3e 46 ca eb 3d
       0.1559522 0.2697464 0.21778397 0.1151319
000020 e2 e2 06 bd 89 14 ed 3d 99 e5 35 bd dd f3 88 bd
       -0.032931216 0.115761824 -0.044408415 -0.06687138
000030 bb 56 03 3e f9 cf 60 3d 74 35 8b 3d 26 7a 8d 3c
       0.12826054 0.05488584 0.06797305 0.017270159
000040 eb 80 17 be 87 80 80 3d ba f0 7f be e2 0f 0e 3d
       -0.14795272 0.06274515 -0.24994174 0.034683116
000050 1b 09 40 3e 0a 3c 3b 3d 6d b6 6e 3e 07 08 48 bd
       0.18753473 0.045711555 0.23311777 -0.04883578
000060 ed 4c 12 3e 32 7d 1a bc 8a bb 84 bc 9d c3 a7 bb
       0.14287157 -0.009429263 -0.016202707 -0.0051197545
000070 0c 17 82 3e 21 25 30 3e 0b c2 7b 3e 34 92 17 3e
       0.25408208 0.17201664 0.2458574 0.14801866
000080 05 08 25 3e a7 02 89 bc 3b 98 5b 3e 58 d3 52 3e
       0.1611634 -0.016724898 0.2144479 0.20588434
000090 0e 0f b2 3c e3 7e 98 3d 4a 3b 08 be 0a 95 27 3e
       0.021735694 0.07446077 -0.13303867 0.16365448
0000a0 60 99 06 3e 2e 01 8f bd cf dc ca 3d 6e d6 15 3e
       0.13144445 -0.06982647 0.09905397 0.1463258
0000b0 c7 19 61 3e 4b 80 39 3e 94 de 58 3e d2 8e cc 3d
       0.2198249 0.18115346 0.21178657 0.09988178
0000c0 79 41 08 3e 31 10 2d 3e 56 36 80 3d 27 d8 5a 3d
       0.13306226 0.16900708 0.06260364 0.053428795
0000d0 46 63 13 3e 8b e0 44 3e 29 c2 02 3e b4 b0 23 3d
       0.14393339 0.19226281 0.12769379 0.03996344
0000e0 54 97 9d 3d 66 87 05 3e 47 18 16 3e 9e 6a 9d bd
       0.07694879 0.13039932 0.14657699 -0.07686351
0000f0 32 7e 56 bd cc f3 1c 3e 65 b0 f5 3d f8 cb cd 3d
       -0.052366443 0.15327376 0.11996535 0.100486696
000100 a4 10 93 b9 fc 2f 9c 3d a8 16 02 3e ae ef 3e 3d
       -0.00028050423 0.0762634 0.12703955 0.046615295
000110 35 52 a7 bc 2d 46 72 3d 36 27 7f 3d e8 a5 16 3e
       -0.020424942 0.059148956 0.062293254 0.14711726
000120 e1 70 13 3e f5 3d 02 3d d6 37 4d 3d 69 84 b5 3c
       0.14398529 0.031797368 0.050102077 0.022157865
000130 59 af 7b 3c 4d c3 f1 3d 14 63 ec 3d ed 47 26 3e
       0.01536163 0.11804829 0.11542335 0.16238375
000140 91 f5 7c be db c4 2a be fb d6 29 3e 36 11 8a 3d
       -0.24703051 -0.16676657 0.16585915 0.06741564
000150 92 d7 c4 3c 47 7f c8 bd e6 4c 41 bd 25 b0 3c be
       0.024028573 -0.09789901 -0.047192477 -0.18426569
000160 48 7b b5 3d c2 f0 81 be 07 6a 15 be 57 67 fb bb
       0.08861405 -0.25378996 -0.14591227 -0.007672231
000170 8a b2 7e bc f6 9b b0 bd 27 13 2d be 83 bb 6b 3e
       -0.015545497 -0.08623497 -0.16901837 0.23020749
000180 31 fd cc bc ee cd fa bd 88 06 ff 3d 8c a0 21 3d
       -0.025023075 -0.12246309 0.124524176 0.03945975
000190 e2 d5 07 3d 5f 11 83 bd 0b f3 df 3d 9e ac e5 bd
       0.03316296 -0.06399798 0.10935029 -0.11214565
0001a0 66 66 b8 3d c8 24 fa 3d dc 10 8e bd 02 d8 88 3d
       0.09003906 0.12214047 -0.069368094 0.06681825
0001b0 be 1b 1a be eb df 01 bd 0d 6c b7 3d ae 82 07 3e
       -0.15049645 -0.031707685 0.08956156 0.13233444
0001c0 17 1e fb bd d7 82 2d 3e 84 12 92 3b fa 69 d0 3d
       -0.122615986 0.16944443 0.0044577736 0.101764634
0001d0 97 3f 13 3d 15 85 af bd c8 6f 21 bd c4 3e 9e 3b
       0.035949316 -0.08570305 -0.039413244 0.0048292596
0001e0 ea 23 a5 bd 75 94 c0 bd 5b 21 bb bd e5 6e ee bd
       -0.08063491 -0.09403316 -0.091372214 -0.11642245
0001f0 3d 0c 21 bd cf 08 f5 bd 10 9c f9 3c de 54 c7 bd
       -0.039318312 -0.11964571 0.030469924 -0.09732984
000200 1e 07 8e bd a3 15 55 3d 0a 3f f5 3d 2e 97 80 3c
       -0.06934951 0.052022588 0.11974914 0.015697088
000210 82 13 8f bd 60 35 39 3e af 3d 8d bd fb 49 04 3e
       -0.06986143 0.18086767 -0.06896531 0.12918846
000220 79 9d ce 3d cf ec e4 bc dd 66 19 3d 7a fc 94 3e
       0.10088629 -0.02794495 0.037451614 0.29098874
000230 b5 ce 86 3d e1 19 be 3d 1d c0 8d 3c eb e1 ee 3d
       0.06582395 0.0928228 0.01730352 0.11664184
000240 40 81 1b be b5 14 14 3e 5a bd 93 3e 9b 01 7e 3d
       -0.15186024 0.14461024 0.288554 0.06201325
000250 26 eb 80 3c f8 a8 e3 3c 36 f6 46 3d 0f 71 8e 3c
       0.015737128 0.027790532 0.04857465 0.017387895
000260 06 95 53 3e b6 91 df 3d d2 72 2e 3e e2 43 ad bb
       0.20662317 0.10916464 0.17035988 -0.0052876333
000270 03 16 8a 3d ba 5b 88 3d 34 3e 0f 3e d2 2b 52 bb
       0.0674248 0.066581205 0.13988572 -0.0032069576
000280 74 fe b7 3d c0 db 00 be bb ad 0d 3e 71 50 0a bc
       0.0898408 -0.12583828 0.13835804 -0.00844203
000290 7f cb 72 3e 33 c2 88 3e 6a 69 1b bc 69 f5 4e bc
       0.2371044 0.26710662 -0.009485582 -0.0126317525
0002a0 97 bf 2e bd 07 17 a5 3d f8 e2 28 3e 06 6e ec bb
       -0.042663183 0.08061033 0.16492832 -0.0072152643
0002b0 d3 a9 26 3e 1d 08 49 bd 1a 3f 07 bd 91 5a a6 3d
       0.1627572 -0.049080003 -0.033019163 0.08122743
0002c0 00 03 68 3d 4e 2e e6 bd 51 99 ac 3d 84 89 ac 3d
       0.056643486 -0.11239301 0.0842768 0.084246665
0002d0 18 72 63 be 69 ac e3 3c 6d d7 68 3e 40 39 93 3d
       -0.22211492 0.027792173 0.22738428 0.07188654
0002e0 5d 00 3c 3e 58 4e 90 3d 96 c2 17 3d 23 2d 0e 3e
       0.18359514 0.07046193 0.037050806 0.13884406
0002f0 d7 19 5d bd 74 99 72 3d 4b fb 81 bd cc d8 01 be
       -0.05397972 0.059228376 -0.063467585 -0.12680358
000300 2c 3b 0a 3f 9f 80 3f 3e 5b a1 76 be 3b 1f f1 bc
       0.5399654 0.18701409 -0.2408499 -0.029433837
000310 8a c2 7d 3e 5a 80 81 3d 27 ac 6d 3d 01 95 8b 3e
       0.24781242 0.06323309 0.058025505 0.27262118
000320 91 66 27 3e d9 9b 5a 3d 65 88 af 3a d9 67 bf 3d
       0.1634772 0.053371284 0.0013392089 0.09345979
000330 9a cd 26 3e 3f 69 f1 3c ae 68 b6 3c c9 64 6f 3d
       0.16289368 0.02946913 0.022266712 0.058445726
000340 24 66 57 bd ab f8 f0 3d 9c b5 07 3e ed 2a 56 3d
       -0.052587643 0.1176618 0.13252872 0.05228703
000350 2b 4a c9 bd 1d 76 1d 3e a4 5b 32 3e f7 a7 8c bd
       -0.098285995 0.15377088 0.1741777 -0.06867974
000360 90 30 38 bc 21 6d 0c 3c eb c6 ae 3b 99 c9 f7 bd
       -0.011242047 0.00857094 0.0053337715 -0.120989986
000370 d4 2b a8 bd 23 78 81 3d 26 b1 f8 3d 57 bf df 3d
       -0.082114846 0.063217424 0.121431634 0.10925167
000380 0d c0 90 3e 18 f2 8f bd 5d 3f 87 3e ee d0 c8 3c
       0.28271523 -0.070285976 0.2641553 0.024513688
000390 81 de 46 bc b9 12 d7 bd ee 12 67 3d 31 a1 65 3d
       -0.01213801 -0.10501618 0.056414537 0.056061927
0003a0 37 d9 88 bd 1a 34 2c 3d 2c 44 92 3d bb 79 4d 3e
       -0.066820554 0.042041875 0.07141909 0.20065968
0003b0 5d f8 23 3e 5e 0a a6 3c 70 fb 60 3d 03 9d 9b bd
       0.16012712 0.020268615 0.05492729 -0.07598307
0003c0 aa 93 83 3d f5 f6 66 3c f2 56 83 bc ad f5 67 3e
       0.06424649 0.014096965 -0.01603267 0.22652312
0003d0 89 86 e1 bd fb 27 c6 bd c5 cf 1d 3e ce cd df bd
       -0.11011989 -0.096755944 0.15411289 -0.10927926
0003e0 b2 c1 d3 3b e4 49 24 3d 88 44 9e bc db aa 0f be
       0.0064622993 0.04010953 -0.019319788 -0.1403002
0003f0 8b d4 8c be 2a fc 3b 3e ac c4 46 bd af e5 23 be
       -0.27505907 0.18357912 -0.048527405 -0.16005586

b3 f4 [48]
000000 59 e5 23 3e 68 e5 23 3e 9c 9d 23 3d 57 e5 23 3e
       0.16005458 0.1600548 0.03994523 0.16005455
000010 c5 e4 23 3e b6 a1 23 3d d4 9d 23 3d 08 e5 23 3e
       0.16005237 0.03994914 0.03994544 0.16005337
000020 6c e5 23 3e b7 9d 23 3d 99 9d 23 3d 6e 9d 23 3d
       0.16005486 0.03994533 0.03994522 0.03994506
000030 66 9e 23 3d c1 9d 23 3d b8 9d 23 3d a1 9d 23 3d
       0.039945982 0.039945368 0.039945334 0.03994525
000040 d4 e4 23 3e 6b 9d 23 3d 6d e5 23 3e 60 e5 23 3e
       0.1600526 0.039945047 0.16005488 0.16005468
000050 68 9d 23 3d 55 e5 23 3e cd e4 23 3e b0 9d 23 3d
       0.039945036 0.16005452 0.1600525 0.039945304
000060 65 e5 23 3e ce 9d 23 3d 15 9e 23 3d c6 9d 23 3d
       0.16005476 0.039945416 0.03994568 0.039945386
000070 68 e5 23 3e 94 9f 23 3d 54 e5 23 3e 5a e5 23 3e
       0.1600548 0.039947107 0.1600545 0.1600546
000080 cb 9d 23 3d 81 9d 23 3d 59 e5 23 3e ad c5 23 3d
       0.039945405 0.03994513 0.16005458 0.03998344
000090 17 e5 23 3e 6b 9e 23 3d a0 e4 23 3e 81 9d 23 3d
       0.1600536 0.039946 0.16005182 0.03994513
0000a0 55 9e 23 3d 3d e5 23 3e 56 e5 23 3e 6c e5 23 3e
       0.03994592 0.16005416 0.16005453 0.16005486
0000b0 7c 9d 23 3d 94 9d 23 3d 99 9d 23 3d 6a e5 23 3e
       0.03994511 0.0399452 0.03994522 0.16005483

W4 f4 [2352, 40]
000000 00 61 87 3d 64 35 22 3e 57 09 a9 bd f0 a1 70 bd
       0.06610298 0.1584068 -0.082537346 -0.058748186
000010 3f a7 01 3c df 80 3c 3c 69 18 b2 bd 3f df a4 bd
       0.00791341 0.011505335 -0.08696062 -0.08050393
000020 31 ae 8f bd 77 10 81 3c 8a 65 44 3e f8 8f 88 3d
       -0.07015646 0.015754921 0.19179359 0.06668085
000030 52 c0 3a be 47 38 3e bc 6e 95 d6 3d 84 01 cb 3d
       -0.18237427 -0.011610097 0.1047772 0.099123985
000040 f6 a4 db 3c 76 6a c8 3b 62 fa b1 bd 5d 1a a0 bd
       0.026812058 0.0061162068 -0.08690335 -0.078175284
000050 6f b1 3b be 2f 9d 07 be b9 b4 0c 3e 2f 1f 68 3c
       -0.18329404 -0.13243555 0.13740815 0.014167591
000060 f8 4e ce 3b 3a bb 96 3d 7b b9 15 be 7b 93 2f be
       0.006296035 0.073599294 -0.14621536 -0.17146103
000070 de c7 4d 3d 71 c9 47 bd 83 99 94 3d 5b 8e 8c be
       0.050239436 -0.048776094 0.072558425 -0.2745236
000080 1c 4f f4 3b 39 e7 d2 3d 36 f1 df 3b 93 0f 02 3e
       0.0074557196 0.102980085 0.0068341745 0.12701254
000090 bd ae a0 bd 8e 0c 04 bd 26 c7 ec bc ad d5 f0 3d
       -0.07845829 -0.032238536 -0.028903555 0.117595054
0000a0 0f ce e3 3a 9a 9d 9c 3d 9e 20 e2 3d 66 91 41 3d
       0.0017380136 0.076472476 0.110413775 0.047257803
0000b0 03 3a 62 be 03 6a 49 bc d2 6f 11 be 35 59 54 bc
       -0.22092442 -0.012293342 -0.14202812 -0.012960722
0000c0 0b 2a 6b bc 05 cb 1c be 72 ce 90 3e 34 a1 21 3e
       -0.014353286 -0.15311821 0.28282505 0.1578415
0000d0 6a 55 92 bc 99 85 35 bc aa 6f 54 bd 0e ed 59 3d
       -0.017862994 -0.011079215 -0.051864304 0.05320459
0000e0 60 79 d7 bb cb c5 38 bd 3c 13 d3 bd d6 90 31 be
       -0.0065757483 -0.045110505 -0.10306403 -0.17340407
0000f0 05 71 8d bd 18 89 5e bc 69 1d 32 3e 58 64 0b be
       -0.069063224 -0.01358249 0.17394032 -0.13612497
000100 6b 7a 1c be 36 58 21 bd a7 60 b8 bd 13 f5 5e bd
       -0.15281074 -0.039390765 -0.0900281 -0.05443294
000110 18 3b e6 3d a4 44 c0 3c d5 6a 86 3c 56 e7 b5 bd
       0.1124174 0.02347023 0.016408363 -0.088820145
000120 5b 2b 81 be 7b de eb 3d 3c e2 cf bb 0e 80 17 3e
       -0.2522839 0.11517044 -0.006344108 0.14794943
000130 15 48 be 3c 02 4b a5 3d 25 b7 c0 3a 6a 3e 55 bd
       0.02322773 0.08070947 0.0014703019 -0.052061476
000140 c5 7c 55 3e 90 e5 a8 3d 4e b9 13 bd e9 d8 06 3e
       0.20848377 0.082469106 -0.036065392 0.13168682
000150 b7 8a a8 bd e7 0d 3b 3e 6a ea 0a 3e b2 95 6a 3e
       -0.08229583 0.18267022 0.13565984 0.22908667
000160 9b 10 a8 bd c9 dd c4 3d c0 85 e2 3a b5 38 f4 3d
       -0.08206292 0.09612615 0.0017282292 0.119248785
000170 a1 a9 f2 3c bc d9 30 be ce 4b b0 3c 8d 77 0d 3e
       0.029621901 -0.17270559 0.021520521 0.13815136
000180 ec 1b b6 3c 8d a4 a0 bd b7 44 66 bd e6 e3 12 bd
       0.022230111 -0.078438856 -0.056217875 -0.035861872
000190 23 5e 6e 3d 2d de 6d 3e 4a b9 f7 bb 2a f8 93 3d
       0.058195245 0.23229285 -0.00755993 0.07225068
0001a0 f2 f6 0c be 2f c4 0e bd 88 05 d7 bc da b3 4d be
       -0.13766077 -0.034855064 -0.026247755 -0.20088139
0001b0 92 3d 1d 3d 00 9d ad bd 45 49 9a bc 33 1b 2d be
       0.038388796 -0.08477211 -0.018833766 -0.16904907
0001c0 d8 47 01 bd 55 aa 7f be c6 f8 87 3d ad ce 64 3e
       -0.031562656 -0.2496732 0.06639247 0.22344466
0001d0 2f f6 0d bd 7b 20 bc bd d3 22 42 3d 1c d6 59 3c
       -0.034658607 -0.09185883 0.047396492 0.013295677
0001e0 fd 02 5c bc 41 15 f2 3d 95 68 d7 bd c0 c6 d9 3d
       -0.013428447 0.1182046 -0.10517994 0.10633612
0001f0 3c d4 c2 bc 4f 8d 47 bc 9c 1c 7a bd a1 4b c9 bc
       -0.023782842 -0.012179687 -0.06106244 -0.024572195
000200 c1 8b 62 3d 44 0a 3c 3e 47 b7 e0 3d 2f d9 03 3d
       0.05530906 0.18363291 0.109724574 0.032189544
000210 5c b9 8c be 3e bc 98 bd f9 3c c4 3d 49 91 39 3e
       -0.27485168 -0.07457779 0.09581942 0.18121828
000220 ca e7 21 bc 13 4d 29 3d ba e1 19 bd be 43 4f 3d
       -0.009881923 0.04133327 -0.037568785 0.050601713
000230 47 3d bd bd 8d af d9 3d 67 4d a7 3c e8 5e 36 be
       -0.09240203 0.10629187 0.02042265 -0.17809641
000240 22 52 b0 bd 95 05 20 bd 0a 90 d2 bc dc 75 88 bd
       -0.086094156 -0.039067823 -0.025703449 -0.06663105
000250 15 76 d8 bd 26 36 c5 3d 92 f0 43 bd 4c 63 fe 3d
       -0.10569397 0.096294686 -0.047836848 0.12421283
000260 3f d2 a1 bd 53 6a fd 3d 05 15 88 bd 89 1b 72 bc
       -0.079014294 0.12373795 -0.06644634 -0.014777073
000270 77 4a 31 3e f7 b9 a4 bc 70 02 d0 bd f6 e3 44 bd
       0.17313562 -0.020108206 -0.10156715 -0.048068963
000280 f1 51 35 bd 5d a5 9f 3c 24 f5 9c ba d7 a5 83 3e
       -0.0442676 0.019488031 -0.0011974913 0.25712463
000290 be 43 43 be 7f b3 40 ba fc ee 8c 3d 41 dc d0 3d
       -0.1906881 -0.0007350966 0.0688152 0.1019826
0002a0 a3 72 4e 3e 76 6d 35 3d c2 4d 1b 3e 74 39 9c 3d
       0.20160918 0.044293843 0.15166381 0.07628146
0002b0 7f 37 c2 bd 32 6b 89 bd 0c c3 98 bd 10 7d 05 3e
       -0.09483241 -0.06709899 -0.07459077 0.13035989
0002c0 f9 2a 00 bd 5f 85 62 bd 8b b6 c7 bd f6 f6 fe 3c
       -0.031290982 -0.055302974 -0.09751614 0.03112362
0002d0 09 db 54 3d 66 89 2e bc 97 3e 23 3e 70 f6 a2 bc
       0.0519667 -0.0106528755 0.15941845 -0.019892901
0002e0 e6 61 a0 3d ca f3 8f bd f7 88 22 be 27 48 f7 bd
       0.07831173 -0.07028921 -0.1587256 -0.12074309
0002f0 aa 98 27 3d 9e 65 15 be b2 f3 79 bd f6 ac 68 bd
       0.040917076 -0.14589545 -0.06102342 -0.056805573
000300 f4 1a cb 3d 95 3d b3 bd e0 eb 09 bd 5a d8 73 3d
       0.0991725 -0.0875198 -0.033672214 0.0595325
000310 08 7b 0d bd 93 6f d0 3d a7 9b be bd a0 f2 3e bd
       -0.03454116 0.10177531 -0.09307032 -0.046618104
000320 a4 ff ee 3d 2d 93 78 3d 5c 97 81 3c 16 51 76 3c
       0.11669853 0.060687233 0.015819244 0.015033981
000330 85 cc 45 3b 85 6e 5e 3d 7c 13 14 be 40 fd 6f 3d
       0.0030181718 0.05430462 -0.14460558 0.058591127
000340 25 69 d1 bc 41 10 4d bd e5 6d 33 3e 49 3a 50 3c
       -0.025562832 -0.05006433 0.1752239 0.012709209
000350 b6 85 ab bd 1b 3b 90 bd 37 da 2f be cb 83 10 3e
       -0.08375113 -0.070425235 -0.17173086 0.14112775
000360 1d e7 8f bd aa b2 8e bd 1d 21 0f be db 14 09 be
       -0.07026503 -0.06967671 -0.13977475 -0.13386862
000370 aa e1 87 3b 8b 4d 07 3e 3a 24 93 3a 22 f9 d0 bc
       0.0041467743 0.13213174 0.0011226006 -0.02550942
000380 9f 4d a8 bd 92 dc 34 3d 4b f3 08 bd 43 3c fa 3c
       -0.0821793 0.044155665 -0.033435147 0.030546313
000390 28 bb 49 bd 0a 29 d1 bc e4 4c d7 bc 11 07 01 be
       -0.04925075 -0.025532264 -0.026281781 -0.12600352
0003a0 30 e6 c3 bd 5d 60 0a be fa 5d 35 3d 81 4a 13 3d
       -0.09565389 -0.13513322 0.044279076 0.035959724
0003b0 90 19 ed 3c ce 74 d9 be fe 22 80 bd 11 41 ad bd
       0.028942853 -0.42471927 -0.06256674 -0.08459676
0003c0 41 48 19 3e 4b 02 fc 3d 8c 24 22 3d 23 5c 86 3d
       0.14968969 0.12305125 0.039585635 0.065605424
0003d0 dc 65 31 be 97 fc de 3d e6 7e db bd 2f c3 17 3e
       -0.17324013 0.108880214 -0.10717563 0.1482055
0003e0 96 9f 9a bc 5d 81 e0 3c ff 44 e7 3c 4f e5 ad 3d
       -0.018874925 0.027405435 0.028231142 0.08491003
0003f0 26 e7 16 be d6 45 9e 3d 89 c7 ca bd e0 60 9b 3d
       -0.14736614 0.07728164 -0.099013396 0.07586837

b4 f4 [40]
000000 37 e5 23 3e 55 e5 23 3e f6 b3 23 3d 1c e4 23 3e
       0.16005407 0.16005452 0.039966546 0.16004986
000010 0e 9f 23 3d cd cc cc 3d 3f 9e 23 3d b8 dd 23 3e
       0.03994661 0.1 0.039945837 0.16002548
000020 2e e1 23 3e 1e e5 23 3e 26 e5 23 3e 4c e5 23 3e
       0.16003868 0.1600537 0.16005382 0.16005439
000030 d5 9d 23 3d a2 9d 23 3d cf cc cc 3d 20 e5 23 3e
       0.039945442 0.039945252 0.10000002 0.16005373
000040 5a e5 23 3e 31 9e 23 3d 66 9f 23 3d 05 9e 23 3d
       0.1600546 0.039945785 0.039946936 0.03994562
000050 89 9e 23 3d 31 e5 23 3e cd cc cc 3d d7 cc cc 3d
       0.039946113 0.16005398 0.1 0.100000076
000060 cd cc cc 3d 33 9e 23 3d cd cc cc 3d 5b a3 23 3d
       0.1 0.039945792 0.1 0.03995071
000070 dd e4 23 3e 35 ae 23 3d eb e3 23 3e 7a a6 23 3d
       0.16005273 0.03996106 0.16004913 0.039953686
000080 4b e9 23 3d d6 9d 23 3d 5d 9e 23 3d 04 df 23 3e
       0.040017407 0.039945446 0.03994595 0.16003042
000090 15 e5 23 3e a8 a5 23 3d 20 9f 23 3d 01 e4 23 3e
       0.16005357 0.039952904 0.039946675 0.16004945

W5 f4 [40, 4]
000000 38 d6 ed 3d c4 3d 04 be 37 19 d2 bc 28 57 c4 3d
       0.116131246 -0.12914187 -0.025646789 0.09586936
000010 0f 35 b2 3e 2e 05 af bd c6 fd a1 3c 57 8f a6 bc
       0.34806105 -0.0854591 0.019774329 -0.020332022
000020 e5 3f 6c 3d 64 3d 81 bd 86 bd 2b be 12 b1 51 bd
       0.057678122 -0.063105375 -0.16771516 -0.051194258
000030 0c 6c 1a bd 7c 84 04 be 56 0b 30 3e 0e 69 65 3d
       -0.037700698 -0.12941164 0.17191824 0.05600839
000040 31 cc 1d be 18 24 02 bd 25 d8 b3 bb e6 a0 b3 bb
       -0.15409924 -0.031772703 -0.005488413 -0.005481827
000050 14 6c 33 be fb d3 16 3e b7 ec 28 3d bf aa 23 3d
       -0.17521697 0.14729302 0.041241374 0.039957758
000060 63 34 e4 bd 20 02 bf 3b 14 8b fb bd 5a 29 0b 3e
       -0.111428045 0.0058291107 -0.122823864 0.13589993
000070 9e 8b 0c 3e d4 dc c7 bc 86 5e 1f 3e 1b 12 dd 3d
       0.13725135 -0.024397291 0.15563402 0.10794469
000080 80 d6 ca bd 2f 71 b1 3b 30 fb 96 3e 3f c7 fa bd
       -0.09904194 0.005415104 0.29488516 -0.122450344
000090 df 7a 10 3e 75 f8 89 bd f0 da a6 bc 82 e5 6b 3d
       0.14109372 -0.067368425 -0.02036807 0.057591923
0000a0 3e d1 0f 3e e1 78 f9 bd f6 20 4a bd 70 15 ca bd
       0.14044663 -0.12181259 -0.04934784 -0.0986737
0000b0 3a 17 34 3e 35 d2 08 be 86 46 cf 3d 32 30 77 3d
       0.17586985 -0.13361438 0.10120873 0.060348697
0000c0 f6 c4 e9 3d 6a 6e e2 3d fc ed 89 3d fd eb 3e 3d
       0.114145204 0.11056216 0.06734845 0.046611775
0000d0 47 8f 6b 3c 0e be bc 3d 7f 54 5f 3c 03 f5 95 bd
       0.014377422 0.092159376 0.013630985 -0.07322123
0000e0 5b 81 ba 3d 8b 0b ac bd 6f 57 b0 bd b1 c8 cc bd
       0.09106704 -0.08400639 -0.08610427 -0.09999216
0000f0 cf c9 31 3e 6c 63 82 bd 82 83 ee 3c 23 b5 a0 bd
       0.1736214 -0.063666195 0.029115442 -0.07847049
000100 9d 57 84 3e fc 5f 88 bd 21 ff a3 3d ea 86 a5 bd
       0.25848094 -0.066589326 0.08007646 -0.080823734
000110 9f 53 a0 3c b2 5c ea bc 89 9c 57 be 36 c6 40 ba
       0.019571124 -0.028608654 -0.21055807 -0.00073537545
000120 7b 4b 51 3c 47 a4 c0 bc f2 55 9f 3e d7 61 12 3e
       0.012774344 -0.023515834 0.3112026 0.14295135
000130 5b aa f4 3c 53 e0 35 3d ee b4 8d 3e 8d cd d7 bd
       0.029866388 0.044403385 0.276771 -0.105372526
000140 77 07 9e bc 66 36 66 3d 0f d6 2b be 2b 2f b5 3d
       -0.019290669 0.056204222 -0.16780876 0.08846887
000150 3b 7d e6 3c 93 b3 12 be 41 a8 9d 3d d6 ec 0d 3e
       0.028135886 -0.14326315 0.076981075 0.13859877
000160 df 17 58 3e c3 5a 01 3e 19 32 25 be e3 be 02 3e
       0.21102856 0.12632279 -0.16132392 0.1276813
000170 c3 17 56 be 53 6a a6 bc 14 ce 27 be 34 80 12 be
       -0.20907502 -0.020314371 -0.16387206 -0.14306718
000180 86 8d 32 be b5 39 70 bd 7b 63 9b 3d 6f 10 c7 bd
       -0.174368 -0.058648784 0.07587334 -0.09719931
000190 50 64 3d 3d 3d cf 84 3c a9 5b 04 3d 7e b0 a1 3d
       0.046238244 0.0162121 0.032313976 0.07894991
0001a0 cf 88 34 bd ff c8 ef ba a5 52 c0 3c 3d 9e 75 3d
       -0.044075783 -0.0018294154 0.023476908 0.05996536
0001b0 f9 2c ea 3d 2a cd a8 3c 49 ef 99 bc 60 32 24 be
       0.11434359 0.020605642 -0.018790858 -0.16034842
0001c0 90 43 b0 3d c6 6e b7 bd 74 e0 f4 3d 2a 5f 61 3d
       0.086066365 -0.08956675 0.119568735 0.055022396
0001d0 f3 86 26 bd fe d7 ef bc fa 2f 98 3d fb 7a 3f bd
       -0.04065604 -0.029277798 0.07431026 -0.046748143
0001e0 ae ec 9b 3d 0f a6 fc bd 64 fc 69 3b 73 4f 48 3d
       0.076135024 -0.12336361 0.0035703415 0.048903894
0001f0 e3 96 97 3d 04 6f 14 bd 9c 95 a3 3d 37 1a 40 bd
       0.07401826 -0.036238685 0.0798752 -0.0469
000200 2e 24 84 3d fa a0 00 3d 34 7e 0c ba 2f 6d c8 3d
       0.06452213 0.03140352 -0.0005359382 0.0978645
000210 de e3 99 bd ca 8b 03 3e e4 3e af 3d 8a 3b e7 bd
       -0.07514165 0.12846294 0.08556917 -0.11290653
000220 9a 4a 73 3d 5e f0 98 3d 46 b5 21 3a f2 b5 b1 3c
       0.059397317 0.074677214 0.00061686744 0.021693204
000230 a7 a5 a9 bb a9 3d 3d be 41 bc 85 bb fa 46 1f 3e
       -0.005177218 -0.18480553 -0.0040812795 0.15554419
000240 27 ac 02 3e 10 87 c8 bd 23 2f d2 bd 2f 57 c6 bd
       0.12760983 -0.09791386 -0.10262897 -0.09684598
000250 0e a4 6e 3d 15 6f 09 bd f4 d8 38 3e c5 36 0a 3e
       0.058261923 -0.0335532 0.18051511 0.13497455
000260 36 c2 77 bc 8d 06 3f bd e9 c5 e4 3d d2 1c 42 be
       -0.015121987 -0.046637107 0.11170561 -0.18956307
000270 26 75 51 3e 01 b9 5e 3d 12 ca c8 3d c3 30 fa 3d
       0.20454845 0.054375652 0.09804167 0.12216332

b5 f4 [4]
000000 71 e5 23 3e 62 9d 23 3d 5c e5 23 3e ae 78 23 3e
       0.16005494 0.039945014 0.16005462 0.15964004
