furhatBartender/userPerception/model/cnn11-30-strat.pth (torch, 365681 bytes, 10 tensors)

W1 f4 [16, 1, 5, 5]
000000 29 28 df bc 30 e4 c5 3d c4 dd 08 bc 18 32 d0 bd
       -0.02724083 0.09662664 -0.008353654 -0.101658046
000010 77 24 58 3e f9 87 d8 bb 77 ae 95 bd 73 18 0e 3d
       0.2110766 -0.006608006 -0.07308667 0.034691285
000020 09 0b af bc 73 53 6c bc e5 20 ad 3d e6 f7 80 bd
       -0.021367567 -0.014424193 0.0845354 -0.06297283
000030 81 0c 5d 3c aa 89 d2 bc 47 80 dc 3c 06 72 06 bd
       0.013491751 -0.025700409 0.026916636 -0.032823585
000040 f6 cc 72 be 66 a6 2c be fe 89 db bc fe cc 26 3e
       -0.23710999 -0.16860351 -0.026799198 0.16289136
000050 89 42 90 3d ad 80 ea 3d 2e 7f 6e bd 1f d3 1e be
       0.070439406 0.11450324 -0.058226757 -0.15510224
000060 8f 50 f2 3d 33 27 3c bc f9 f6 96 3d c8 a5 a4 3d
       0.118317716 -0.011483955 0.07371325 0.08039433
000070 7e 02 b8 bd 22 63 c2 3d bb 4d d1 3d 15 ab 0f 3e
       -0.0898485 0.09491564 0.10219904 0.14030106
000080 b8 3e f2 3d ee 80 9b bb 27 89 9b bd 22 7a 4a 3d
       0.11828369 -0.004745594 -0.07594519 0.04943288
000090 f5 a1 2f 3e 65 91 8d bd c4 14 82 3e fc 8b 35 bc
       0.17151625 -0.069124974 0.25406468 -0.011080738
0000a0 dd 14 c0 bb 3d b0 1b bd 10 dc 9b bd a5 18 11 3d
       -0.005861862 -0.03800987 -0.07610333 0.035423893
0000b0 8f 99 dc 3b e5 3a 21 3d 22 72 3b 3e 0a ad 4b bd
       0.006732173 0.039362807 0.18305257 -0.04972557
0000c0 b7 c8 66 bc 06 86 d8 3d 78 df 02 be 21 e4 81 be
       -0.01408594 0.10572438 -0.12780559 -0.2536936
0000d0 df fb 16 be 2b a2 3e 3c 3a d8 36 3d 6a 96 80 3d
       -0.14744519 0.011635344 0.044639803 0.06278689
0000e0 68 07 41 3b b2 0c 10 3d 91 20 2b bd 07 5b 41 3e
       0.0029453877 0.035168357 -0.041779105 0.1888238
0000f0 58 d5 b1 3c 0a c5 78 be e6 93 3a 3d cd 72 90 3d
       0.021708176 -0.24293914 0.045551203 0.070531465
000100 5b 67 a3 3d 92 9e f2 3b 91 9e 11 3c c9 7d 4c 3d
       0.07978698 0.007404157 0.008887903 0.049924646
000110 e4 d4 f4 bd 5c 73 18 3e 22 d9 6b 3e 06 26 91 3d
       -0.11954668 0.14887756 0.23032048 0.070873305
000120 c6 9b 8e 3d e0 d2 2d 3d 58 4e 80 bd b8 5e 8a 3d
       0.06963305 0.042437434 -0.06264943 0.067563474
000130 0d 68 fc 3c 80 f7 10 3e 74 bc 17 be 81 12 1d bc
       0.030811334 0.14156914 -0.14817983 -0.009586931
000140 31 7b 9f 3d 71 5f 0f 3e 0b 35 39 bc 6d 8b 88 3c
       0.07787169 0.14001252 -0.01130415 0.016668046
000150 a0 0a a6 bd 44 03 ad 3c e2 17 77 3d 30 18 b4 3d
       -0.08107495 0.021119721 0.06032551 0.08793676
000160 1c 5f f1 3c 82 e2 15 bd 84 b6 6c 3d f3 9f 06 3c
       0.029464297 -0.036592968 0.057791248 0.008216846
000170 b5 11 f6 bd b4 3c a6 bd 69 30 a1 bd 2a c4 f8 3b
       -0.12015096 -0.08117047 -0.07870562 0.007591744
000180 ff 31 71 3d 69 1b a8 bd 9b a3 f2 bd 90 09 5d be
       0.05888557 -0.08208353 -0.118476115 -0.21585679
000190 a8 a7 f4 3c 4f 85 14 bc 20 53 b2 3d d6 e0 d3 3d
       0.029865101 -0.009064986 0.08707261 0.103456184
0001a0 e8 f3 96 bd 41 a3 bf bc 5e 21 1c 3e 9e 37 ed 3d
       -0.0737074 -0.023393275 0.15247104 0.11582874
0001b0 3d 17 d9 3d d2 63 c4 3d e2 37 4d bd 43 84 1c 3d
       0.106001355 0.09589352 -0.050102122 0.038212072
0001c0 ea 99 61 be 25 c5 fd bb 65 be 58 bb d1 2c ce bd
       -0.2203137 -0.0077444487 -0.0033072468 -0.10067142
0001d0 3a 00 57 be 96 7c 99 bd ea 18 a9 bd 54 56 1f be
       -0.2099618 -0.07494466 -0.08256705 -0.15560275
0001e0 07 01 21 3e e1 68 4e 3c 93 35 00 be 93 73 83 bd
       0.15723048 0.012598247 -0.12520437 -0.064185284
0001f0 68 bb 0d 3e 08 65 6b 3e 8c bd c1 bd 7e 14 1d be
       0.13841021 0.22987759 -0.09459981 -0.15339848
000200 92 db 6a bd d5 eb 85 bd d3 f0 8d bd 46 55 e8 bc
       -0.057338305 -0.06539122 -0.06930699 -0.028360974
000210 9b 28 e9 bd 0c e1 0e bb 50 87 e1 bc 98 8d c7 3b
       -0.11384698 -0.002180162 -0.027530342 0.0060898773
000220 19 a7 3e bc 1f 79 2f be a5 7e 37 bd 07 81 a9 3d
       -0.011636519 -0.17136048 -0.044798512 0.08276563
000230 d9 32 14 3d 10 a5 e4 3d 7d e0 dd 3d 98 96 90 3d
       0.036181305 0.11164296 0.10833833 0.070599735
000240 ab fb de 3d 57 ce b2 bd ac c7 8c 3c cb a1 06 3e
       0.108878456 -0.087307625 0.017185055 0.13147657
000250 71 bc a2 3d 49 71 86 3d f2 dc bd 3d ce 6b 8a 3d
       0.079460986 0.06564576 0.092706576 0.06758843
000260 56 21 ab 3d 7a d1 9c 3d 55 0d 18 bc 63 07 ad bd
       0.08355968 0.07657142 -0.009280522 -0.084486745
000270 74 6c d9 3d ca 86 0c bd 53 9c ec bd 42 d1 1a bb
       0.10616389 -0.034308232 -0.11553254 -0.0023623263
000280 70 da 58 3e 2e f0 0a be 53 6a 0b be 4c c5 30 bd
       0.21177077 -0.13568184 -0.13614778 -0.043156907
000290 4e a8 4a be c0 72 17 3c b5 14 63 3e e2 48 af 3d
       -0.19790766 0.009243667 0.22175868 0.08558823
0002a0 e3 d8 af bc f9 66 5d 3c c9 46 82 bc bc db 2e bd
       -0.021465724 0.01351332 -0.015902894 -0.042690024
0002b0 00 12 90 bd ea fd 93 bd c8 b5 01 3d 90 5f d4 bc
       -0.07034683 -0.07226165 0.0316675 -0.025924474
0002c0 71 4a 3d be 34 13 eb bc c4 0e 03 bd f4 0c e4 bd
       -0.18485428 -0.02869568 -0.031996503 -0.11135283
0002d0 40 65 09 be 60 a0 83 3d 9f 53 4b 3d 19 7b fc bd
       -0.1341753 0.064270735 0.049640294 -0.123281665
0002e0 72 c1 8b 3e fd f9 0a 3e 90 6e 30 be d4 4d f5 3c
       0.27296025 0.13571925 -0.17229676 0.029944338
0002f0 07 b7 9c bd e8 6b 09 bc dc 03 18 3e 9e ab d9 3d
       -0.07652097 -0.008387543 0.14845222 0.106284365
000300 44 91 05 be e7 15 21 3d 98 cf 05 3e 9d 94 56 3c
       -0.13043696 0.03932753 0.13067472 0.013096956
000310 55 49 ad 3b dc 0b b9 3d 9c cb c1 3d 01 c9 fe bd
       0.005288283 0.09035465 0.094626635 -0.12440682
000320 ba cd 45 3d 0c 41 8e 3c fb 21 8c bd 6e 38 a9 bd
       0.0482919 0.017365001 -0.06842419 -0.08262716
000330 0a 22 5c be 2e bc 56 3d 4b f8 c3 3d d4 aa 69 bd
       -0.2149736 0.052425556 0.095688425 -0.05704768
000340 6d 32 21 bd b7 22 35 be c1 90 40 3e f9 16 54 3e
       -0.03935473 -0.17689024 0.18805219 0.20711888
000350 6d 16 8b bd 3f 2f 6e 3e 5a 2f e7 bd ad 43 95 bc
       -0.06791387 0.2326021 -0.112883285 -0.018220747
000360 51 75 80 3d cb 9e 78 3d ba bc 25 3b bb 63 05 be
       0.06272376 0.06069831 0.0025289492 -0.13026325
000370 79 ae a8 bd 51 56 70 bd 47 d7 47 3e 4c 43 cb 3c
       -0.08236403 -0.058676068 0.19515716 0.024812363
000380 8b bc 61 3e 65 f4 6a bd 76 36 8d 3c c9 03 44 3c
       0.2204458 -0.05736198 0.017237883 0.011963793
000390 61 4e 8a 3d 0f 90 51 3e c1 8b 3b be 3b e2 51 bd
       0.06753231 0.2046511 -0.1831503 -0.05124114
0003a0 72 6f 4b bd 5f 0f 97 3c 39 4a b1 bd e4 30 bc bd
       -0.04966683 0.018439947 -0.08656735 -0.09189013
0003b0 ec 56 8f 3d 38 20 ed 3c c8 cd c1 3d 7d 17 02 3e
       0.06999001 0.028946027 0.09463078 0.12704273
0003c0 72 0d 9a 3d b7 13 a0 3c 91 ed 1b be 8f 73 b3 3a
       0.07522096 0.01954065 -0.15227343 0.0013691055
0003d0 68 44 ab bd 47 92 a4 3d 2b e9 b7 3c 9e e6 d1 bc
       -0.08362657 0.08035713 0.02245005 -0.025622662
0003e0 42 f1 81 3d eb 89 d0 bd 51 1f c2 3c b5 9b c1 3c
       0.063448444 -0.10182556 0.023696573 0.023633817
0003f0 09 73 92 3d 38 ab a6 3c 4f c5 1a 3e 11 02 19 3c
       0.071508475 0.020345315 0.1511433 0.009338872

b1 f4 [16]
000000 01 ba 44 3c eb bf bd 3d 94 0d d8 3d 36 fd e8 3c
       0.012007237 0.09265121 0.10549465 0.028441053
000010 6c 62 8d 3d 7d 9e 07 3e d0 c0 98 3c 06 84 21 3e
       0.06903538 0.13244052 0.018646628 0.15773019
000020 13 6b 8c 3d c5 31 0a bc ce 80 17 3e d6 b4 e9 3d
       0.0685636 -0.008434718 0.14795229 0.11411445
000030 92 c3 cc 3a 62 10 09 3e 0d a3 ef 3d 6e 55 87 3c
       0.0015622249 0.13385156 0.11701021 0.016520228

W2 f4 [28, 16, 5, 5]
000000 6b aa 54 bd 3f cd 2f 3d 68 a7 08 bd f2 dc 14 3d
       -0.051920336 0.042920347 -0.033362776 0.036343522
000010 09 80 f5 3d 8f 70 d9 bd c3 c6 82 3c bc 98 78 ba
       0.119873114 -0.10617172 0.015963918 -0.00094832084
000020 54 cd 85 bd 62 63 ea 3c 93 8a 9b bd 05 f1 a8 3d
       -0.06533304 0.028611843 -0.0759479 0.08249096
000030 6f 9c 4b be d1 a5 bd bd e1 0d c3 bb 20 44 10 be
       -0.19883893 -0.092601426 -0.005952582 -0.14088488
000040 63 ff 7e 3d 5c bc a6 3c 1d aa 71 3c 12 2a e7 bc
       0.062255275 0.020353489 0.014750031 -0.028218303
000050 91 9b 04 bd 75 c1 57 ba 66 1f d1 bd 45 10 90 bd
       -0.032374922 -0.00082304265 -0.10211067 -0.07034353
000060 0b dc 34 be fe 2b 2f 3d 9b c4 48 bd 33 98 4d bd
       -0.17662065 0.042766564 -0.049015623 -0.050193977
000070 0e 94 e3 3d 69 54 8c 3d 52 6e 1c 3d e3 90 d0 3d
       0.111122236 0.068520375 0.038191147 0.10183885
000080 ba 80 b5 3c fb 32 5c bd f7 5f 99 bc 4b 45 ab bc
       0.022156108 -0.053759556 -0.018722517 -0.020907065
000090 03 dc bd 3d dc 5a e7 bd 5a cd 1d 3d 78 f8 f0 3b
       0.092704795 -0.11296627 0.038525917 0.0073538385
0000a0 79 02 89 bc 61 48 4b bd b1 11 b5 bd a4 17 29 bc
       -0.016724812 -0.049629573 -0.08841265 -0.010320578
0000b0 d7 9c db bb f3 b4 2c 3a 3e 66 37 3c db 08 88 bd
       -0.0067020464 0.0006588243 0.01119381 -0.06642314
0000c0 a2 f5 e3 bc ec 81 09 b9 0a f7 2f 3e fb 8a 90 3b
       -0.027827088 -0.00013113738 0.17184082 0.004411099
0000d0 e7 ef 83 3d ac 4e da bd 16 7c b6 3d 0b b0 21 3e
       0.06442242 -0.10659537 0.08910386 0.15789811
0000e0 ba 39 53 be 07 2f 17 3e 4b 98 99 bd 1f af 3e bd
       -0.2062749 0.14764033 -0.07499751 -0.046553727
0000f0 b0 01 23 bc 54 f5 7d bd 7b 98 ff 3d d8 e7 0f 3e
       -0.009949133 -0.06200154 0.12480255 0.14053285
000100 27 68 ac 3d 3a b5 b2 bd f2 75 56 bd 3b 14 4c 3d
       0.08418303 -0.087259725 -0.052358575 0.04982398
000110 68 19 8d 3d 17 26 df 3c 93 42 e6 bc bc c1 b4 3c
       0.068896115 0.027239842 -0.028107917 0.022065036
000120 57 c5 56 bd 24 62 2a 3d 0a 05 90 bb 03 51 b9 bd
       -0.05243429 0.0415975 -0.004395132 -0.09048655
000130 87 3b c6 3d ab 55 bf 3d 98 9e 27 3e 91 43 43 be
       0.09679323 0.09342512 0.16369092 -0.19068743
000140 87 bb e2 bb 83 4d ef 3d f9 f0 a0 bd 91 1e 51 bd
       -0.0069193277 0.11684706 -0.07858462 -0.05105454
000150 23 26 5f 3e aa c8 63 be 8b d8 e8 bd 92 89 06 bd
       0.21791892 -0.22244516 -0.11369427 -0.03284604
000160 76 f2 1e 3d bf 22 95 bc 1a 8c f5 3c 88 f6 2c 3d
       0.038805448 -0.018205045 0.029974032 0.042227298
000170 92 7b 29 bd 5b 72 47 be 68 83 2f bc 5c 13 bb 3b
       -0.04137761 -0.19477217 -0.010712482 0.005709095
000180 1d b7 5d 3e 6c c8 a4 bd d1 a2 13 be 3a e0 2e 3d
       0.21651883 -0.0804604 -0.14417578 0.042694308
000190 41 43 33 3e a7 3b 20 be ce ca 28 3d 99 61 cf bd
       0.17506124 -0.15647756 0.041209035 -0.10126037
0001a0 2a f8 9d 3d 52 c1 45 3d 82 62 d2 3c 3d 1b da bd
       0.07713349 0.048280068 0.025681738 -0.106497265
0001b0 cc f3 e2 3b c3 66 23 bd f4 5c 63 bd ce 17 49 bd
       0.0069260355 -0.039892923 -0.05550857 -0.049094968
0001c0 f3 d1 43 bb 01 87 b5 bc c5 21 03 3d ae 6c 09 3d
       -0.0029879778 -0.022159101 0.032014627 0.03355091
0001d0 8d ea 15 be 71 43 b7 3d ff 0f b2 bc c5 e5 af bd
       -0.14640255 0.0894841 -0.021736143 -0.08588747
0001e0 80 e0 cf 3c 43 14 62 be 92 ee 04 bd c8 7c 94 3c
       0.025375605 -0.22078042 -0.03245408 0.018125907
0001f0 44 a9 86 bd d8 f2 0a be 83 1b 77 3d 70 dd 9f bd
       -0.065752536 -0.135692 0.06032897 -0.07805908
000200 10 fc d3 3c e0 a9 73 bd 12 ce 36 be 80 0b d2 bb
       0.025877029 -0.059488177 -0.17852047 -0.0064100623
000210 7a 16 d9 bd dd 57 b7 bc c1 0c 04 be ca f0 6a bd
       -0.1059999 -0.022380764 -0.1289549 -0.05735854
000220 f4 3a 47 be 81 27 56 3d fc cc ab 3d 32 84 d3 bc
       -0.19456083 0.052283768 0.08388707 -0.025819872
000230 a0 0e b5 bc 21 ea 85 3c 9d 95 74 bd 4e cd 0a be
       -0.0221017 0.016346993 -0.059712995 -0.1355488
000240 26 35 36 bd 83 90 5c bd 77 fe 33 3d f4 34 bb 3d
       -0.04448428 -0.053848755 0.04394385 0.091409594
000250 b2 4c 9e bd 22 51 c8 3c e9 8f 36 3b 81 55 83 bd
       -0.07729472 0.02445275 0.0027856773 -0.06412793
000260 5b 56 4e bd 5b e1 9c bc e8 f1 45 be b7 bc b0 3b
       -0.050375324 -0.019150427 -0.19330561 0.0053935903
000270 47 83 47 3e 41 97 31 be 83 e7 f5 bc d6 50 1e be
       0.19483672 -0.17342855 -0.03001762 -0.15460524
000280 67 27 13 bd cb 41 8c bd 94 f7 2c bd 63 f7 b9 3d
       -0.03592625 -0.068484865 -0.042228296 0.090803884
000290 42 c2 05 3e d3 e9 db 3d 0e e9 a7 bd d1 06 0c 3e
       0.13062385 0.10737958 -0.081987485 0.13674475
0002a0 c2 1c 2b 3e 7f 80 0e be f1 63 27 be 6d a8 0b bd
       0.16710189 -0.13916205 -0.16346718 -0.03409617
0002b0 6c 68 0d 3d c8 2f 4f be 37 56 4b 3b 91 1f 21 3d
       0.034523413 -0.20233071 0.003102673 0.039336745
0002c0 f7 6d e0 bd 80 af 1c bc 31 4c 06 be 04 31 43 3d
       -0.10958474 -0.009563327 -0.13115002 0.047654167
0002d0 54 c9 04 be a2 e0 95 bd b7 db cc 3d 33 bf d4 3d
       -0.12967426 -0.07318236 0.10002845 0.10388031
0002e0 74 a6 8a bd 6a 3d 69 be 2d 98 21 bd ca 18 02 bd
       -0.0677003 -0.22777334 -0.039451767 -0.031761922
0002f0 12 28 73 3d 28 6d 82 3d fc 85 16 3d 74 d0 af bd
       0.059364386 0.06368476 0.03674887 -0.08584681
000300 29 37 8b bc 39 9b 24 3e b4 7a 16 bd 7e 6d 17 3d
       -0.016994076 0.16074838 -0.036738113 0.036969654
000310 d0 4e c8 3d bb 6b d3 bd d3 7d 18 be f0 86 0a 3d
       0.09780657 -0.10323282 -0.14891748 0.033820093
000320 f2 3f 04 be c6 b5 89 bc 30 49 c7 bc 69 ac ea 3c
       -0.12915018 -0.01681031 -0.02432689 0.028646665
000330 3b 92 8a bc 1a 35 90 3d 2d c2 df bd bc a4 8f 3d
       -0.016915431 0.07041378 -0.10925708 0.070138425
000340 21 0a 16 bd ca b9 39 3d fc c1 1e 3d 32 86 b9 bd
       -0.036630753 0.045343198 0.038759217 -0.09058799
000350 51 d7 06 be ca 0d 15 be c1 8e 98 3d a4 a6 98 bc
       -0.13168074 -0.14556041 0.07449103 -0.018634148
000360 f2 30 76 3c ea 50 92 bc 33 22 fb 3c 4e 14 95 3c
       0.015026318 -0.017860848 0.030655956 0.018198159
000370 69 e3 49 3e 28 d8 8d bd a5 f3 bc 3d 5e 99 fa 3c
       0.19715656 -0.06925994 0.09226159 0.03059071
000380 46 5c 56 3d 9b 8c 43 3d 51 27 bb bd b0 e8 0e bd
       0.052334093 0.047741514 -0.091383584 -0.034889877
000390 04 c8 6c bd 59 18 01 be d3 da d2 3d 4e a5 7f bd
       -0.057807937 -0.12606944 0.10295644 -0.062413506
0003a0 9e d3 b1 bc 69 d7 e4 bd 27 97 15 bd 75 f9 46 3d
       -0.021707352 -0.11173899 -0.036521103 0.048577745
0003b0 93 0f 39 bd 23 a5 60 bd ae f4 c2 3d 78 43 08 3e
       -0.04518087 -0.054844987 0.09519325 0.13306987
0003c0 1a dd 3d be db 35 00 3d 9b 56 bb bd 7c 4d a7 3b
       -0.18541375 0.03130136 -0.09147378 0.0051056724
0003d0 84 6f ce bc 50 19 e5 bc d4 be 09 bd 52 f7 a8 bd
       -0.02519966 -0.027966172 -0.033629254 -0.082502976
0003e0 30 29 df 3d dd 01 25 bd 4f a4 b6 bd 35 e9 c5 3b
       0.10896528 -0.04028498 -0.08918058 0.0060397633
0003f0 51 9e 5a bc 36 83 4d be aa 3e 2d be 6a 37 18 3e
       -0.01334341 -0.20069584 -0.16918436 0.14864889

b2 f4 [28]
000000 92 47 a3 3d d1 e4 54 3d bd b3 0c 3e c9 15 0f 3d
       0.07972635 0.05197603 0.1374044 0.034932885
000010 a2 6f 3f 3d cb bf 6a 3d 3f ae 9e 3d 1b 3d 8f 3d
       0.04673732 0.057311814 0.077480786 0.06994077
000020 e6 70 d6 3d e9 e6 57 3d 5f cd 96 3d 63 31 6d 3d
       0.104707524 0.052710447 0.0736339 0.057908427
000030 24 9c 65 3d 59 3a d9 3d 9a f4 95 3d 06 ec bb 3d
       0.05605711 0.10606832 0.07322045 0.09175877
000040 16 c1 dc 3d 04 a2 f8 3d 30 ea 9a 3d 6a a2 8a 3d
       0.10779016 0.12140277 0.07564199 0.06769259
000050 94 0f 0f 3e b8 ec 17 3e 92 69 ca 3d 97 71 70 3d
       0.13970786 0.14836395 0.09883417 0.058702078
000060 6c 90 b3 3d 30 c6 92 3d a5 06 f5 3d 64 c6 6a 3d
       0.08767781 0.071667075 0.11964158 0.057318106

W3 f4 [40, 28, 4, 4]
000000 1b a2 0b 3c 93 0e ec 3d 51 84 e9 bc 8d 77 c6 bd
       0.008522536 0.11526217 -0.028505476 -0.09690771
000010 00 1b 05 3e 3f 4a bd bd 38 4f 97 bd e4 f1 3f bc
       0.12998581 -0.09242677 -0.07388157 -0.011715386
000020 c6 8f ce 3d e9 d9 66 3c 7b a6 b6 bb 93 a5 6f 3d
       0.10086016 0.01409004 -0.0055740452 0.058507513
000030 1b 04 d6 ba 90 1e ad 3d 59 f6 8d 3c 1a e2 4d be
       -0.0016328128 0.08453095 0.017329382 -0.20105782
000040 20 a2 04 3e 2a 14 5c bd 6f 84 57 3c e8 46 7e 3b
       0.12952471 -0.053730167 0.013154133 0.0038799588
000050 7e fd df bd 78 6a 82 3d 35 f9 0f 3d 84 06 b0 bc
       -0.10937022 0.063679636 0.03514977 -0.021487482
000060 b8 a3 14 bc 48 b2 31 bd 9d 0d 1a be 70 21 5f be
       -0.009072237 -0.043382913 -0.15044256 -0.21790099
000070 75 9c 75 3d fb 3b 3d 3e f6 4d 51 bd 78 e6 17 bd
       0.059963662 0.18479912 -0.05109974 -0.037085027
000080 f1 17 e6 bd 56 ed 6e be 51 cc 85 be 75 a9 ce bc
       -0.11235035 -0.23332724 -0.26132444 -0.025227288
000090 08 00 01 3d 9a 04 42 3a d2 af ea bd ce 10 ff bc
       0.03149417 0.00074011984 -0.11459316 -0.031135943
0000a0 d5 30 7b 3e f5 7e 19 bd 74 aa 74 3d 58 4d a0 bd
       0.24530347 -0.03747459 0.05973287 -0.07827252
0000b0 87 94 84 3d 81 35 20 3b 05 e2 45 3e f8 d6 67 3d
       0.06473642 0.0024445953 0.19324501 0.056601495
0000c0 12 1e 1a be c2 12 9d be 06 42 a7 be ec 38 7c be
       -0.15050533 -0.30678374 -0.3266756 -0.24631089
0000d0 80 ae 58 be 17 40 23 bd bd a8 9c 3d 73 9b c9 bd
       -0.21160316 -0.039856043 0.07649372 -0.09844103
0000e0 d9 6b 61 3e 63 f9 79 3d a4 1a c1 bc 70 95 cd 3d
       0.22013797 0.06102885 -0.023572274 0.100382686
0000f0 61 7e 36 3e 27 47 24 be 3e 60 81 3d 87 06 13 3e
       0.17821647 -0.16042767 0.06317185 0.14357959
000100 a9 c1 a5 bd 97 66 95 bd b6 f3 ac 3d 4a 5b d4 3b
       -0.08093578 -0.07294958 0.08444922 0.006480609
000110 2d ee 02 3e 68 29 35 be 5d 51 ca bd 90 2a 90 bd
       0.1278617 -0.17691576 -0.098788 -0.07039368
000120 f1 22 80 3d ce a1 16 be e3 4d 5d 3d e9 3b b6 bd
       0.062566645 -0.14710161 0.054029357 -0.08898146
000130 ef 9a d7 3d 4c ac 8a bd 44 ed b1 3d 01 49 67 bd
       0.10527598 -0.06771144 0.08687833 -0.056466106
000140 db 06 bf 3d 27 64 6e bd 62 22 13 bd cf 10 ff bc
       0.093274795 -0.05820098 -0.035921462 -0.031135945
000150 1d 78 14 3e 9c ab 46 3d 18 e3 7c bc 1f 3e 3d bd
       0.14498945 0.048503503 -0.015435003 -0.04620182
000160 c5 7a 3f 3d ee 16 5c bd 49 7f db 3d 06 54 dd bd
       0.04674794 -0.053732805 0.10717637 -0.10807042
000170 0e a2 87 3e 5d 57 53 be aa 2a 89 bd c1 1e 27 be
       0.26490825 -0.20638795 -0.06697591 -0.16320325
000180 4d 8c 38 be dc e5 a4 3c 1c df e5 bd d0 ad 23 bd
       -0.1802227 0.020129137 -0.11224195 -0.039960682
000190 73 5b 08 bd 0f 46 7a 3d 81 d3 ff bc 43 a1 3f 3d
       -0.033290338 0.06110197 -0.031228783 0.04678465
0001a0 96 d9 8b bc 07 98 6c bd 1a 55 b8 bd cd 02 fd bd
       -0.017071526 -0.057762172 -0.09000607 -0.1235405
0001b0 26 38 9d bd 9c 1d bf bd 33 d5 8c bc 7c 70 23 3d
       -0.07676725 -0.093318194 -0.017191505 0.039902195
0001c0 5e d8 04 3e 4b 57 fc bc 4d 37 56 3e 5a 3c 28 3d
       0.12973163 -0.030803343 0.20919533 0.04107318
0001d0 c9 7f 80 3d cb 88 45 bc 47 21 1b 3d f5 c5 ea 3d
       0.06274373 -0.01205654 0.037873533 0.114635386
0001e0 2c bf 10 bd 9a a7 13 3e 16 06 2f bd 0c c6 d4 bc
       -0.035338566 0.14419404 -0.042730413 -0.025973342
0001f0 3c 34 36 3e 8a 7d a8 bd 72 49 45 be d5 7a 8b bd
       0.17793363 -0.0822707 -0.19266298 -0.06810538
000200 65 ed 3e bd 9d 11 36 3c 3f 87 fb 3c c7 b9 3f 3d
       -0.046613116 0.011112598 0.030704139 0.04680803
000210 62 e7 f1 bd 7d 85 41 3c 12 0d 0c be fb eb 00 bd
       -0.11811711 0.011811611 -0.13676861 -0.03147505
000220 20 37 52 3d bf 59 f0 3d 67 ac 93 bc c2 d1 96 3d
       0.051322103 0.11735868 -0.018026544 0.07364227
000230 37 cb 76 be 4e 69 07 3d 78 c1 1c 3d bd 54 c3 bd
       -0.24100958 0.03305941 0.038270444 -0.09537647
000240 dd 99 a7 3d 50 2f a7 bc f8 f2 1a bd 39 a9 21 bd
       0.08183644 -0.020408303 -0.03782937 -0.039468024
000250 f2 9d ac bd fc 05 0d 3a 32 43 6b bd 14 5b c4 3d
       -0.08428563 0.0005379615 -0.05743713 0.09587684
000260 5c b1 26 3e a9 56 7d bc 90 ec 2c 3e 31 fb ee 3c
       0.16278595 -0.015462556 0.16887116 0.029172512
000270 fc 11 b7 3d 95 86 16 3e 83 64 8c 3d 38 62 6a 3c
       0.08938977 0.14699776 0.068551086 0.014305644
000280 b8 b6 13 3c 3d c7 1f 3d 84 13 02 be 57 3e 50 bd
       0.0090157315 0.039008368 -0.12702757 -0.050840702
000290 cc 5b af 39 bd 26 84 3d 68 6b d8 bd b6 f9 a4 bd
       0.00033446995 0.06452701 -0.10567361 -0.08055441
0002a0 a8 b9 cf bc e3 e5 94 3d d2 39 b5 bd b4 fc e2 bd
       -0.025357082 0.0727041 -0.08848919 -0.110833555
0002b0 2c a0 a6 3d 0d 56 92 3b 62 01 4b bd d7 06 38 bd
       0.08136019 0.0044658245 -0.049561866 -0.044928398
0002c0 ed 6c 84 bd 0c b0 53 bc 71 1e 1a be b0 3e 42 3d
       -0.064660884 -0.012920391 -0.15050675 0.047423065
0002d0 17 4f 13 3d 5a d4 67 bd 95 98 ca bd 7b e8 19 3e
       0.035964098 -0.056599 -0.09892384 0.1503009
0002e0 f8 3c c5 bd 23 d8 f4 bd d2 f8 4e 3d 71 d7 e0 3c
       -0.096307695 -0.11955287 0.050530262 0.02744648
0002f0 d8 e2 01 3e fc 7b a3 3d 3b 42 af be 75 51 75 bc
       0.1268419 0.079826325 -0.34230217 -0.014973034
000300 24 50 fc bc cc 6c 10 3e 3c 11 5d be bf cf 8b 3d
       -0.030799933 0.14104003 -0.21588606 0.06826734
000310 63 7b 1c be 0b 4f 4f 3d 8d 8f 65 bd 9d 32 e3 3d
       -0.15281443 0.05061249 -0.056045104 0.11093638
000320 a9 6f d1 bc a1 83 ae bd b7 1a ca bc 01 68 97 3d
       -0.025565939 -0.085212 -0.024670942 0.07392884
000330 c5 e2 b2 3a 96 d2 8d 3b 44 01 25 be e8 8f 8a bd
       0.0013647905 0.0043280823 -0.16113764 -0.06765729
000340 92 a7 13 3d dc 77 d5 bd 2b ed 1c be bd 1e 61 be
       0.03604848 -0.10423252 -0.15324847 -0.21984382
000350 22 e3 34 3d 38 89 3e 3d c0 c1 ad bd dd a8 8a 3d
       0.044161923 0.04651758 -0.084842205 0.06770489
000360 b0 af fc b9 71 86 ae 3d 6a b7 8c bd e1 66 67 bc
       -0.00048196083 0.085217364 -0.06870921 -0.014123649
000370 cb bc 37 be b7 ee 7b be e2 ba 3d bd aa 41 51 be
       -0.17943113 -0.24602781 -0.046320803 -0.20435205
000380 44 65 a2 bc e8 0d 19 be b1 a9 66 3d be 50 ea bd
       -0.019823678 -0.14946711 0.056314174 -0.114411816
000390 ff 4f 09 3e ac dd 01 3e 90 69 fd 3d 8d bb 1e bd
       0.13409422 0.12682217 0.1237365 -0.03875308
0003a0 d4 cb e5 3d 58 27 ad bd bb 6b 42 3c d1 90 f7 bd
       0.11220518 -0.0845477 0.011866505 -0.120881684
0003b0 11 a7 4f bc 17 06 9b 3d b9 b5 c1 3b 99 1f 60 bd
       -0.012674109 0.07569521 0.0059115556 -0.054717634
0003c0 dd 18 d1 3c d5 64 d9 3d 70 e5 38 3e c1 29 0e be
       0.025524551 0.10614935 0.18056273 -0.13883115
0003d0 5b f7 b4 bc fe e6 8d 3c ad 6c 7e bd ad fa 1b be
       -0.022090605 0.01732206 -0.06211536 -0.15232344
0003e0 07 ae 09 3e e8 18 83 bd c6 54 62 bd 0a fb cb bd
       0.13445292 -0.06401235 -0.055256628 -0.09959991
0003f0 95 54 33 3e e0 54 d6 3d b1 55 b1 3d bd 7a 38 3d
       0.17512734 0.10465407 0.086589225 0.045038927

b3 f4 [40]
000000 f2 5b 49 3d 45 ff b5 3c d2 fb c8 3d b9 ad 08 3e
       0.04915995 0.022216449 0.09813656 0.1334752
000010 8e a0 2d 3e 21 f4 27 3e 57 1b b5 3c e2 c4 0e 3e
       0.16955778 0.16401722 0.022107763 0.13942292
000020 ab 53 3d 3d 91 fe 35 3d 6c 8c db 3d a7 65 77 3d
       0.04622237 0.044432227 0.10720143 0.060399678
000030 c3 fc cb 3d 83 80 9e bc 93 17 44 3d a3 6e fa 3d
       0.0996032 -0.019348389 0.047874045 0.122281335
000040 0f e9 ed 3d 0f 96 86 3d c7 3f 5a 3d 10 51 8a 3b
       0.11616718 0.0657159 0.05328348 0.004221089
000050 d4 c5 f9 3d 7a 07 cd 3d 8a 89 fb 3d ab 34 32 3c
       0.12195936 0.10011192 0.12282093 0.010876815
000060 8f 97 89 3d 5b f0 84 3d 33 ff c7 3d 88 ba 53 3d
       0.06718361 0.06491157 0.09765472 0.051691562
000070 c9 8f 8a 3d 07 f0 4d 3d 5c 29 31 3e f7 04 de 3d
       0.06765706 0.050277736 0.17300934 0.10840791
000080 88 93 12 3d 7f 17 4b b9 88 4a 64 3d 77 d9 a1 3d
       0.035785228 -0.00019368342 0.05573514 0.07902806
000090 32 c0 3d 3d f7 e2 9b bd 4f 03 30 3e de e2 44 3e
       0.04632587 -0.076116495 0.17188762 0.19227168

W4 f4 [1960, 30]
000000 68 99 6c 3e 92 20 f0 3d f7 38 e7 3d ee db be 3b
       0.23105395 0.11724962 0.11290162 0.0058245575
000010 cf 0c 0b 3e f4 95 35 be e1 63 d0 bd 92 6d a9 3d
       0.13579105 -0.17732984 -0.101753004 0.08272852
000020 dd 23 e2 bc b6 0b e1 3d ef 36 6c 3d 2a 06 4a bd
       -0.027604992 0.10988562 0.057669576 -0.049322285
000030 7a 93 82 3d d4 ff 15 be cb 88 c5 bb c5 06 55 bd
       0.06375785 -0.14648372 -0.00602827 -0.05200841
000040 fd ac 3a 3e 13 f7 08 3d d3 7c ac bd c9 39 3e 3c
       0.18230052 0.033438753 -0.08422246 0.011610457
000050 c2 ed 71 3d ae ef 5f bd 6b b7 79 bd 53 f9 86 bd
       0.059064634 -0.054671936 -0.060965937 -0.065905236
000060 c0 de c0 3c b7 a2 1f 3c 3d 53 ec bc 1a 2c 8c bc
       0.023543715 0.009743384 -0.028848285 -0.017110873
000070 b9 f7 2a 3e 4e 4d dc 3d 7f 78 c7 bd a5 de 26 bd
       0.16696061 0.10756932 -0.0973978 -0.040739674
000080 5d 0b 4b bd a2 b8 86 3d f1 4b 03 3e 2d e1 04 be
       -0.049571384 0.06578185 0.12821938 -0.12976523
000090 58 9a bd bd 9d 3a 49 be 1b 9b c5 3d 0d d4 f5 ba
       -0.09257954 -0.19651265 0.09648725 -0.0018755213
0000a0 82 6d 14 bd 80 4c 04 be f6 42 97 3e 86 d4 ae 3d
       -0.036237247 -0.12919807 0.29543275 0.085366294
0000b0 b1 1a 5f be ca 3e 6e bd ca 5f a5 bc a9 33 2e 3d
       -0.21787526 -0.05816535 -0.020187277 0.042529736
0000c0 c0 97 53 3d db d1 48 bd 32 13 ec 3d 6c bf 3a bd
       0.051658392 -0.04902826 0.11527099 -0.04559271
0000d0 fe 80 83 3d c0 a5 3e 3b d6 f5 b5 bd 8e 29 16 bd
       0.06421088 0.0029090494 -0.0888478 -0.036660723
0000e0 4d bb ed 3c bd f6 a7 bd 27 70 57 be b8 43 c3 bd
       0.029019976 -0.082013585 -0.21038876 -0.09534401
0000f0 4a 66 f7 3c dc df 3c bd 5a a1 42 bd 43 d0 3b bd
       0.030200142 -0.046111926 -0.047517158 -0.04585291
000100 9d 83 59 be a4 67 33 be ff 82 83 3c ed 1b 51 bd
       -0.21241613 -0.17520005 0.016053675 -0.051052023
000110 1a b7 86 3d 13 64 00 be f8 85 d8 3a 1e 31 9e bd
       0.065778926 -0.12538175 0.0016519418 -0.07724212
000120 e6 63 0d be 2a 03 11 be 31 8e b5 bd b9 1d 8d 3c
       -0.1380764 -0.14161363 -0.088650115 0.017226087
000130 5a 02 17 be 6a ee 1b be 78 34 90 3d 8d 28 f6 bc
       -0.14746991 -0.15227666 0.070412576 -0.030048633
000140 02 c1 83 3d 13 db a1 bc da fc e1 bc 0f fd e2 3d
       0.06433298 -0.019757783 -0.02758639 0.11083423
000150 2a 6a db 3d 1f 0d 1f bc b6 2b 89 bd af 4c 28 3d
       0.107136086 -0.009707718 -0.0669779 0.041088756
000160 5b 02 07 be 76 32 c9 bd 92 f6 99 3d 0b ba ba 3d
       -0.13184492 -0.09824078 0.07517733 0.09117516
000170 bb df 3e bd 37 69 ba bd b4 d1 35 3d 86 7b 42 bc
       -0.046600085 -0.091020994 0.04438944 -0.011870271
000180 12 fa f1 bc 12 94 7f 3c 2d 85 e2 bd 3e 5f 03 3e
       -0.029538188 0.015599268 -0.110605575 0.12829301
000190 af 0d 07 3b ba 13 a6 bd b8 7f 34 bc 44 f1 95 3d
       0.0020607521 -0.08109231 -0.011016779 0.073214084
0001a0 05 0d 20 3d eb f5 d3 3d 2b df 6f be 9d 3a 91 be
       0.039074916 0.103496395 -0.23424976 -0.2836503
0001b0 7f 5c 10 3e be 99 75 bd ad a8 2f 3e fc 25 a1 bc
       0.14097784 -0.059961073 0.17154188 -0.019671433
0001c0 98 aa f6 bc 59 e1 2e 3d d0 61 2a bc fb 04 d2 3d
       -0.030110642 0.042695377 -0.010399297 0.10254856
0001d0 86 70 15 be fc dc 6e bc a3 1e aa 3d b4 61 89 bd
       -0.14593706 -0.014579054 0.08306625 -0.067080885
0001e0 82 22 8b be f4 a2 a2 3d 6e af 01 3e 23 c5 5f bc
       -0.27174765 0.07941237 0.12664577 -0.013657841
0001f0 96 55 4a be 44 57 1b 3e 55 69 d8 bd e0 7d d8 bd
       -0.19759211 0.15170008 -0.105669655 -0.10570884
000200 a1 6d b3 bc 97 61 0c 3e c6 1a 80 bd 38 c3 10 be
       -0.021902861 0.13709103 -0.06255107 -0.1413697
000210 30 38 05 3d a5 71 8c bc 38 52 fe bd da e5 0c 3d
       0.032524288 -0.017144034 -0.12418026 0.03439889
000220 05 46 ce 3d 79 7f 54 3e e8 b0 9a 3e c8 1f 1c bc
       0.10071949 0.20751752 0.30213094 -0.009529062
000230 0e 35 85 3d c1 c5 86 3e 50 fa 12 3c db 3a 92 3d
       0.0650426 0.2632275 0.008970812 0.07140132
000240 de aa a0 3c 24 70 92 3c 5a 16 e6 3d bf 49 bc 3c
       0.019612726 0.017875738 0.11234732 0.022984384
000250 5a 61 00 bd 9f c7 45 ba 0d 24 77 be d3 b0 54 3d
       -0.03134284 -0.00075446995 -0.24134846 0.051926445
000260 6d 87 e0 bb 27 9d ee bd 6b 6b 41 bc 15 64 26 bd
       -0.0068520815 -0.11651068 -0.011805396 -0.04062279
000270 76 8e 00 be e3 ca fd bd a1 6f 3b bd b4 5d 43 3c
       -0.12554345 -0.12392213 -0.045760754 0.011924196
000280 62 07 89 3d 99 98 e8 bc 9b ab d8 3c ca 84 2f 39
       0.06690861 -0.028393077 0.026449015 0.00016738768
000290 08 9e 72 3d 72 9e 0a 3e 4d c5 51 3c 82 80 4e 3c
       0.05923274 0.13537005 0.012803388 0.012603881
0002a0 b6 f2 92 3d d4 8c bc 3c 11 e8 40 3e da 89 b7 3d
       0.071752 0.02301637 0.18838526 0.0896184
0002b0 c9 f1 08 be 8a 03 44 3e 38 20 5b 3d a6 a5 7b bd
       -0.13373484 0.19141975 0.053497523 -0.06143727
0002c0 16 15 b8 bc 73 fb 1f 3e 11 f2 38 bd c5 a1 e1 3d
       -0.022470992 0.15623264 -0.045152728 0.11017183
0002d0 91 bc 0b 3e a2 16 09 be ef 97 18 3d d4 ec 11 bd
       0.13646151 -0.1338754 0.03725427 -0.035626248
0002e0 10 ef 55 be 06 a6 72 bd 55 ba 02 3e 6a 61 4a 3d
       -0.20891976 -0.059240364 0.12766393 0.049409308
0002f0 37 b3 cb bd d2 c8 67 3e 3e 4d ba 3c 82 31 a9 bc
       -0.09946292 0.226352 0.02274191 -0.02065349
000300 2e 63 be 3c 46 a1 33 3d 49 94 8d bc 84 aa 04 3e
       0.023240652 0.043854974 -0.017282622 0.12955672
000310 2a a7 82 be 00 5c 23 3c 26 18 be 3c 69 27 87 bd
       -0.2551816 0.009970665 0.023204874 -0.06599314
000320 f8 6c b8 3d 5b 5d f0 3d d1 53 69 bc 0f f1 0f 3c
       0.09005159 0.11736556 -0.014241175 0.0087855
000330 41 fc b5 3d 62 c9 c3 bd c9 16 bf bd 2a 33 00 3d
       0.08886004 -0.09559895 -0.09330518 0.031298794
000340 4f a3 02 3d 51 6e e1 bd 1b a6 19 3e 0e 12 34 bc
       0.031894024 -0.11007369 0.1500477 -0.010990633
000350 09 1c c9 3d 94 49 c6 bd 35 10 88 3e 4e 36 ab 3d
       0.098198004 -0.09682003 0.26574865 0.08359967
000360 6b 94 9d bd 00 a9 84 bc 58 83 bc bc 36 63 ff 3b
       -0.07694324 -0.016193867 -0.023011848 0.0077938093
000370 19 6b a4 bd ba 85 53 be 79 4f cc 3d 14 7f b3 3d
       -0.0802824 -0.20656481 0.09976096 0.087644726
000380 98 31 85 3c 00 bd 20 bd b5 8d 00 3d a6 18 17 be
       0.016259 -0.039242744 0.031385142 -0.14755496
000390 97 32 2e bd 5f e0 45 be ab c6 02 bc 01 d8 5b bc
       -0.042528715 -0.19323872 -0.007981936 -0.013418199
0003a0 6c bf 1c bd a1 86 59 3d f7 8f ab bd a2 68 1e 3e
       -0.03826849 0.053106908 -0.083770685 0.15469602
0003b0 10 e4 9e 3d 6e 02 e2 3d 1f 59 d6 3c c4 ec a6 3c
       0.07758343 0.1103562 0.026165543 0.02037657
0003c0 a1 9d d5 3b ab 37 41 3c cf 0f 96 bb df 64 c4 bd
       0.006519035 0.011793057 -0.0045795212 -0.09589552
0003d0 da 98 0d 3d 5f 0f fe bb 33 6d 0b be 15 3a 07 be
       0.0345696 -0.007753297 -0.13615875 -0.1320575
0003e0 74 f6 dc 3d 4a 87 74 bd 72 b1 37 ba 86 4c 5f 3d
       0.10789195 -0.059699334 -0.00070073374 0.054516338
0003f0 1f b0 08 be 54 fc 47 bd 33 12 ae 3d 08 00 ce 3c
       -0.13348435 -0.048824623 0.08499565 0.0251465

b4 f4 [30]
000000 37 1e 2d 3e 45 c8 ca 3d 42 84 8b 3d 41 3e d4 3d
       0.16906057 0.0990148 0.068123356 0.103634365
000010 4c ae 2a 3d 52 36 e9 3d ba 23 66 3d dd 40 f7 3d
       0.04167013 0.11387314 0.056186415 0.120729186
000020 cb 15 34 3e c6 b5 e4 3d 84 6f 7f 3d ed 70 15 3d
       0.17586438 0.11167483 0.06236221 0.036484648
000030 a1 17 5e 3d 64 8f 16 3e 6e 79 e8 3d d3 5a 81 3d
       0.054221753 0.14703137 0.11351286 0.063161515
000040 26 df 03 3d a4 d0 6c 3d 81 b2 63 3e f1 79 89 3d
       0.032195233 0.057816163 0.22236063 0.067127116
000050 5b 56 c2 3d ca 1b 54 3e ad 0b 99 3d 36 f0 9a 3d
       0.09489127 0.20713726 0.0747293 0.07565348
000060 95 b1 e6 3d ad 54 48 3e 00 3d 25 3e fb 0b af 3d
       0.1126434 0.19563551 0.16136551 0.08547207
000070 fc 6e 77 3d 19 f6 96 3d
       0.060408577 0.07371158

W5 f4 [30, 7]
000000 89 af ee bb 52 c7 c1 3c ba ef f4 bc 02 57 46 3d
       -0.007284109 0.023654614 -0.029899467 0.04842282
000010 f3 bf bc 3d 17 f4 11 bd 92 24 31 3d f6 6b 56 bd
       0.09216299 -0.035633173 0.043247767 -0.052349053
000020 07 4a 54 3b b8 d1 a1 bd 31 43 f3 bd 31 fb 8d 3d
       0.0032392757 -0.07901329 -0.1187805 0.069326766
000030 e3 32 83 3d 77 b5 d0 3d 1f b1 d4 3b a6 c5 10 3e
       0.0640619 0.10190862 0.006490841 0.14137897
000040 12 f4 86 bb 63 a8 b6 bd 3d 52 f1 bd d3 f4 b5 3d
       -0.004118451 -0.08918836 -0.11783264 0.08884587
000050 60 73 7d 3c 02 2a 37 bd 93 0e 35 3c be 10 a8 bc
       0.015469402 -0.044717796 0.011050838 -0.020515796
000060 8b ea 18 be 9a 3e c4 3c fb bb a5 3b 61 7c 4c be
       -0.14933221 0.023955632 0.0050578094 -0.19969322
000070 f7 1f 28 3e 08 50 c6 3c a1 76 9e bd 2e ea 30 3e
       0.16418444 0.024208084 -0.077374704 0.17276832
000080 3f 1d 3f be 79 23 22 3e 3e 19 0f be f7 49 12 be
       -0.186635 0.15833844 -0.13974473 -0.14286028
000090 b8 99 0a 3d 66 40 c1 b9 5c 07 a5 3c 02 3f ba bd
       0.033838004 -0.0003685981 0.02014511 -0.09094049
0000a0 38 8d ad bc ac ae d9 3d f4 c0 bd 3d d1 65 9c 3d
       -0.021185502 0.10629019 0.092653185 0.076366074
0000b0 96 08 57 be 5e 8f 40 3c a3 d0 2e be f4 14 a0 bd
       -0.20999369 0.011752931 -0.17071776 -0.078164965
0000c0 73 84 6b 3d c8 e2 cf bd 8e 5f 0e 3e 24 32 3f be
       0.05749936 -0.10150677 0.13903639 -0.18671471
0000d0 c0 b5 a2 bd f7 e6 91 3d 39 67 0f bc d8 f1 21 3d
       -0.07944822 0.07124131 -0.008752638 0.03953728
0000e0 b3 98 3d bd c9 6d db bb ef 3e 81 bd ca 62 77 be
       -0.046288203 -0.006696437 -0.06310832 -0.24158779
0000f0 52 84 8c 3c 81 4a bd bc c7 8f 0d bd a2 bf 3f bd
       0.017152939 -0.023106815 -0.034560945 -0.046813615
000100 07 51 9d bc 53 b2 04 be 60 ab 0a be 01 63 c3 bc
       -0.019203676 -0.1295865 -0.13541937 -0.02385092
000110 8b f5 af 3a 9e 53 23 be 51 7a b2 3c 32 e3 d7 3c
       0.0013424618 -0.15949866 0.02178684 0.026353452
000120 31 8f 3b 3e 2c c2 bc bd 6e 04 bb bd 3a 22 2c be
       0.18316342 -0.09216723 -0.09131704 -0.16809931
000130 20 12 84 bd bb 55 66 3d 7f b3 e4 3d 5c 6a f8 3d
       -0.064487696 0.056234103 0.11167049 0.121296614
000140 57 22 90 3d 19 36 7a 3c a9 d1 b6 3d a0 06 ce bd
       0.070378 0.015271687 0.08926708 -0.10059857
000150 90 fb 01 3e bd 1d 5c bd 78 41 ee 3d 23 01 32 be
       0.1269362 -0.053739298 0.11633581 -0.17383246
000160 6d 12 75 bd fa b1 eb 3d af 09 f5 3c 1d 1d a4 bd
       -0.059832025 0.11508556 0.029911844 -0.080133654
000170 4c 03 fd bc 7f db 82 3d b7 fe 8f 3e cd 1f 9e 3c
       -0.030885361 0.06389522 0.2812402 0.019302273
000180 fd 6d 9d bd 4f 2b a3 bd ac d3 3f bd cc a4 37 bc
       -0.07686994 -0.07967245 -0.046832725 -0.011208724
000190 4f 0c 8e 3c e9 7c 58 3d ee d2 37 3c 53 76 4f 3e
       0.017339854 0.0528535 0.011219723 0.20259981
0001a0 bf 13 0d 3e 6f cf 15 3e 64 6c 1f 3d e4 51 04 3e
       0.13777064 0.14629911 0.03892173 0.12921864
0001b0 1b 4e 9a bb 91 c4 7f bc 4c cd bf 3d bd bf 4e bb
       -0.004709018 -0.01561083 0.09365329 -0.003154739
0001c0 fd 79 51 3d e8 8a 7e 3d 14 5e c0 bd 8a c4 1f be
       0.051141728 0.06214419 -0.09392944 -0.15602317
0001d0 dc 38 14 be a6 fc 06 be e3 f4 dd 3d 88 cf 13 bd
       -0.14474815 -0.13182315 0.10837724 -0.03608659
0001e0 26 10 36 bd 75 40 3f 3e df 29 72 3c f3 07 19 be
       -0.044448994 0.18676932 0.014780491 -0.14944439
0001f0 58 74 4a be c3 79 bb 3c 48 98 8c 3d 09 da ea bd
       -0.19770944 0.022885209 0.06864983 -0.11467368
000200 7a b1 53 bc a5 10 1c 3e 42 35 fa 3d 65 05 cc 3c
       -0.012920732 0.15240724 0.12217189 0.024904916
000210 c4 ac ec bc 9a 2a 8f 3c b6 ba 48 3d 8e d7 85 bc
       -0.028890975 0.017476369 0.049006186 -0.016338136
000220 ca 0d 7b bd 0d e7 48 3d c9 ba 5a 3d 65 ed 96 3d
       -0.061292447 0.049048472 0.05340079 0.07369498
000230 e8 34 2d bd e6 f7 45 3d 86 bf ee bd bd d8 93 bd
       -0.042286783 0.048332117 -0.11657624 -0.07219074
000240 c8 c3 ae bd bd 42 b5 3d 88 24 91 bd 55 9b 7e bd
       -0.08533436 0.0885062 -0.07087046 -0.062159855
000250 18 74 8d bd dd 1c 16 3e e2 56 84 bd 2a 2e 62 3d
       -0.06906909 0.14659448 -0.06461884 0.055219807
000260 c4 2d 9d bd 05 1a 17 3e c5 f4 96 bc 12 18 61 bd
       -0.07674745 0.1475602 -0.018427262 -0.054954596
000270 a6 0b 80 bd 7f 59 fa bd cf 22 c1 bc aa 6d b5 3d
       -0.06252222 -0.12224101 -0.023576168 0.088588074
000280 87 7a b9 3d 92 14 68 3e 62 52 2b 3d 76 0b 6e bd
       0.09056573 0.22664097 0.041826613 -0.0581164
000290 63 d8 a4 3c 92 b5 cd 3b 8e 34 2b bc 6f a1 0e 3e
       0.020122712 0.0062777484 -0.010449542 0.1392877
0002a0 83 93 c0 bd a9 84 5c 3c 22 92 5e bd c6 a2 51 bd
       -0.09403136 0.013459363 -0.05433858 -0.051180623
0002b0 dc 92 53 3a f1 43 07 3e 11 52 6a be f9 8f 8f 3d
       0.0008070895 0.13209511 -0.22882868 0.070098825
0002c0 d3 e7 f1 bb 37 c4 fc 3d ef 87 0f 3c c4 a0 0a 3e
       -0.007382372 0.123421125 0.008760436 0.1353789
0002d0 e2 b2 42 3d d4 70 e4 bd 62 b9 f9 39 4a bc 23 bd
       0.047533877 -0.11154333 0.00047631102 -0.03997449
0002e0 75 8b d5 bd fb 78 56 3e cc 53 a7 3d 14 ec 87 bc
       -0.1042699 0.20944588 0.0817028 -0.016592063
0002f0 7f f6 94 bc 77 55 69 bd f4 4e d4 3d 62 fd 61 3e
       -0.018183945 -0.05696627 0.103666216 0.22069314
000300 45 12 7a 3d c3 94 33 3e 6b 2c 0a be 4e cf c0 bd
       0.06105258 0.17537217 -0.13493507 -0.0941454
000310 80 35 8c 3d aa bb 7b 3d 09 88 02 3e 5c 74 2a bd
       0.06846142 0.061458267 0.12747206 -0.041614875
000320 c9 47 c0 bc a1 54 43 bd be 74 da bd d4 f4 e6 3d
       -0.02347173 -0.04768813 -0.10666798 0.11277166
000330 09 32 91 3b 7e e3 07 bd d9 f7 85 bd ea b7 04 3e
       0.0044310135 -0.033175938 -0.06541414 0.12960783
000340 a9 32 20 bd d5 bf 12 3e
       -0.039110813 0.1433099

b5 f4 [7]
000000 3b 02 74 3d 01 25 1c 3c 77 91 e5 3d 05 10 02 3e
       0.05957244 0.009530307 0.11209386 0.12701423
000010 fd ac 55 3e f9 67 18 3c 8a 82 cd 3d
       0.20866771 0.009302133 0.10034664
