furhatBartender/userPerception/model/cnn11-30.pth (torch, 365681 bytes, 10 tensors)

W1 f4 [16, 1, 5, 5]
000000 02 52 8a 3c 08 d6 a8 3d 0a 38 29 bc f5 7f a4 3d
       0.016884807 0.08243948 -0.010328302 0.08032218
000010 1b 6e 2f 3d bf b2 a3 3c f7 cb 66 3e 1f d1 a0 3d
       0.042829614 0.019982694 0.22538744 0.07852387
000020 8b f4 4f bc 9d 07 4c 3c 2b 19 98 bc 3e 64 74 bd
       -0.012692581 0.012452987 -0.018566689 -0.05966591
000030 1d 94 8f bd 60 70 f0 bd 6e ec d8 bc 2b b8 0e be
       -0.07010672 -0.11740184 -0.026479926 -0.13937442
000040 e9 e1 af bc ee b7 0d be d5 e6 2e 3d de 47 20 3e
       -0.021470027 -0.13839695 0.042700607 0.15652415
000050 c1 ea e9 3c 2a e2 09 be dd 38 9b be c4 4e 84 bb
       0.028554322 -0.13465181 -0.3031682 -0.00403771
000060 54 ea e4 bd c1 d9 9c bd 08 15 42 be 40 45 0d bd
       -0.11177507 -0.07658721 -0.18953335 -0.03448987
000070 15 4c f8 3c bb c0 5a be 7f 1d 3e be 73 d5 46 bc
       0.030309716 -0.21362583 -0.1856594 -0.012135851
000080 83 f8 5f be 0f 97 b7 bd b5 f8 bf bd 5e 89 e2 3d
       -0.21872143 -0.08964359 -0.09373609 0.11061357
000090 08 7f 5c b9 64 2a 17 be f3 47 80 3c 3d 4d 69 bc
       -0.00021028158 -0.14762264 0.015659308 -0.014239606
0000a0 6a 18 e2 3d da 38 30 bb 9b 16 93 3b 67 25 06 be
       0.11039813 -0.0026889355 0.0044887788 -0.13100205
0000b0 79 09 f8 3c 33 25 12 be 6d 2d 11 3e e7 9a 32 bc
       0.030277954 -0.14272003 0.14177485 -0.010901189
0000c0 2c 3b 16 3d e0 a5 85 3e df 3f 78 bd 30 03 44 be
       0.036677524 0.26103115 -0.060607787 -0.19141841
0000d0 d8 05 45 bd 64 bc f2 bd 92 72 24 3d 55 8a 4e 3e
       -0.048101276 -0.11852339 0.040148325 0.20169957
0000e0 33 10 81 bd a9 6a 2a 3e c9 a2 84 bd 50 cc 77 be
       -0.06301918 0.1664225 -0.06476361 -0.24199033
0000f0 92 34 8e 3b c8 80 0c 3e c6 d0 3e 3c 1f 8d af bd
       0.004339763 0.13721001 0.011646455 -0.085718386
000100 a8 e3 a2 3d 65 c4 ed 3d 11 cb 47 3e 94 2b 02 be
       0.07953578 0.11609725 0.19511057 -0.12711936
000110 03 85 9b bd f7 0f 13 3e 42 41 fe 3d 7b 79 08 3d
       -0.07593729 0.14361559 0.12414791 0.033318978
000120 54 9b 88 bc 75 a0 89 bd a8 8f e0 3d aa 51 9e 3d
       -0.016675629 -0.06720058 0.109649 0.0773042
000130 84 cf 4c 3d 4f f7 80 bd d3 c7 1e bd 8e 86 52 3d
       0.05000259 -0.0629717 -0.038764786 0.051397853
000140 6b 02 d8 bd cd 6f 7d bd ed 8b 92 3d 7f 09 97 bd
       -0.10547336 -0.0618742 0.07155595 -0.07374858
000150 29 fa c8 3d 45 dd b0 3c 6f 4a 24 3d 8a 74 ab 3b
       0.09813339 0.021589885 0.040110048 0.0052323984
000160 ef 7c 17 be a3 dc e5 3d 14 52 da 3d 48 b9 74 3e
       -0.14793752 0.11223724 0.106601864 0.23898804
000170 89 63 19 be 4a 3b 31 3a 75 d1 e7 3d db 68 94 3d
       -0.14979376 0.0006760849 0.11319248 0.07246562
000180 04 82 98 3d 5e 1b 9d bc f6 00 8d be ad 37 55 be
       0.074466735 -0.019178089 -0.27539796 -0.2082202
000190 3b 4c 68 3b 10 20 d5 3b 9d 49 82 3c e0 61 8d bd
       0.0035445828 0.0065040663 0.015904242 -0.06903434
0001a0 2e 8d 26 3d ea 14 06 be 4d e1 0b be 7c aa 17 be
       0.040661983 -0.13093916 -0.13660164 -0.14811128
0001b0 e6 d1 3d bd b2 7f 48 3c 08 67 b0 3d 60 48 d4 bd
       -0.046342753 0.012237476 0.08613402 -0.10365367
0001c0 b5 59 a0 3d 89 d6 4c 3c f4 62 8a 3d 17 78 78 bc
       0.0782961 0.012502321 0.06757155 -0.01516535
0001d0 ba 73 03 be 48 63 89 bd e7 3e 5e 3e 36 64 c9 3d
       -0.12837115 -0.067083895 0.21703683 0.09833567
0001e0 74 03 09 be 54 46 32 bd 9c d9 9c 3c cc b6 ac 3d
       -0.13380224 -0.0435241 0.019146733 0.08433303
0001f0 63 c9 23 3e a0 32 33 bd f4 ec 7c be b9 eb d4 3d
       0.15994792 -0.04374945 -0.24699765 0.10396523
000200 ac 1f 23 be 74 67 9c 3d 61 62 e0 3c 4a 8e dc 3d
       -0.1593005 0.076369196 0.02739066 0.10769327
000210 97 41 fe bd c5 f3 92 3c 1e 5d 74 3e 4a 85 eb bc
       -0.12414854 0.017938504 0.23863646 -0.02875008
000220 f6 f2 83 be 86 61 03 3c 45 e0 9a 3e 91 00 fc 3c
       -0.25771302 0.008018857 0.3024923 0.030761989
000230 df f4 2b 3c 49 78 7a 3d 27 24 34 be 97 e7 1d bc
       0.010495394 0.06114987 -0.17591916 -0.009637735
000240 d9 33 ac 3c de 9d 72 3d 48 33 35 bc 98 bc 82 3d
       0.021020817 0.059232585 -0.01105959 0.06383628
000250 66 24 4b be 46 4d 1c 3d 55 e1 36 3e 20 5c 9d bd
       -0.19838104 0.03815963 0.17859395 -0.07683587
000260 dd 9c 66 bd ac 99 c7 bd 34 73 f3 bd 3c 4b ee bc
       -0.05630194 -0.097461075 -0.118872076 -0.029088609
000270 cf 8b 3b be cf 95 ec bd eb 84 cd bd 1a 2f da 3d
       -0.18315051 -0.11552011 -0.10035118 0.10653515
000280 e1 bb 0a 3e 5f 47 49 3d 2e 59 f3 3d b3 90 a8 bd
       0.13548233 0.04914033 0.11882244 -0.08230724
000290 50 62 2d 3e 46 bb d1 3d 50 f4 f0 bd 78 2c 4e bd
       0.16932034 0.10240798 -0.11765349 -0.050335377
0002a0 b9 1c 3e bd d5 6b 25 3e 6e 3b 27 bd 26 71 8d 3d
       -0.04641411 0.16154416 -0.04082816 0.06906347
0002b0 44 39 ab bc f9 b7 6d bd d1 fc 8e 3d 7f ad b2 3c
       -0.02090133 -0.058036778 0.06981815 0.021811245
0002c0 1e 4a 13 bd f9 44 92 bd 8b 5e 84 bd 61 76 27 be
       -0.035959356 -0.07142062 -0.06463345 -0.16353752
0002d0 bd f2 0e 3e eb ae 9c 3d b1 c8 da bd 7d db 39 3e
       0.13959785 0.076505505 -0.1068281 0.18150134
0002e0 c5 ee f6 3d 7d 42 05 3d 9a 20 db 3d c1 19 38 be
       0.120572604 0.03253411 0.10699578 -0.17978574
0002f0 18 c5 33 bc 70 21 c2 3d ad 45 d7 3d ed 77 06 bd
       -0.010972284 0.09479034 0.105113365 -0.032829214
000300 2a 11 0c 3e 35 ee 16 be 6e c1 5f 3d 64 6a 61 3e
       0.13678423 -0.14739306 0.05462783 0.22013241
000310 f2 bb cf 3c d5 ec 76 bc 8f 34 5e 3e 55 70 14 bc
       0.025358174 -0.015071114 0.21699737 -0.009059985
000320 fa 5c db bc 6a 8c a3 bc c2 1d 43 bd c9 84 84 be
       -0.026777733 -0.019964416 -0.0476358 -0.25882557
000330 16 c1 68 be 78 63 72 bd 83 40 cb 3c 7f 75 2c 3c
       -0.22729906 -0.059176892 0.024811035 0.01052606
000340 94 ff 84 3c 68 19 19 be a3 b3 f0 bc 73 a5 b2 bd
       0.01623515 -0.14951098 -0.029382532 -0.08722963
000350 81 ad 64 3d d0 32 90 bd a6 49 97 bd 08 c6 89 bb
       0.05582953 -0.07040942 -0.07387094 -0.0042045154
000360 00 55 de 3d 72 af 1f 3d 80 16 b7 3d e8 46 85 3e
       0.10856056 0.038985677 0.089398384 0.2603066
000370 c3 90 07 3e 6b e9 0b 3d f4 83 ff 3d 36 f1 23 3e
       0.13238816 0.03415815 0.1247634 0.16009983
000380 a2 1c 89 bd d9 01 85 3d 95 5b 50 3e 09 f8 08 3e
       -0.066949144 0.06494493 0.20347436 0.13375868
000390 57 38 a5 3d 15 e5 13 bd 07 bf 9e 3d 28 14 27 bd
       0.080673866 -0.03610714 0.07751279 -0.040790707
0003a0 91 8f fd 3d 8f df 42 bd 30 da 5e bd 0f 4d d8 3d
       0.12380899 -0.047576483 -0.0544073 0.10561573
0003b0 37 a6 83 3d 94 d0 23 3d c8 d8 db 3c 4c e8 a5 bc
       0.06428187 0.039993837 0.026836768 -0.02025237
0003c0 6b 3b bd 3d 04 8c 09 be 29 b7 50 bc 3e fd 4a be
       0.09239849 -0.13432318 -0.012738981 -0.19823167
0003d0 71 67 4c be 32 0a 32 bd 70 eb bf bd 32 69 b0 3c
       -0.19961335 -0.043466754 -0.09371078 0.021534536
0003e0 01 c9 2d be 93 7c 77 bd c4 30 ae bd 1f 75 d5 bd
       -0.16971208 -0.060421538 -0.08505395 -0.1042273
0003f0 ca 5e a2 bd 69 d2 fc bc a3 89 33 3c 1a 41 80 bd
       -0.07928236 -0.03086205 0.010958108 -0.06262417

b1 f4 [16]
000000 23 e6 08 be 09 22 38 be d4 e5 ba 3d 3e b6 11 3c
       -0.1336904 -0.17981733 0.091258675 0.008893548
000010 33 f5 cb bb 35 44 81 3d a6 b5 1c 3d 2e e3 05 3e
       -0.0062242984 0.063118376 0.03825917 0.13074943
000020 04 8c 9c 3d df 04 bf 3b 34 9d 08 3e 7b 2c 5c 3e
       0.07643893 0.005829438 0.13341218 0.21501343
000030 b8 8b 9d 3d ac 48 e3 3c a0 7d 88 3d 78 9b 03 3e
       0.07692665 0.027744614 0.06664586 0.12852275

W2 f4 [28, 16, 5, 5]
000000 35 63 46 bd aa c9 32 3a e0 8f 53 bd 15 b7 44 be
       -0.048434455 0.00068202114 -0.05165088 -0.19210465
000010 e3 5f 2b be 46 3e e2 bd 67 96 9b 3c 9d c3 d5 3d
       -0.16735797 -0.11047034 0.018992616 0.10437701
000020 cb be 1e 3b fa 73 c2 3c 29 f9 3d bd f4 af a2 bd
       0.0024222608 0.023736943 -0.046380196 -0.07943717
000030 49 81 1f 3e 13 34 ca bd 8b ce 1d be e1 85 86 be
       0.15576662 -0.098732136 -0.15410821 -0.26274016
000040 6f 96 af 3d d4 27 d9 3a 0b b2 82 bd 52 7f 31 3e
       0.08573615 0.0016567656 -0.06381615 0.17333725
000050 d8 3e 6b bc 53 08 a5 bd 4b 48 38 be 63 51 ee bd
       -0.014358245 -0.08058228 -0.17996328 -0.11636617
000060 28 5a 85 3d e7 bf 89 3d 44 07 d5 3d 49 41 28 3e
       0.065113366 0.067260556 0.104017764 0.16431154
000070 22 26 ed 3d 7a 2e 7c bc 6a 95 af 3c 95 bd 11 3d
       0.11579539 -0.01539194 0.02143355 0.03558119
000080 1e 1f 03 be b1 f0 68 bd bb 57 f7 3c 0f c2 ce 3d
       -0.12804839 -0.056870166 0.0301932 0.100956075
000090 e0 9c b1 3d 8e 31 9b bd 89 14 80 bc 94 9a 2d 3e
       0.086725 -0.07577811 -0.015634792 0.16953498
0000a0 5a a6 41 be 46 a7 ac 3d 45 22 c8 bd 36 3b 87 bd
       -0.18911114 0.084303424 -0.097721614 -0.066030905
0000b0 2a 8e e5 bd d9 fb 89 bd 54 0a da bd 85 a9 59 bd
       -0.11208756 -0.06737489 -0.10646501 -0.053140182
0000c0 66 10 c1 3b 1b f7 39 be 61 24 d8 3d ea 52 b2 bc
       0.0058918474 -0.1816067 0.10553814 -0.021768052
0000d0 97 81 5e bc 4f 87 0d bd ee 9b 43 3d 51 5f 22 be
       -0.013580701 -0.03455287 0.047756128 -0.15856673
0000e0 9c 92 4b 3e 75 51 f0 3b c1 81 b0 bc 7d ab b7 bd
       0.19880146 0.007333929 -0.021546246 -0.08968256
0000f0 02 bf 85 3e 25 9d 99 bc b6 b2 67 3d 73 3a aa bd
       0.2612229 -0.01875169 0.056566916 -0.083119296
000100 c3 4c ed 3c c4 8c 29 be 48 a0 fc 3d 44 88 8c 3d
       0.028967267 -0.16557604 0.12335259 0.06861928
000110 02 d5 9a 3d 72 24 d6 3d f1 79 8b 3d eb fc 5b 3d
       0.07560159 0.1045617 0.06810368 0.053708
000120 9c 6f a0 bd e1 25 4e bd ec 54 89 bd f0 be 5a bd
       -0.07833788 -0.050329093 -0.06705651 -0.05340475
000130 9c 70 25 bb 93 07 75 be 84 ee 5b 3d d8 ee 6c 3e
       -0.0025244122 -0.2392867 0.053694263 0.23137987
000140 68 63 00 be c5 32 9a be ca b5 dd 3c 93 49 ff bd
       -0.1253792 -0.3011686 0.027064223 -0.12465205
000150 4f 31 1b 3e e9 fd a0 3d 7b 7a 00 be 89 cf 3d be
       0.15155528 0.078609295 -0.12546723 -0.185362
000160 98 f7 61 3d 94 53 cc bd 16 e7 82 3e e3 e3 01 be
       0.055167764 -0.09976879 0.2556693 -0.12684588
000170 3e ee b5 3c 0c 89 80 be 04 d9 56 bc 8c e5 f0 bd
       0.02220833 -0.25104558 -0.013113264 -0.117625326
000180 cc 05 97 3c 4b 18 8d 3e 77 3f 86 3d fc 9a f5 3d
       0.018435381 0.27557597 0.06555074 0.119924515
000190 ff 73 83 bd 19 d2 38 bc f0 b5 a3 bd 7f b2 23 bd
       -0.06418609 -0.01128056 -0.07993686 -0.03996515
0001a0 c8 c7 e5 bd 47 c6 c1 bc 7d ea 26 bc 0b 30 aa bd
       -0.11219746 -0.023654116 -0.010187742 -0.08309945
0001b0 32 45 49 be 27 59 19 3d e0 f3 07 3d d0 a6 c4 bd
       -0.19655302 0.037438538 0.03319156 -0.096021295
0001c0 31 96 b1 3c 39 7a 86 3d f4 b9 18 3d 05 e8 d1 bd
       0.021678062 0.06566281 0.037286714 -0.10249332
0001d0 92 48 52 be cb b4 cb 3c 3c d1 22 3e b7 ce ac bc
       -0.20535496 0.024866482 0.15900129 -0.021094663
0001e0 28 eb d3 bd 83 f4 9f 3d cb cc 4a be 8d 8e 3f 3e
       -0.10347587 0.07810309 -0.19804685 0.18706723
0001f0 11 ea 33 bc 08 ce 5d be 04 da 64 be 68 f1 5d 3d
       -0.010981099 -0.21660626 -0.22348791 0.0541853
000200 fd de b7 bd 3e 13 7a 3d 6f 76 6f bc 41 69 07 bd
       -0.089780785 0.061053507 -0.014615639 -0.033059362
000210 7f d2 a7 bc 19 c2 e8 bb 43 c8 df bb 37 a0 d2 bd
       -0.020486115 -0.0071032164 -0.006829293 -0.10284465
000220 f2 a3 0b bc 79 68 8b bd 85 1f c1 bd ad 67 c2 bd
       -0.008522974 -0.06807036 -0.0942984 -0.09492431
000230 d5 dd 61 be 39 f1 23 be 3c 5b 90 bd 0c ff 8a 3d
       -0.22057278 -0.16009988 -0.070486516 0.067869276
000240 e8 b2 0b bc ae 02 ac bd 60 f2 4a bd b0 b9 d5 b7
       -0.008526541 -0.083989486 -0.049547553 -2.5478046e-05
000250 e6 8f bd bd 66 67 38 ba 1a 0f ad 3c 6f 06 96 bc
       -0.09255962 -0.00070344505 0.021125365 -0.018313615
000260 01 c2 b1 bd 29 e5 af bb 85 ae 4a 3e a2 d6 78 3e
       -0.086795814 -0.005367894 0.19793136 0.24300626
000270 9d 8e 22 bd 1a fd 9b 3d ac 83 31 3d af a6 13 be
       -0.039686788 0.07616635 0.043338463 -0.14419053
000280 56 5c aa 3c 31 85 81 bd bb b1 79 bd 12 0a 17 3d
       0.020795982 -0.06324232 -0.060960513 0.03687484
000290 b5 ff 47 3d 3e e7 e8 3c 9e ea 9b bd 72 59 f0 bd
       0.048827846 0.028430577 -0.07613109 -0.1173581
0002a0 11 2a 8a be 52 50 8a be 88 f1 5e be 88 fe ba bd
       -0.2698522 -0.27014405 -0.21771824 -0.09130579
0002b0 92 6d 01 3d 48 09 06 be aa 5a 46 bd 16 d8 10 3d
       0.031598635 -0.13089478 -0.048426308 0.035362326
0002c0 5a 11 16 3d 26 b3 dd bc 8d f9 23 bd ee 42 7e 3c
       0.03663764 -0.027062964 -0.040032912 0.015518887
0002d0 68 31 90 bd 49 b2 47 3e 39 1b 9e 3d 9f 40 b9 bd
       -0.070406735 0.19501604 0.07720036 -0.090455286
0002e0 94 d9 80 3c f6 1c bb 3d 00 62 e7 bc dd 76 41 3d
       0.01572875 0.09136383 -0.028244972 0.047232497
0002f0 77 2f 9f 3d 84 71 76 bc 3a ee ad bd 3c b2 df bd
       0.07772725 -0.015041713 -0.08492704 -0.109226674
000300 f0 c6 21 3d c3 40 85 3e b2 2c b1 3d 95 3d 6b 3e
       0.039496362 0.26025972 0.08651103 0.2297271
000310 2a fe 81 bb 79 4b b0 3c a7 22 a5 3d 09 c5 ae bc
       -0.0039670663 0.021520363 0.0806325 -0.021334188
000320 4a 62 80 bc 87 f2 33 bd c4 3d b7 3d 46 1a 1b bc
       -0.015671868 -0.043932464 0.08947328 -0.009466713
000330 46 62 45 3e 38 06 75 3d 4c 55 cf 3d 69 1f 85 3d
       0.1927577 0.059820384 0.10123691 0.06500132
000340 cc a5 9f 3d d4 43 99 bc ed 86 39 3d 04 1c 24 be
       0.07795295 -0.0187091 0.04529469 -0.16026312
000350 d5 5f c5 bc 47 2c 52 3d e1 cd 8d 3d 28 d2 9a bd
       -0.024093548 0.051311757 0.06924034 -0.075596154
000360 42 39 b4 bb 31 c5 9d 3d 38 1f be bd 21 86 80 3d
       -0.0054999897 0.07703627 -0.09283298 0.06275583
000370 9d de 87 3d 9f d9 0b 3c 3e a8 4f bd 9f 22 17 3d
       0.06634257 0.008535772 -0.050697558 0.03689825
000380 cb 7b b6 bb 39 d5 5f be 9b 40 8b bd 30 6f ae 3c
       -0.0055689565 -0.21858682 -0.06799432 0.021293253
000390 b8 39 63 be 32 a2 28 3d 8c cf ae 3c 26 84 12 bc
       -0.22189987 0.041170307 0.0213392 -0.008942639
0003a0 6d 00 54 3e 65 2a 04 be a6 99 63 be f8 8e 51 3d
       0.20703287 -0.12906797 -0.22226581 0.051161736
0003b0 6a a6 7f 3d eb 92 09 3e a8 e3 13 bb 94 d2 39 3e
       0.062414564 0.13434951 -0.0022566114 0.18146735
0003c0 58 a5 4d be 88 5f ad bb 76 1e 4f be 40 e7 8f 3d
       -0.20082605 -0.005290929 -0.20226464 0.07026529
0003d0 20 cc e1 3c ce af d6 3c 66 89 12 be bf 30 5c bd
       0.027563155 0.026206877 -0.14310226 -0.053757425
0003e0 52 c6 49 bd 1f 91 28 3d c1 97 60 3d f5 45 b7 bd
       -0.0492614 0.041154023 0.054832224 -0.0894889
0003f0 a6 ec c0 3d 4c 50 a4 3d 21 d4 a0 3d 18 12 2b bd
       0.09420137 0.08023128 0.078529604 -0.041765302

b2 f4 [28]
000000 4c 6e 0b 3e 26 ca f6 3d e8 a2 cb 3c 25 fa bc 3d
       0.13616294 0.120502755 0.024857953 0.09227399
000010 f3 44 b3 3d 54 d8 be 3d 48 22 a0 3d 29 d9 0b 3d
       0.087533854 0.09318605 0.07819039 0.034142647
000020 a6 eb 95 3d 5f 30 84 3c 96 6c 99 3d b4 ed a4 3d
       0.07320337 0.016136346 0.07491414 0.08053151
000030 23 75 5a 3d cd 90 e1 3d 41 31 b3 3c 61 23 a4 3d
       0.053334367 0.11013947 0.021874072 0.080145605
000040 dc ee 43 3e 66 6e 99 3d e2 6b 18 3d 33 89 ad 3c
       0.19134086 0.0749176 0.03721226 0.021183586
000050 fe 52 a8 bc b2 8d f0 3d 11 33 3b 3d 15 7f 14 3e
       -0.020547386 0.11745776 0.045702998 0.14501603
000060 a7 98 ca 3d 7c 0a 14 3e f4 d1 0e 3e 76 8b 41 3e
       0.098923974 0.14457124 0.13947278 0.18900856

W3 f4 [40, 28, 4, 4]
000000 73 8c b1 bd 3c e1 9f bd 2e d0 f4 3d 7c 3e 6b 3d
       -0.08669367 -0.07806632 0.119537696 0.057432637
000010 9f b6 6c be 4e 64 0a be 59 18 a2 bd 22 e4 9f bc
       -0.2311654 -0.13514826 -0.079148 -0.019517962
000020 5b 84 28 be 2a 53 1b 3b 0c d7 02 3e 25 7e 0b 3d
       -0.1645674 0.0023700693 0.12777346 0.034055848
000030 5f fd 11 3d 6c 38 5e be 5a c6 18 3d c8 03 fc bc
       0.035642024 -0.2170121 0.037298538 -0.030763522
000040 a8 b6 4a bd 29 c3 46 3d 9a 41 28 3d 04 20 8d bd
       -0.0494906 0.048525963 0.041078188 -0.06890872
000050 6b 38 26 3d 3d 25 24 3e 4f 62 5d b9 b0 de 1e be
       0.040581148 0.1602983 -0.00021112825 -0.15514636
000060 73 e2 d3 bd 13 6e 3c 3e 6a 2a 5c 3d f7 7e 1d bc
       -0.10345926 0.18401365 0.053751387 -0.00961279
000070 cc 1e 4d 3d a8 71 51 3d c1 71 1e bc 80 d4 bd 3d
       0.0500782 0.05113378 -0.009670676 0.09269047
000080 b6 76 52 be de 92 77 bd ea 36 6a be db 93 c4 bd
       -0.20553097 -0.060442798 -0.2287251 -0.09598514
000090 68 8b 0e bd 9b 4d 63 be d4 9a 5f be 49 f8 34 3d
       -0.034800917 -0.22197573 -0.21836406 0.044182096
0000a0 d8 eb 41 bd ca b4 19 be 99 4e 19 be ef c4 57 bd
       -0.04734406 -0.15010372 -0.14971389 -0.052678045
0000b0 95 6a c3 3d e8 27 af 3d 90 1f 0a be 0d 2d 6b 3d
       0.09541813 0.085525334 -0.13488603 0.05741601
0000c0 33 9c ac bd e8 84 3e 3d c2 f9 ee bd b2 81 87 bd
       -0.0842823 0.046513468 -0.11668731 -0.06616534
0000d0 d4 af 73 3e c2 df 2e 3d 63 9f c9 bd ec 6a 82 be
       0.23797542 0.04269386 -0.09844854 -0.254722
0000e0 38 cd 1d 3e 2d b1 a1 bd 5a 4d cd bd ab f0 93 3d
       0.15410316 -0.07895122 -0.10024519 0.07223638
0000f0 a0 97 60 3e dc 1d 27 be 58 c0 26 3e fd 2d 84 3d
       0.2193284 -0.16319984 0.16284311 0.06454084
000100 b5 fa 13 3e 51 aa 9d be 73 8c df 3d 6f a0 ff bd
       0.14451106 -0.30794004 0.109154604 -0.12481772
000110 5c 25 15 bd 95 73 2e 3e f2 bc dc 3d e2 d0 2e 3d
       -0.03641258 0.17036279 0.10778226 0.042679675
000120 a0 d8 64 3d fb 39 4b 3d 99 2b 5c bd 0c c4 01 3d
       0.055870652 0.04961584 -0.053752515 0.031681105
000130 39 e4 45 3e 29 8a 48 be 3d 5e 6d 3d 28 98 32 3e
       0.19325341 -0.19583954 0.0579512 0.17440856
000140 33 e8 7b bc 20 3d 8a 3d e7 b0 5a bd 47 4a 5d bd
       -0.015375185 0.0674994 -0.053391363 -0.054025915
000150 72 91 88 bb f3 5e 59 3c de a9 c7 bd d0 71 5b bd
       -0.004167729 0.013267267 -0.097491965 -0.053575337
000160 e1 8e 8a bd ed 5d 82 bd 95 fe 88 be 3b d8 3f be
       -0.06765533 -0.06365571 -0.2675673 -0.18734829
000170 1f c8 5a be 39 10 7b 3a a3 12 31 bd 5a de be bd
       -0.21365403 0.00095773075 -0.043230664 -0.09319754
000180 e0 d1 ce 3c 5d 92 b5 3c da fa 70 3e 0d d6 0a bd
       0.02524656 0.022164518 0.23533192 -0.03389554
000190 2d 19 a4 3b 6e 59 11 3e 51 20 64 3d fb 8f c4 3d
       0.005007884 0.14194271 0.05569488 0.095977746
0001a0 61 be c6 bd e3 6c b7 bd ef f2 85 3e 2a 42 f6 bb
       -0.09704281 -0.08956315 0.26161906 -0.0075152116
0001b0 58 a7 fd 3d 90 80 1c be 54 3d 95 bd 2c 97 00 bd
       0.12385434 -0.15283418 -0.07287088 -0.03139417
0001c0 6a eb 3b bd 5f ef d9 3c a6 9a 11 3d 71 4f 4d 3d
       -0.045878805 0.026603399 0.035547875 0.05012459
0001d0 dd 58 a4 3d 90 f7 a8 bd f7 d4 00 be 11 09 ab 3b
       0.08024762 -0.08250344 -0.1258124 0.0052195867
0001e0 ca c0 a0 bd fe d6 96 bd 79 01 4a 3e c3 33 0e be
       -0.078492716 -0.07365225 0.19727124 -0.13886933
0001f0 02 c8 23 3e 00 b7 c9 3b 17 85 be 3d 5d 05 b1 bc
       0.15994266 0.0061558485 0.093027286 -0.021609003
000200 79 6a 23 3d bd 17 19 3d 7d 8f 1d 3e 8d a9 6d bd
       0.039896462 0.037376154 0.15386768 -0.058023024
000210 a8 a2 82 bd 63 a6 33 bb b1 1c b2 3c d5 60 6b 3d
       -0.063786805 -0.0027412407 0.021742197 0.057465393
000220 44 84 f3 bc 74 b3 1e 3e be cf a9 bc 83 01 a7 3c
       -0.029726155 0.15498143 -0.020728942 0.020386463
000230 c8 80 13 3d 3d 38 87 bd f8 48 28 bc 18 06 a6 3d
       0.036011487 -0.066025235 -0.010271303 0.08106631
000240 4d ae 81 bd 50 24 a1 bd 8f b4 6e be b2 61 9e bc
       -0.06332073 -0.07868254 -0.23311065 -0.019333694
000250 5e c3 90 3e 16 4e be bb c2 b4 64 3d 93 43 45 bd
       0.28274053 -0.0058076484 0.055836447 -0.048160147
000260 ef 0e 59 3e eb 0b df 3e 26 37 d2 3c f9 4b 91 3e
       0.21197103 0.4356378 0.025661062 0.28378275
000270 cf 9f 09 bd c1 77 1b 3b 9c ad b1 3c c9 c3 12 be
       -0.03359967 0.0023722502 0.021689229 -0.14332499
000280 1d 06 78 3d 09 a0 0b bd 4e 72 82 be 02 9d f9 bd
       0.060552705 -0.03408817 -0.25477833 -0.1218815
000290 55 6f d7 3d 84 ff 41 3d 2d f9 eb bc 18 86 a9 3d
       0.10519282 0.04736282 -0.02880534 0.082775295
0002a0 ae 77 43 bc 74 42 15 bd 1d 7f d6 bd 94 de bc 3d
       -0.011930389 -0.036440328 -0.10473464 0.09222141
0002b0 bc 06 94 bc 36 b6 79 bd 7e 05 12 be b7 dd 44 3d
       -0.018069617 -0.060964786 -0.14259908 0.048063006
0002c0 f4 d7 d0 bd 74 e5 17 be b8 eb c1 bd 72 bb 9e be
       -0.1019744 -0.14833623 -0.09468788 -0.31002384
0002d0 80 ce 0f 3e d1 a2 b7 bd 85 be 55 be 6c 30 08 be
       0.14043617 -0.08966602 -0.20873459 -0.13299721
0002e0 ee d5 17 bb 65 d3 be 3c 54 8b f3 bd fa aa f0 bd
       -0.0023168284 0.02329416 -0.11891809 -0.11751361
0002f0 14 44 3b 3e e5 30 56 3e 0a fd c2 bc be 27 c4 3d
       0.18287688 0.2091709 -0.023802299 0.09577893
000300 2b 47 e6 3d a1 60 54 3c c1 da ec 3d 83 a5 5a 3e
       0.11244043 0.012962491 0.115651615 0.213522
000310 79 b4 f5 3d 26 88 f4 bd 3c 5c 3c 3c 34 40 02 be
       0.11997313 -0.11940031 0.0114966 -0.12719804
000320 52 2c 94 3d 72 05 92 3d fb 82 0e 3d d4 d0 7c 3d
       0.07235016 0.07129945 0.03479288 0.06172259
000330 c2 70 07 3e fd eb a0 3e 86 b9 05 3d ab 00 c5 3d
       0.13226607 0.31430045 0.032647632 0.09619268
000340 8e 10 50 3a 9d 52 03 be 9c 32 e8 3d 87 5c 87 be
       0.0007937037 -0.12824483 0.11337778 -0.2643778
000350 78 d2 46 be 2f d0 0c 3e 95 12 08 3e 97 ed d8 bd
       -0.19416225 0.1375129 0.13288338 -0.10592192
000360 52 b2 85 bd af 76 cd 3d 57 37 5d bd ff 2a 0c 3d
       -0.065281525 0.10032403 -0.054007854 0.03422069
000370 0b 59 64 bd 09 7a 70 be 15 e5 51 3e 9c 44 ad 3d
       -0.05574898 -0.23484053 0.20497544 0.08460352
000380 b7 3c 08 3e 25 23 0a be f0 57 0e be 18 fe 08 be
       0.13304411 -0.13489969 -0.13900733 -0.13378179
000390 03 54 31 3e e5 de be bb 87 96 24 bc 98 29 22 be
       0.17317204 -0.005824911 -0.010045654 -0.1583618
0003a0 c2 40 d6 bd cd dd 5d 3d 69 50 18 be a7 2e 4b be
       -0.1046157 0.054166604 -0.14874424 -0.19842015
0003b0 3a 56 ca 3d 27 fa 85 bd f4 39 36 3d af 1d ab bd
       0.09879728 -0.065418534 0.044488862 -0.08355271
0003c0 52 10 6f 3c 6a b4 d3 bd 04 55 8e be 5a 8f cf 3d
       0.014591293 -0.103371456 -0.27799237 0.10134764
0003d0 98 11 28 be 99 fb 8b 3e b6 12 2b bc 85 83 03 be
       -0.16412961 0.2734039 -0.010441473 -0.1284314
0003e0 ea 64 97 3d dc 9f f9 3c d1 bc 67 3c 19 eb c4 bd
       0.07392295 0.030471735 0.014144138 -0.09615154
0003f0 34 0e b2 3d 6d b1 62 be 8d 1c be bb e5 d5 0a 3d
       0.08694115 -0.22137995 -0.0058017434 0.033895392

b3 f4 [40]
000000 64 5b cd 3d 11 81 6e 3d b3 89 f1 3c 0d 08 fa 3d
       0.10027197 0.058228556 0.029484605 0.12208567
000010 fe d1 22 3e b2 87 0a 3e a4 7a 95 3d 38 80 fe 3d
       0.15900418 0.13528326 0.072987825 0.124267995
000020 a7 03 24 3e aa 61 10 3e 05 2d f1 3d 22 3b ab 3b
       0.16017018 0.14099756 0.11776165 0.005225555
000030 60 c8 4d 3d e1 27 d8 3c 3b aa 54 3d 0a c9 b2 3d
       0.05023992 0.026386203 0.051920157 0.087297514
000040 4f 13 38 3e 2a 59 22 bc cf 90 c0 3c c4 eb e2 3d
       0.17976116 -0.009908954 0.02350655 0.11080125
000050 20 9a 5d bc 58 81 fd 3c 86 9f 54 3c e0 32 09 3e
       -0.013525516 0.030945465 0.0129774865 0.13398314
000060 76 30 42 3d b8 c9 a5 3d bc b7 2d 3d 59 54 77 bc
       0.047409497 0.080951154 0.04241155 -0.015095794
000070 02 54 5a 3d 22 6f 67 3d d3 79 07 3d 10 d1 3c 3e
       0.053302772 0.05650247 0.033075165 0.18439126
000080 19 e1 41 3c fe 49 85 3d e9 5c 06 3e e7 5b 80 bc
       0.011833453 0.065082535 0.1312138 -0.015668822
000090 f2 c4 f9 bd 58 88 31 3c bd f9 c2 3d bd 67 4d 3e
       -0.121957675 0.01083573 0.0952029 0.20059104

W4 f4 [1960, 30]
000000 c9 9f 4f bd b9 76 22 3c 40 e3 52 be 50 95 ed 3b
       -0.050689492 0.009916001 -0.20594501 0.0072504655
000010 17 39 a1 3c 11 0b 31 3e a7 90 ae bd 59 ae ad bd
       0.019680543 0.17289378 -0.08523684 -0.0848052
000020 da 8f ad 3d ab ab e7 bd 04 4b 4e bd bd 5a 80 3d
       0.08474703 -0.1131204 -0.05036451 0.06267307
000030 ea 77 48 3c d1 98 df bd b5 b4 0c 3e 27 8c a9 bd
       0.012235621 -0.10917819 0.1374081 -0.08278685
000040 12 18 6c bc 1b 85 76 bd 9b 15 58 3d 73 75 58 bb
       -0.014410036 -0.060185533 0.05275498 -0.003302899
000050 eb d2 3e be 6c ff 79 be 72 a7 80 bd db 87 88 3e
       -0.18635146 -0.24413842 -0.06281938 0.2666615
000060 4f f0 03 3e 87 86 22 3e ea a7 c4 bd e8 24 83 bc
       0.12884639 0.1587163 -0.096023396 -0.01600881
000070 d6 14 0c be 04 1f bc 3d b8 f5 98 3c b4 25 48 3e
       -0.13679823 0.09185603 0.018671855 0.19545633
000080 2b 78 08 3d eb ec 92 bb b8 75 2c 3e 66 bc 32 3e
       0.033317726 -0.004483809 0.16841781 0.17454681
000090 a3 8a 8e bb 37 dd 86 bd ae 0a be bd d4 a8 02 be
       -0.004350023 -0.06585162 -0.09279381 -0.12759715
0000a0 3c 20 b9 3d bc 9c f3 bc 8a 15 ce 3c 13 42 04 3c
       0.09039351 -0.029737823 0.025156755 0.008072394
0000b0 b8 ca 0c 3e 6a 71 b7 bd c4 59 f6 3c c2 fe 61 3d
       0.13749206 -0.08957179 0.0300721 0.055174597
0000c0 31 61 18 3e d8 c8 c2 bd ca f3 a0 bd 44 2d b6 bd
       0.14880826 -0.09510964 -0.07858999 -0.088953525
0000d0 4e b0 1a bd 40 72 80 3d 9b da de bd 36 b7 c0 bd
       -0.037765794 0.062717915 -0.108815394 -0.09409945
0000e0 d5 01 fa bc e1 ca 9f 3d 86 b2 12 3d 04 76 a8 bd
       -0.030518452 0.07802368 0.035814784 -0.08225635
0000f0 75 2c da 3a ea a9 2c be e2 af 96 3d 71 b6 61 3b
       0.0016645329 -0.16861692 0.07357766 0.003444102
000100 44 9e ae bd fd 7d 56 be c8 1c fe 3d 70 b6 f6 3d
       -0.085262805 -0.20946498 0.12407833 0.12046516
000110 60 03 34 be aa 36 84 3c 63 3c a9 bc 92 5f e5 bc
       -0.17579412 0.016139347 -0.020658677 -0.027999673
000120 bf 19 aa 3d 71 db 24 3d 21 07 35 3e 70 57 69 3c
       0.08305692 0.040248338 0.176785 0.014242038
000130 85 81 c3 bd c7 28 31 bc 76 c8 9e bc 50 cf 92 bc
       -0.09546188 -0.010812945 -0.019382697 -0.01792112
000140 8b 0e ff bd 22 35 c5 3c 2e d7 c2 3d 98 58 7b bc
       -0.12453946 0.024073187 0.095136985 -0.015340947
000150 ee ee d2 3c 5a 08 36 3e 89 54 43 be 9e 08 11 3d
       0.025748696 0.17776623 -0.19075216 0.03540861
000160 65 a1 14 3d b5 44 8a bd fc 86 12 3c 89 88 61 3d
       0.03628673 -0.06751386 0.008943316 0.05506185
000170 50 ba b8 3d 6e d7 2d 3e 8c bd 14 be 34 80 24 3d
       0.09019911 0.16976711 -0.14525431 0.040161327
000180 bc f6 0e be e1 d6 1b 3e 3b 5b 5d bd be 4d 5c 3d
       -0.13961309 0.15218689 -0.054042082 0.05378508
000190 5b 6a 06 3d 1a 27 78 bd d2 61 c5 bd 65 22 b1 bd
       0.032816272 -0.060584165 -0.09637798 -0.08649138
0001a0 3a 22 12 bc 60 48 1f bd af b2 a5 bd 1d e8 06 be
       -0.008919293 -0.03888738 -0.08090722 -0.13174482
0001b0 62 2e b5 bd 7a d1 1c be 69 47 5c 3d 1e 2d 45 3e
       -0.088467374 -0.15314284 0.05377904 0.19255492
0001c0 8b fd b7 bc 54 5b d9 bc 5e b9 47 bd ff 5a da 3b
       -0.022459766 -0.026532806 -0.048760764 0.0066636796
0001d0 2f 71 f9 3d df d8 05 bb ea c2 dc bb 65 f0 b0 3d
       0.12179791 -0.0020423455 -0.0067371028 0.086396016
0001e0 1e 39 55 bd 52 da 3c 3d 78 d5 7e 3d 72 34 f0 3c
       -0.052056424 0.046106644 0.0622153 0.029321883
0001f0 dc cb 13 bd b5 5f 7d 3c 8d f7 b4 bd 8a c0 3f 3e
       -0.036083087 0.015464713 -0.08836279 0.18725792
000200 f5 88 12 3e 18 ff 15 3e 73 13 85 3d 80 b3 97 3d
       0.14310057 0.14648092 0.0649785 0.07407284
000210 8c 52 75 3d 09 be aa 3d d9 d4 ca bd 5d 02 9e 3d
       0.059893176 0.083370276 -0.09903879 0.077152945
000220 bb a9 08 be 4d 0d d3 bd aa b9 8b 3d 4e 07 83 bc
       -0.13345997 -0.10305271 0.06822522 -0.015994694
000230 4c 5b 39 3c 6b 80 66 bd 7b 75 ad bd f7 41 49 bd
       0.011313271 -0.056274813 -0.08469673 -0.049135175
000240 51 7c bc 3d 43 70 b0 bd 7b 83 f2 3d 7a c4 a9 3a
       0.09203399 -0.08615162 0.11841484 0.0012952231
000250 e6 4f 1e 3e 3c 14 53 3d 41 a6 88 be 8c b8 b9 3c
       0.15460166 0.05153297 -0.26689342 0.022671007
000260 49 b5 a1 3d 5b f9 6c bd 52 ee 9a bd b5 5e a8 3d
       0.078959055 -0.05785499 -0.07564987 0.08221189
000270 a0 8b 0e 3e fe 42 07 3d 49 40 13 3d ca 0f 7d bd
       0.1392045 0.033022873 0.03594998 -0.061782636
000280 78 a0 ac 3d c3 54 93 bc b1 58 64 bd 99 0a 08 3c
       0.084290445 -0.017984753 -0.055748645 0.008303308
000290 27 31 de bd a6 58 12 3e 00 d4 cc 3c 7d 6c 2e 3d
       -0.10849219 0.14291629 0.025003433 0.04258393
0002a0 30 57 8a bb c9 09 f2 3c 21 1e 21 3e c3 3c c2 3d
       -0.0042218193 0.029545682 0.1573415 0.09484246
0002b0 b3 8f 68 3d 28 b6 f0 3c de 38 a8 3d 23 53 ab bd
       0.056777667 0.029383734 0.082139716 -0.083654664
0002c0 8e ed ee 3d b6 a0 60 3d 7e 67 a1 3c f4 c9 ac bd
       0.11666404 0.054840766 0.01970267 -0.08436957
0002d0 a8 20 10 3d 64 c1 a1 3d 19 64 a8 bd 89 1a fe 3d
       0.035187393 0.078982145 -0.08222217 0.12407405
0002e0 e2 2d 0f 3d 41 89 28 bd 66 2e 14 3c 74 d6 93 bd
       0.034955867 -0.04114652 0.009044265 -0.07218638
0002f0 a2 cf 91 3d 28 9b 44 bd f5 94 35 bc 64 00 b4 3d
       0.07119681 -0.04799953 -0.011082877 0.08789137
000300 6f 1a 0a bd 0c 2d 6f bd 91 f5 bf 3d 84 71 6c be
       -0.033716615 -0.05839257 0.0937301 -0.23090178
000310 c1 d6 6a be f6 5f 2c 3d fd 77 bf 3c 32 ab 0e be
       -0.22933485 0.042083703 0.023372645 -0.13932493
000320 79 7c cb 3c 53 1c fc 3d f9 13 2d 3e 07 80 2b be
       0.024839627 0.1231009 0.1690215 -0.16748057
000330 29 d4 99 3d 4e f2 a0 bd fb 98 0d bc f1 57 e9 bd
       0.075111695 -0.07858716 -0.00864243 -0.113937266
000340 01 d4 38 be 30 ba 8a bc 3f d7 69 bd c1 c0 1f be
       -0.18049623 -0.016934484 -0.05709004 -0.15600874
000350 63 83 01 3d 1b a7 8f bd 98 d6 d6 bc 8a 91 2a 3d
       0.03161944 -0.07014295 -0.026225373 0.041642703
000360 5d 63 a8 bd 6e dc 9f bc 3d d6 69 bb 2c df 21 be
       -0.08222077 -0.019514289 -0.0035680674 -0.1580779
000370 f8 2c f2 bd d4 11 3b 3e 9e 81 28 be 01 a3 c3 3d
       -0.11824983 0.1826852 -0.16455695 0.09552575
000380 b3 e5 26 3d 90 7f 0a 3e 98 50 8c 3d 80 60 52 be
       0.040746402 0.13525224 0.068513095 -0.20544624
000390 c6 43 7f 3e 84 3a 1f 3d b0 c3 93 bd 8c 83 8a 3c
       0.24928197 0.038874164 -0.07215059 0.01690843
0003a0 ac 6a 7c 3d 9e 40 fd 3a 34 cb c1 3d 0c df 9a bc
       0.061625168 0.0019321626 0.09462586 -0.018905185
0003b0 a9 42 9f bd 08 31 04 3e a7 96 c8 3d e4 0d 2f 3d
       -0.07776386 0.12909329 0.0979436 0.042737857
0003c0 1a d6 62 bd 92 02 07 3b f4 39 87 3d 96 3d e7 3d
       -0.055379964 0.0020600897 0.066028506 0.112910435
0003d0 2b 85 e5 3d 73 63 03 3e 37 a9 f8 bd ba 15 71 3b
       0.112070404 0.12830906 -0.1214165 0.0036786632
0003e0 9a 29 38 bd 17 9b 63 3c d5 04 fe bd 1f f5 b7 ba
       -0.04496155 0.013891957 -0.124032654 -0.0014034844
0003f0 6c e2 bb bb 42 8c 54 3d 56 fc 75 be 89 d7 fc 3d
       -0.0057337787 0.051891573 -0.2402204 0.123457976

b4 f4 [30]
000000 bc 54 71 3d 65 e8 75 3d 85 76 78 3d 9d 82 4b 3e
       0.0589187 0.06003608 0.060659904 0.19874044
000010 bf e5 88 3d 52 56 f8 3d 8d 23 57 3d d5 a4 6d 3e
       0.066844456 0.12125839 0.05252414 0.2320741
000020 19 71 28 3e 62 d9 8d 3d ed 39 a2 3d ef dd a2 3d
       0.16449393 0.06926228 0.07921205 0.07952487
000030 47 0e 8c 3d 28 8a 85 3d 6c 10 90 3d 67 5d 3c 3d
       0.06838661 0.06520492 0.07034382 0.045987513
000040 91 b5 83 3d ac 0d 82 3d 39 7f 72 3d db 62 92 3e
       0.064311154 0.06350264 0.05920336 0.28591046
000050 24 ef 60 3d e9 12 7b 3d d8 33 ea 3d f0 45 43 3d
       0.054915562 0.06129733 0.1143567 0.04767412
000060 e8 bc 09 3e 99 b2 a5 3d e5 af 35 3d b1 fe 96 3d
       0.13450968 0.080907054 0.0443572 0.07372797
000070 52 e3 a2 3d 4f a2 52 3d
       0.07953514 0.05142432

W5 f4 [30, 7]
000000 91 62 90 bd af 16 a8 3e 1d 64 fc 3d 90 7e a9 3d
       -0.0705005 0.32829806 0.123237826 0.08276093
000010 92 46 81 bb ac 4d 9f 3d 60 95 3d bd 07 e4 34 3d
       -0.00394518 0.077784866 -0.046285033 0.044162776
000020 63 08 c8 bd 40 09 5b bd d0 78 d2 bd 37 c5 9c bd
       -0.09767225 -0.05347562 -0.102769494 -0.07654803
000030 e2 a6 ee bd 22 52 0f bc fe 90 09 3d bb ff 4b bd
       -0.11652924 -0.008747609 0.03358554 -0.04980443
000040 28 c9 b2 bd 1e 94 0a 3d 54 3f 9e 3d 5a c9 11 3e
       -0.08729774 0.03383266 0.07726923 0.14236966
000050 44 48 29 3e dc 16 ab bd 05 c2 5e be 39 00 df bb
       0.16531473 -0.083539695 -0.217537 -0.0068054465
000060 82 2e 6f 3e 53 83 82 3b e4 32 74 bd ef e2 53 bd
       0.23357585 0.00398294 -0.059618846 -0.051730093
000070 ac d7 c3 3c de da 3a 3d e8 2e 57 be 21 17 96 3c
       0.023906551 0.045618884 -0.21013987 0.018321576
000080 1b 02 20 bd 5a 1e 48 bd a1 35 27 3c d8 50 f0 bd
       -0.039064508 -0.04885707 0.010205657 -0.1173417
000090 84 b3 67 3d 4a a6 6b 3c fb 50 61 bd bd c6 af bd
       0.056567684 0.014382908 -0.05500887 -0.08582828
0000a0 67 d5 21 be 3e 3f b2 bd c4 5e 98 bb 1f 4b 9d bd
       -0.15804063 -0.08703469 -0.004649969 -0.07680344
0000b0 cd 46 e2 bc 1c 7b bc 3d ee 36 18 be 8e b9 26 3e
       -0.027621651 0.09203169 -0.14864704 0.16281721
0000c0 bc 33 ea bd 7d e0 2f be 49 23 ea bc 18 dd a4 bc
       -0.11435649 -0.17175479 -0.028581278 -0.020124957
0000d0 f9 29 d1 bd 28 db 38 3d b2 51 5e 3d b0 44 1b be
       -0.10213084 0.04513088 0.05427713 -0.15162921
0000e0 a5 b2 d9 bc 8f 0f ad 3d 6c e1 86 bd 89 27 d1 bd
       -0.026574442 0.08450233 -0.065859646 -0.10212619
0000f0 6a 69 a3 3d c3 35 21 3c 89 2f 5f 3d 7e 2e 32 3d
       0.079790905 0.009839478 0.054488692 0.04350137
000100 8b f6 ce 3d 0e a4 b1 bc 85 c7 e0 3c 37 fb 0d 3d
       0.10105618 -0.021684673 0.027438888 0.034663405
000110 db 1c ee 3d ae ab cd 3d 6b 8e d5 bd d7 57 2e bd
       0.116265975 0.10042511 -0.10427555 -0.04256424
000120 d4 fb 95 3d 30 95 c3 bd 3b 00 9a bd d1 58 ec bc
       0.07323423 -0.0954994 -0.07519575 -0.028850945
000130 74 92 db bd 48 19 c9 3c 2d 50 7c bc 4e 70 0c 3b
       -0.10721293 0.024548188 -0.015399975 0.0021429243
000140 24 49 1c be 6a 0a b3 3d b3 97 6c bc 09 ea 78 bd
       -0.15262276 0.08742221 -0.014440465 -0.06077007
000150 bb f6 44 3e f6 44 fe 3d 33 59 9d bc 67 1f cb 3d
       0.19234745 0.12415497 -0.019207573 0.09918099
000160 c9 f1 a0 3d a3 0b b6 bd c8 b2 d2 3b a2 e8 c7 3c
       0.07858617 -0.08888938 0.006430004 0.02440292
000170 af a8 9b 3d d7 0b 81 bd 85 d4 7c bd 2f c2 d9 bd
       0.07600533 -0.063010864 -0.061726112 -0.10632741
000180 d0 9e 68 3b 9e ef 04 3e d2 b0 96 3d 09 dc 60 be
       0.003549505 0.12982032 0.073579445 -0.21958937
000190 99 6b 32 be 4e 40 d5 3c 5b b2 55 3d fe 61 97 bd
       -0.17423858 0.02603164 0.052172046 -0.073917374
0001a0 aa 6a fe 3c f1 79 0a be 3b e9 46 bd eb 1d 00 be
       0.03105672 -0.1352308 -0.04856227 -0.12511413
0001b0 3c 66 af be 65 94 21 3c 9e c7 38 bd 22 b1 7d bd
       -0.34257686 0.00986204 -0.045112245 -0.061936505
0001c0 33 6b f9 bd 93 19 d1 bd 38 f7 b2 3d 89 53 55 bd
       -0.1217865 -0.10209956 0.087385595 -0.05208162
0001d0 9c f0 50 bd 25 66 01 be 97 1e 1c 3e 20 3f 7a bd
       -0.051010713 -0.12636621 0.15246044 -0.061095357
0001e0 6f ac 2c 3e bd 8e d6 3a 29 88 a7 bb 7d d6 95 bd
       0.16862653 0.0016369444 -0.005112667 -0.07316301
0001f0 20 03 da 3d 42 a3 cd bc ca e0 11 be 24 a7 8b 3d
       0.10645127 -0.025102261 -0.14245906 0.06818989
000200 a2 c7 7f bd e9 0c 92 bd f0 fd 21 3d 3d 3f 34 3d
       -0.062446244 -0.07131369 0.039548814 0.04400562
000210 ba dc 17 3e 6a 8b fd 3b 53 b5 a5 bd e0 fc 21 3d
       0.14830294 0.0077375667 -0.080912255 0.0395478
000220 17 b5 97 bd 79 9c dc 3c 8f af 1f be 61 9a 85 3d
       -0.07407587 0.02693008 -0.15594314 0.06523586
000230 f5 d8 f3 3d 66 ee 7e bd 87 ee 45 bb fe f0 e8 3b
       0.11906616 -0.062239073 -0.0030201988 0.0071088066
000240 ff f0 82 b9 81 3c 49 3c 01 af 41 3d 3b 40 ed bd
       -0.00024975088 0.012282492 0.047286037 -0.115845166
000250 bf 24 88 3d 2d 7a 2f 3e d3 d5 f8 3d 25 5e 49 be
       0.06647634 0.1713645 0.12150159 -0.1966482
000260 4b dc 74 be 85 e3 82 3c 7c 1f d3 3d 70 34 a4 3b
       -0.2391216 0.01597763 0.103087395 0.005011134
000270 1c ef ca bc 11 a6 1a 3d 7b 78 a2 3d 4e 07 ff 3d
       -0.02477222 0.03775603 0.07933136 0.12452565
000280 a7 1d cb bd eb 32 dc bd f8 fc 5d bc 1e 6b 16 3d
       -0.09917765 -0.10751899 -0.013549082 0.03672325
000290 2b 40 8b 3d a6 f2 2d be 56 71 2c 3d 6e 1a 7a bd
       0.067993484 -0.16987094 0.042100273 -0.06106036
0002a0 c6 d3 ed bc b2 78 95 bd 42 d6 39 3e a8 fa 16 be
       -0.029031646 -0.072984114 0.18148139 -0.14744055
0002b0 a5 8a ab bd 03 af 11 3e 75 49 85 bc 21 7a ad bd
       -0.08376054 0.14226918 -0.016270379 -0.0847056
0002c0 07 4c b0 bd fd 51 be bc a8 7c 2d 3e 99 8a 6c 3e
       -0.08608251 -0.023232454 0.16942084 0.23099746
0002d0 e8 46 ad 3d 92 3e d5 3b fa e2 ab 3d a4 be b0 bc
       0.0846079 0.006507703 0.08392902 -0.02157528
0002e0 ca 38 ce 3d 88 5a 36 bd a8 97 4b bd 36 4e 53 bc
       0.100694254 -0.04451993 -0.049705178 -0.012897065
0002f0 a4 1c 1a be c0 77 ba bc 31 ab 07 3d 85 32 da 3d
       -0.15049988 -0.02276218 0.033122245 0.10654167
000300 c2 6f de 3d 46 c5 be 3d 59 2b 69 3c d8 58 65 bd
       0.1086116 0.09314971 0.014231526 -0.05599293
000310 08 db 21 3d 74 7e b1 bd fa ce de bd 09 58 d3 bd
       0.039515525 -0.08666697 -0.108793214 -0.10319526
000320 07 e9 1c be e6 f4 06 3e 04 88 e8 bd 55 66 89 bd
       -0.15323268 0.13179359 -0.11354068 -0.067089714
000330 a3 20 9f 3c 97 89 6d bc 94 1a 77 3c 0a c8 80 bd
       0.019424742 -0.014498136 0.01508202 -0.062881544
000340 f4 92 0e bb 58 0e 36 bd
       -0.0021755071 -0.044447273

b5 f4 [7]
000000 ff 0d 5e 3d 82 74 ae 3b 5d e2 e9 3d 0c b5 84 3d
       0.054212566 0.0053239474 0.114201285 0.064798445
000010 22 d9 8a 3e a5 85 84 bd 36 6e 22 3e
       0.27118784 -0.06470803 0.15862355
