furhatBartender/userPerception/model/cnn4class-stratdist.pth (torch, 365297 bytes, 10 tensors)

W1 f4 [16, 1, 5, 5]
000000 a3 e7 14 3e cc ec 2c 3e bb 05 b1 3d b8 52 c3 bd
       0.14541487 0.16887206 0.08643671 -0.09537262
000010 eb 73 f1 3d 38 f7 23 3e 58 c6 a9 3d 35 2c 01 3e
       0.11789688 0.16012275 0.08289784 0.1261452
000020 84 0b 45 3d 39 90 62 be 0f bc 0b bc 47 00 83 3d
       0.048106685 -0.22125329 -0.008528723 0.06396537
000030 c2 00 76 bd 1f 69 c8 bd 32 8c a9 be 6a 20 42 3e
       -0.060059316 -0.09785675 -0.33114773 0.18957677
000040 7e e0 55 bd 7c 0d 25 3d fa 6f ea bd 98 3b de 3b
       -0.052216046 0.040296063 -0.11447139 0.0067820065
000050 7d a9 8f bd f6 52 c1 3c 00 80 e6 bd 8e 80 cf bd
       -0.07014749 0.02359913 -0.11254883 -0.10131942
000060 74 8f 12 be e1 e0 be 3d 73 66 37 3e a2 a8 fd bd
       -0.14312536 0.09320236 0.17910175 -0.1238568
000070 17 31 2d 3d 13 ea 1e 3e 78 b3 c1 3d a6 2d 1a bd
       0.042283144 0.1551898 0.09458059 -0.03764119
000080 c5 95 73 3e 50 41 76 3e 0d 62 e7 bb 9c 82 99 3d
       0.23787601 0.24048352 -0.007061249 0.07495615
000090 e1 e7 ae 3d d4 5e b1 3b 9f 9c e6 bb 9d aa 10 be
       0.08540321 0.0054129157 -0.0070377137 -0.14127584
0000a0 0f fc 1a be 7e cb 4b bc b3 6a 80 bc bc 1d 21 3e
       -0.15135215 -0.012438653 -0.015675878 0.15733999
0000b0 35 92 0c bc fb 9c 23 bd 34 98 0b bc 17 ef 9f be
       -0.00857978 -0.03994463 -0.008520175 -0.312371
0000c0 31 d2 4b be 21 c8 8b be b1 51 2a be ca cb 3f 3d
       -0.199044 -0.27301124 -0.16632725 0.046825208
0000d0 03 82 36 3d 18 b3 ab bd 95 a0 a7 bd 9e b7 00 be
       0.044557583 -0.08383769 -0.081849255 -0.12570044
0000e0 39 9d fa 3b 98 3f e5 3c 88 e0 a7 3d db a0 9d bc
       0.007648137 0.027984425 0.08197123 -0.01924174
0000f0 cf 04 42 3c ea e9 4f 3d ac 9a 1d 3e ce 76 84 bd
       0.011841967 0.050760187 0.15391034 -0.06467973
000100 b0 5f 19 bd be 82 22 bd 65 4d f9 3d 93 9f 87 bd
       -0.03744477 -0.039675467 0.12172965 -0.06622233
000110 64 ff b5 3c 54 cd f3 3d 94 24 56 be fd 90 4d 3e
       0.022216506 0.119043976 -0.20912391 0.2007484
000120 ea 35 8d bc 80 42 f8 3d a7 ba bc 3d a7 6c 3a 3e
       -0.017237622 0.12122059 0.092152886 0.1820551
000130 62 89 fa 3c 25 87 af 3b 18 f6 9c bd ec e7 b3 bc
       0.030583087 0.0053566867 -0.07664126 -0.021961175
000140 ef 24 49 3e 99 0b ce bd f2 18 89 bd 35 76 01 be
       0.19642995 -0.10060806 -0.06694211 -0.12642749
000150 e6 58 c7 bc a4 b3 8f 3d e9 95 9d 3e da 44 55 bd
       -0.024334382 0.070166856 0.30778435 -0.052067615
000160 7f f0 00 3d be de e9 3d 26 48 2f bd 29 55 71 bd
       0.031479355 0.11419438 -0.042793415 -0.058919106
000170 3c e3 2f bd f0 ac 02 bc c0 e7 18 be 2d 8d f4 3d
       -0.042941317 -0.007975802 -0.14932156 0.1194099
000180 22 23 d9 3d 95 8b aa bd 35 18 c6 3d 05 74 d2 3d
       0.10602404 -0.083274044 0.09672586 0.10276035
000190 9f 33 ee 3d 4c 85 c7 3c eb b3 47 bd 55 b2 46 be
       0.1163094 0.024355553 -0.048755568 -0.19403966
0001a0 34 f1 93 be 9c 21 7e 3d e5 93 24 bd 83 e0 1f be
       -0.2889496 0.06204377 -0.040180106 -0.15612988
0001b0 ef 55 0a be a5 93 65 be 9b 9a ba bb 10 f3 98 bd
       -0.13509344 -0.22419603 -0.0056947 -0.074682355
0001c0 fe 57 0b be a7 52 a3 be e4 b7 35 bd bd b9 2a bd
       -0.13607785 -0.31898996 -0.044364825 -0.04168104
0001d0 8b 38 bf 3d 18 58 84 be a7 47 09 be 5f 1c 32 3d
       0.093369566 -0.2584846 -0.1340624 0.043484088
0001e0 55 78 48 3e e7 13 0b 3e b6 1b 08 3e d3 ce bb 3d
       0.19577153 0.13581811 0.13291821 0.09170308
0001f0 64 60 2b 3e b8 b8 0f 3e 74 ff 09 3d 99 4d 43 3d
       0.16735989 0.14035308 0.033690885 0.047681425
000200 f8 83 df bd a4 1e b3 bd 29 a9 cc 3d 8f fb 8a 3e
       -0.10913843 -0.087460786 0.09993202 0.2714505
000210 64 66 20 3d 63 8d 06 be cb b7 b7 bd c3 b4 23 bd
       0.039160147 -0.13139872 -0.089706026 -0.03996731
000220 ed b6 4a bc 3b 94 04 be 5c 91 8e bd 99 56 2d be
       -0.0123727145 -0.1294717 -0.06961319 -0.16927566
000230 18 51 4a be 94 08 d4 3c ac cc 90 39 22 53 c5 3d
       -0.19757497 0.025882997 0.00027618313 0.09634997
000240 35 94 00 3e 97 f1 89 3c 1a c6 64 3d 6b c5 91 bb
       0.12556536 0.016838832 0.055852987 -0.004448583
000250 67 e7 d5 3d 31 84 3d 3c 6f 9d ac 3d 02 ce 03 3e
       0.10444527 0.011567161 0.084284656 0.12871554
000260 44 b7 d6 bd 48 2f a1 bd 45 ab 8d 3d 7d ff 9f 3d
       -0.10484174 -0.07870346 0.06917433 0.078124024
000270 0d 04 1a be 14 ba b6 bd 4b 05 c8 bc 96 b8 5d 3e
       -0.15040608 -0.0892221 -0.024416586 0.21652445
000280 97 0e f0 bd 35 c2 b9 bd a9 53 10 be 4b 62 a9 3d
       -0.11721533 -0.09070245 -0.14094414 0.08270701
000290 5b 9b 52 3e eb d9 e0 3d 4d 5b 8f be a2 93 b1 3d
       0.20567076 0.109790646 -0.27999344 0.08670737
0002a0 cf 1f 7d ba 49 b6 14 3e 09 37 86 3c 9f ca bc bd
       -0.0009655924 0.14522661 0.016383665 -0.092183344
0002b0 55 99 f7 bd e3 92 42 bd 32 94 b5 3d 6c a8 11 bd
       -0.12089793 -0.047503363 0.08866157 -0.03556101
0002c0 b2 29 c1 bd 3c af 24 be 49 5b 3e be c2 99 15 bd
       -0.09431781 -0.16082472 -0.1858951 -0.036523588
0002d0 57 d6 c3 bd 47 48 0f bc 27 83 03 be b6 26 49 3d
       -0.095623665 -0.00874526 -0.12843 0.049109183
0002e0 37 1e 51 3c e3 d1 a3 3d 70 d6 e2 3d 9e 50 12 be
       0.012763551 0.07999017 0.11076057 -0.14288566
0002f0 d7 c6 8d 3d 3e a0 ee bd 82 ab 54 3d 79 fc 29 3d
       0.06922691 -0.116516575 0.051921375 0.041500542
000300 cc 71 87 3d b1 4d 14 3e b7 59 ee 3d 87 44 bd 3d
       0.06613502 0.14482762 0.116382055 0.09241586
000310 7b 8b 08 3e 1d 41 ca bd f7 04 88 3d b3 a8 a6 3c
       0.13334458 -0.098757006 0.06641572 0.020344114
000320 75 f9 6e 3d e8 e4 54 bd b7 f1 13 be ed 6c 1d be
       0.05834337 -0.051976115 -0.14447676 -0.15373583
000330 a4 e2 32 bd 29 de e5 3d 19 15 95 3e 4d 81 ae 3d
       -0.043673173 0.11224014 0.2911766 0.08520756
000340 a3 25 4d be d3 0e d3 bc 86 36 e0 3d d3 18 1b 3e
       -0.20033889 -0.025763905 0.109478995 0.15146188
000350 a4 eb f2 3c d9 5c d9 bd f8 a4 63 3e 24 54 5a 3d
       0.029653378 -0.106134124 0.222309 0.0533029
000360 c6 49 37 3e d4 9d 82 bd b5 b8 83 bd 40 c5 0c be
       0.17899236 -0.063777596 -0.064317144 -0.1374712
000370 7f 42 8c bd 73 90 d7 bd bb b1 31 3e 72 2f 7b bd
       -0.068486206 -0.105255984 0.17352955 -0.061324544
000380 c2 9a 13 be 61 7d 5f bc 48 b5 c5 3c 37 3c 38 3d
       -0.14414504 -0.0136407325 0.024134293 0.0449793
000390 e1 96 cd 3d a0 69 24 3e 05 69 1c be d8 dd d9 3d
       0.100385435 0.16055918 -0.15274437 0.106380165
0003a0 7d 5a 16 bd 7a 76 98 bd 16 87 73 3b 1a 4e 12 bd
       -0.03670739 -0.074444726 0.0037159375 -0.035719015
0003b0 e4 17 b1 bc 77 4e 33 3d 70 75 8e 3d c7 e6 9a bd
       -0.021617837 0.043776 0.06955993 -0.075635485
0003c0 2d 7e 66 be d6 2f 8d 3d bc 31 3c bc d5 03 8c bd
       -0.2250907 0.068938896 -0.011486467 -0.068366684
0003d0 e2 b7 8b 3e b9 d5 e2 bd 27 a5 c4 bd 40 57 79 be
       0.2728873 -0.110759206 -0.09601813 -0.2434969
0003e0 30 2a 8a 3d c5 ec a5 3c d4 ef f9 3d b4 7c b3 bd
       0.06746328 0.020254502 0.12203947 -0.087640196
0003f0 00 98 2f 3c 4e c1 8a bd 80 d7 84 3d 56 b1 09 bc
       0.010717392 -0.06775151 0.06486416 -0.008404097

b1 f4 [16]
000000 50 93 46 3d 96 6b 09 3e 1b d6 9c bc 76 ee 95 3d
       0.048480332 0.13419947 -0.019145062 0.073208734
000010 83 98 5d bd 2b 3f 91 bc 46 9b ec bc bf 98 15 3e
       -0.054100525 -0.017730316 -0.028882634 0.1460905
000020 ab 96 45 3e 5d 59 28 bc ea b8 77 3b 5d 65 1a 3d
       0.19295757 -0.010275212 0.0037799426 0.037694324
000030 62 ff 5e 3d 92 5f bb 3c 38 8e fa 3d 61 f4 bb 3d
       0.05444277 0.02287272 0.12234157 0.09177471

W2 f4 [28, 16, 5, 5]
000000 2e 2f ae 3d 8c 65 86 be c0 f6 55 be 62 2c 83 3d
       0.085050926 -0.2624935 -0.20894909 0.0640495
000010 9b 4c c6 bd 13 f9 96 be 19 fd 3f bd 90 c3 e0 bb
       -0.0968258 -0.29486904 -0.046872232 -0.0068592504
000020 02 3d aa bd 4e 5d 79 bd cb da 10 3d ea b6 83 bd
       -0.083124176 -0.060879998 0.035364907 -0.064313725
000030 d7 f5 dd bd e5 ae 94 bd 9a 3d e1 bd b2 f4 ee bb
       -0.10837906 -0.07259921 -0.10998078 -0.0072923535
000040 4e 19 ab 39 99 d4 ad bd 0f 8b 57 3e d7 2d 00 be
       0.00032634515 -0.084878154 0.2104914 -0.12517487
000050 d0 42 cd bc 34 4b 31 be e3 4e be bd a0 fe 11 be
       -0.025056273 -0.17313844 -0.0929239 -0.14257288
000060 9e 8a 07 be 37 77 81 3d 09 1b 01 3d 1c 5b f1 3d
       -0.13236472 0.063215666 0.031519923 0.11784956
000070 6f 90 d2 bd e6 44 35 bc 82 c7 81 3b e6 08 d3 bd
       -0.10281455 -0.01106379 0.0039605508 -0.103044316
000080 c6 b3 1f 3e 60 8f 14 3e ed 3c b7 3d 0f cc ba bd
       0.15595922 0.14507818 0.089471675 -0.09120952
000090 46 65 07 3d d5 56 0f bb 7f 9b 90 3a 33 ac e1 3d
       0.033055566 -0.0021871824 0.001103267 0.110191725
0000a0 4a 2a 89 bd 31 83 a8 3a 73 88 30 3d bd 41 27 bc
       -0.06697519 0.0012856481 0.043098878 -0.010208544
0000b0 83 fb 09 3d 19 95 01 be 1f dc 3d 3e 49 b6 87 3e
       0.033687126 -0.12654532 0.18541001 0.2650626
0000c0 a5 cc c7 3c 03 eb 83 bc 3d b0 44 bd 19 00 67 3d
       0.024389574 -0.016103273 -0.048019636 0.056396578
0000d0 45 40 d4 3c 54 38 04 3b f2 2b 9f bd cf 81 d6 3c
       0.025909552 0.0020175176 -0.07772054 0.026184944
0000e0 d1 c5 fc bc 9c 53 3e 3e db b0 63 3b 35 6e 2d bd
       -0.030856045 0.18586582 0.0034742865 -0.04234143
0000f0 05 ac 0a 3e 5b 79 24 be 29 a5 e1 bc ef 9d c9 bc
       0.13542183 -0.16061918 -0.027544575 -0.024611441
000100 20 e2 33 be 39 47 32 3e 9e 67 89 3c 15 d4 db 3d
       -0.17566729 0.17409982 0.016773041 0.10733811
000110 29 60 2b 3b 37 5b e1 3c 25 68 21 be 46 14 b0 bd
       0.0026149845 0.027509315 -0.15762384 -0.08597617
000120 d4 66 58 bd ea 1c 47 3c 6a 9b f5 3d 2d 25 73 3b
       -0.05283244 0.01215289 0.119925335 0.0037101016
000130 e3 4b 8a 3d 34 e7 bb 3c c3 85 7a 3e 5a ae 32 bd
       0.067527555 0.022937395 0.24465089 -0.043623306
000140 69 09 76 bd 9a b6 68 3d fb 28 e9 3d 53 45 d0 3d
       -0.060067568 0.056814767 0.113847695 0.101694725
000150 45 5e 6f 3d 3f 57 16 bd e4 b9 b6 bd e2 f5 cb 3c
       0.05843951 -0.036704298 -0.089221746 0.02489752
000160 eb 2d 41 bd a8 f6 81 3d 23 39 ad bd 83 b1 cb 3d
       -0.04716293 0.06345874 -0.084581636 0.09945967
000170 82 ab c2 3b bf 30 28 3d c1 53 30 bc 56 06 a4 bc
       0.0059408555 0.041062113 -0.010762156 -0.020022552
000180 59 04 23 bd 91 48 6b 3e 5e 90 63 be da 5d 4d 3d
       -0.039799068 0.229769 -0.2222304 0.050138332
000190 f8 0a 09 bd a8 22 3b 3c c9 fc 8a bd 43 1c cb 3d
       -0.033457726 0.011421837 -0.06786496 0.099175
0001a0 05 27 2a 3e 18 74 c0 3d 94 63 86 bd f7 31 1b be
       0.16616447 0.09397143 -0.06561962 -0.15155779
0001b0 6c db 6d be e4 07 45 3e 66 29 51 3e 1f c8 87 bd
       -0.23228234 0.19241291 0.20425949 -0.06629967
0001c0 3e 03 92 bd 64 1d 69 3c 6b ea 11 3d 0f e5 3f 3d
       -0.07129525 0.014228199 0.03562395 0.046849307
0001d0 de 02 a9 3c 1b e5 9a 3d 67 93 84 be fe 81 b8 bd
       0.02063125 0.0756323 -0.2589371 -0.09009169
0001e0 5f 4e 7a be 5f ca 03 3e f8 ce 96 3d 23 de e1 bd
       -0.24443959 0.12870167 0.07363695 -0.11028697
0001f0 00 1d 66 be 5b 49 67 3e 7a 9b c8 3d f9 db 8a 3d
       -0.22472 0.22586577 0.0979528 0.06780238
000200 80 47 f8 3d 5d ec 00 3e aa 9c b5 bd dc bd b3 3d
       0.121230125 0.12590165 -0.08867772 0.08776447
000210 46 33 8d bd be 77 8b 3e 4e 90 c1 3c ab dd 53 3c
       -0.06894545 0.27239794 0.02362838 0.012931268
000220 c7 44 13 3e 7c ca 11 be 90 3b b0 bd 70 e0 52 bd
       0.14381705 -0.14237398 -0.08605111 -0.05148357
000230 c0 ab 09 bd 26 a9 64 bd 5e cf cf bd f3 16 a1 bd
       -0.03361106 -0.055825375 -0.10146974 -0.07865705
000240 ac 84 46 be 31 ef 79 3d 99 9e 5d bd 0c 21 a3 bd
       -0.19386548 0.061019126 -0.05410633 -0.079652876
000250 6c c0 d6 bd 88 60 30 bd 77 c6 42 3d 73 1e 5b bc
       -0.1048592 -0.04306081 0.047552552 -0.013373959
000260 b5 8e e0 bd d4 1c 29 be fa 0c 14 bd 99 aa 86 bb
       -0.10964719 -0.16514903 -0.036145188 -0.0041096923
000270 87 d1 e4 3d 1f d5 99 bd fc 16 25 bc 51 48 1f 3d
       0.11172777 -0.07511353 -0.010076281 0.038887326
000280 6c 50 2b bd 46 e8 63 3e a7 99 8b 3d 3b 9f d3 3d
       -0.041824743 0.22256574 0.06816416 0.10333105
000290 22 04 01 3e 39 6c 94 bd 81 92 29 3d ef 60 19 3d
       0.12599233 -0.07247204 0.041399483 0.03744596
0002a0 b6 cf 0a 3d 1c 8e 8d 3d c3 00 53 3d dc d4 9e bd
       0.033889495 0.06911871 0.0515144 -0.077554435
0002b0 4d 57 c0 b9 2e e8 09 bd 47 19 7a 3d 52 22 05 be
       -0.00036686138 -0.03366869 0.061059263 -0.13001373
0002c0 cd fc 41 bd ec fb 45 3d 5e 8d f9 3c 3a a1 71 3d
       -0.04736023 0.048335955 0.030462917 0.05899165
0002d0 02 dc 6a bd 73 1b e2 be 83 cb 44 be 6a 70 00 3e
       -0.057338722 -0.44161567 -0.19218259 0.12542883
0002e0 27 4d af 3c 2b 73 cb bd 9f d1 cc bc 44 e0 03 be
       0.021399094 -0.09934076 -0.025002299 -0.1287852
0002f0 35 ab a4 bd ec 58 68 bd f7 3d 84 bc 91 65 2b be
       -0.08040468 -0.056725428 -0.016142828 -0.16737963
000300 a0 b8 ea 3c 4a fb b1 bd 9e 99 2c be 45 e9 38 bc
       0.02865249 -0.08690508 -0.16855475 -0.011286085
000310 77 ae ce 3d 13 05 72 3d b4 19 62 3d 2b 0d 00 be
       0.1009187 0.05908687 0.055200294 -0.12505023
000320 a2 89 35 bd 32 1d e6 3d 49 fc 5f 3e 35 01 06 3e
       -0.04432071 0.11236037 0.21873583 0.13086398
000330 cc d0 96 bd bc 16 04 be ff a3 b4 bd d0 15 46 bc
       -0.073640436 -0.12899297 -0.08820342 -0.012090161
000340 5b c1 c7 bc bd 1c 79 3e f8 64 2e be a7 d5 68 3d
       -0.024384191 0.24327369 -0.17030704 0.05684438
000350 f7 f1 10 be b9 8b 67 bd f5 51 f9 3d 15 d2 a9 bd
       -0.14154802 -0.056529734 0.12173835 -0.08292023
000360 4f d1 9d bd e7 e3 66 3d 9f ed 8c bc 82 14 b6 bc
       -0.07705938 0.05636969 -0.01720315 -0.022226576
000370 dd 00 ee 3d d5 75 a9 bc 1f 94 3c bd d8 b7 67 bd
       0.116212584 -0.02068607 -0.046039697 -0.05657181
000380 86 3a 99 bd 23 c8 3c 3d 03 22 5b bd 39 28 57 be
       -0.074818656 0.046089303 -0.053499233 -0.21011437
000390 78 df 8c 3d db 9f a3 bd 76 66 c3 3d 61 e5 8e bb
       0.06878561 -0.079894744 0.09541027 -0.00436084
0003a0 17 6d 97 3d ee 60 16 3e e4 cb ca 3c e4 95 51 3d
       0.07393854 0.14685413 0.024755426 0.051168337
0003b0 03 fd 00 3d 8f a7 c9 3e 12 a3 cd bc 86 02 34 3a
       0.03149129 0.3938565 -0.025102172 0.0006866831
0003c0 f5 5c 7e 3d 63 f5 9c bc c2 17 c9 3d e9 6f 24 be
       0.06210037 -0.019159978 0.098189846 -0.16058315
0003d0 32 b3 ee 3d e8 3a 35 bd 85 23 03 3e 44 4b 52 bd
       0.116552725 -0.04424563 0.12806518 -0.05134131
0003e0 4d fa 1b bd fd c8 98 bd cc b7 0a 3e 01 15 9e 3d
       -0.038080502 -0.074602105 0.13546675 0.0771885
0003f0 04 db 97 bd 2a 5b c8 3b 22 6e 21 3d 43 6a cf bd
       -0.07414821 0.006114383 0.03941167 -0.1012769

b2 f4 [28]
000000 66 18 ae 3d 1c fc 3f 3e eb f9 59 3d e5 cc 9f 3d
       0.085007474 0.18748516 0.053216856 0.078027524
000010 f4 63 a5 3d f5 3c eb 3d 7e d1 6b 3d 6e 26 b2 3d
       0.08075705 0.11486236 0.057572834 0.08698736
000020 0b 44 c5 3d ab e1 a4 3d 47 87 0f 3e 3f 61 b4 3d
       0.09632119 0.08050855 0.14016448 0.08807611
000030 3c f0 9f 3d 40 81 8f 3d ac 9f 27 3c 2c 4c 54 3e
       0.07809493 0.07007074 0.01023094 0.20732182
000040 d2 34 c2 3d 66 63 da 3d e7 0c 6d 3d 02 3a b0 3d
       0.09482731 0.1066349 0.057873633 0.08604814
000050 16 be ff 3c 02 de 25 3d 6d f8 9e 3d 81 e9 04 3d
       0.03121857 0.040494926 0.07762227 0.03244925
000060 dd 07 a9 3d db 84 d7 3d dd c8 a9 3d 4d 8a d7 3d
       0.08253453 0.10523387 0.08290265 0.10524426

W3 f4 [40, 28, 4, 4]
000000 54 7a 2f bc 9a 1b 11 be 17 4f 76 be 40 07 aa 3d
       -0.010710318 -0.14170685 -0.24053608 0.08302164
000010 84 ef 89 3d 3b f9 2d bd a7 73 88 bd 7a 63 df 3d
       0.06735137 -0.042474013 -0.06662684 0.109076455
000020 7f c0 f8 3d d3 bf e2 bd 94 1c cc 3d 3a ed c8 3d
       0.12146091 -0.11071744 0.09966388 0.098108724
000030 d2 1b 84 3d 2e be 77 3d 91 ac d8 3c d4 26 ac bd
       0.06450619 0.060484104 0.026449474 -0.084058434
000040 89 31 27 be e1 e9 e9 3d a0 c6 29 be ab 75 aa bd
       -0.1632749 0.11421562 -0.16579676 -0.08323225
000050 f8 8c 7e 3c b8 5e 33 be 4f 62 37 3d 3c 05 10 bc
       0.015536539 -0.17516601 0.04477149 -0.0087903105
000060 75 c3 0f be 48 ed 06 3e ea bc 19 bd c2 00 91 3d
       -0.14039405 0.13176453 -0.037533678 0.07080223
000070 81 34 6b 3d eb e9 e4 bd b5 57 30 3b d3 ff 21 3e
       0.05742312 -0.11177429 0.0026907746 0.15820245
000080 a5 fd bd 3d 9f de 63 bd 4b 75 f3 3c fe f1 57 bb
       0.092768945 -0.05563223 0.029719016 -0.0032950635
000090 97 b1 d0 bc 8f 62 0b be e2 e7 a7 bd af 0b 34 3d
       -0.025475306 -0.13611816 -0.08198525 0.043956455
0000a0 a8 e4 67 be 7f 88 10 be 11 f7 c8 bc f8 9f d4 3c
       -0.22645819 -0.14114569 -0.024531873 0.025955185
0000b0 2c 6a 13 be b8 1f 4b 3d 54 63 83 3e c9 ce 21 ba
       -0.1439597 0.049590796 0.2566172 -0.0006172476
0000c0 bb 58 63 3e f7 2f 58 bd 18 0e 21 be 20 91 34 3e
       0.22201817 -0.052780118 -0.15728033 0.17633486
0000d0 3a 81 8f bd b9 09 d3 3c ea 0d 10 be 0b 13 6a bb
       -0.0700707 0.025761472 -0.14067808 -0.0035716917
0000e0 cf 19 ba 3c 80 da ad 3d 9f 00 38 bd 8d bc 43 3d
       0.022717385 0.08488941 -0.044922467 0.047787238
0000f0 4f 9c 46 bd 69 00 a5 3d 26 ea 0d 3d 8c fe 8f bd
       -0.04848891 0.08056719 0.03464713 -0.07030973
000100 1c 16 e7 3c 19 c2 1e be 92 a1 43 3b 23 af 56 3d
       0.028208785 -0.1550373 0.0029850942 0.052413117
000110 46 9a bf bd 9a 4b cc 3d d2 ab 40 3c 4b c5 50 bd
       -0.09355597 0.09975357 0.011759715 -0.050969403
000120 34 97 ad bc 29 29 03 3e 7a 5b d5 bd 1d 84 40 be
       -0.021190263 0.1280867 -0.104178384 -0.18800397
000130 6e 78 7f 3c 0d a4 19 3d 0d ce 52 bd e4 bd ff bd
       0.0155926775 0.037509967 -0.051466037 -0.12487391
000140 a0 f3 09 be d1 12 91 be 86 36 2e be e3 e9 37 3e
       -0.13471842 -0.28334668 -0.17012987 0.17960314
000150 99 53 be bd a5 87 d5 3b b9 0e 58 be 76 3a 50 3d
       -0.09293289 0.006516414 -0.21099366 0.050837003
000160 6d da 49 3d f0 2b 70 3c 3b 0f 4d bc 5f 5b 99 3b
       0.049280573 0.014658913 -0.012515838 0.0046800817
000170 be 99 c1 bd 7d 0b 30 3d e8 cf 24 be a4 8e ae 3d
       -0.09453152 0.042979706 -0.16094935 0.085233
000180 15 b2 da 3d 55 f5 4d 3c c4 88 b3 3e 01 2e e7 bd
       0.10678498 0.012570699 0.3506528 -0.112880714
000190 eb 38 52 3e 18 08 83 bc fb fe 0b be 8c bd 11 be
       0.20529525 -0.01599507 -0.13671486 -0.14232463
0001a0 65 d5 6c 3d 46 59 5e 3b 3c 6f 37 3d 78 5f 4b 3c
       0.057820696 0.0033927723 0.044783816 0.012412898
0001b0 2b be 19 bb ab 3b 4c 3d 80 03 14 3d 7d 5d d5 bc
       -0.0023459296 0.04986159 0.03613615 -0.026045555
0001c0 ad 84 48 be d6 61 78 3a 15 48 77 bb 91 a2 05 3d
       -0.19581862 0.0009475028 -0.0037732173 0.03262574
0001d0 e2 0d a9 bd 16 00 f1 bd 23 a2 07 bd 13 80 91 bd
       -0.08254601 -0.117675945 -0.03311361 -0.07104506
0001e0 fd 0f 5e 3d 36 d4 86 3e ef ec 4f 3d 3a 6f 1e bc
       0.054214466 0.2633378 0.050763067 -0.009670073
0001f0 bc 33 2b be ee 8a 13 3c 60 f5 45 bd 9b 39 63 3c
       -0.16718954 0.009005291 -0.04832971 0.013868715
000200 25 bd 62 bd 6d 77 06 3d c4 fb de 3d 6b c5 85 3d
       -0.055356164 0.032828737 0.10887864 0.06531795
000210 c8 68 0e bd b6 f9 71 bc 52 a3 a2 3d ee 00 f9 3b
       -0.034767896 -0.014769008 0.07941307 0.007598988
000220 62 26 a9 bd d5 8f 2d be 00 c3 4d bd ab 66 83 bc
       -0.08259274 -0.16949399 -0.050234795 -0.016040167
000230 36 32 72 3c 5b 04 81 bc c0 20 af 3b a0 63 0d bd
       0.014782479 -0.015749147 0.0053444803 -0.034518838
000240 99 1e 3a be c1 c6 98 bd 78 b6 af 39 df c6 68 3e
       -0.18175735 -0.07459784 0.0003351455 0.22732113
000250 61 6c ff 3c 74 0f ef bd 62 ec dd bd 07 f0 18 be
       0.031179609 -0.11672869 -0.10836102 -0.14935313
000260 a2 97 65 bd ed b1 81 3d 35 8d 5c 3d 33 1f 1f be
       -0.05605281 0.06332765 0.053845603 -0.15539245
000270 eb 17 30 3e 76 87 65 3d 3d 9c 64 3e 3d 3a b3 bd
       0.17196624 0.05603739 0.22325225 -0.087513424
000280 44 83 4c be d0 47 2e 3c 0f 94 95 3d ea 55 76 bd
       -0.19971949 0.010637239 0.073036306 -0.060140528
000290 ed 67 36 bc d6 5f 40 bd 39 68 c2 bd 4d e6 57 bc
       -0.011133176 -0.046966396 -0.09492535 -0.013177467
0002a0 67 d9 36 3d 51 d9 87 3d 01 47 42 3d e6 86 54 3e
       0.044640925 0.06633247 0.047430996 0.20754585
0002b0 ed ae 52 3d f6 df 99 3d 9f f6 36 bd 88 00 29 3e
       0.051436353 0.0751342 -0.04466879 0.16504109
0002c0 91 ca 7d bd da 3f 87 bd 45 14 fc bd f0 d8 3b 3e
       -0.06196076 -0.066039756 -0.123085536 0.18344474
0002d0 db 02 d4 bd a0 ba 39 be 68 0d 14 bd 0f 23 ff bc
       -0.10352107 -0.18137598 -0.036145598 -0.031144647
0002e0 69 a1 87 bd 0e eb 53 bd 27 18 9f bd 7b da e9 bd
       -0.066225834 -0.051737837 -0.077682786 -0.11418625
0002f0 d3 0f 9e bc 5a b9 a9 3c ff 99 6e bc 08 22 fe 3d
       -0.019294655 0.020718265 -0.014563083 0.12408835
000300 c0 95 b4 39 28 f2 32 be ec aa 44 3b ae bb 07 bd
       0.00034443848 -0.17475188 0.0030009104 -0.03313797
000310 fb 12 bb bc 41 74 34 3e 81 52 74 bc 67 ab 25 3d
       -0.022836199 0.17622472 -0.014912249 0.040446665
000320 8e b1 84 bd 64 36 d7 3d b1 32 6b be 07 fc 00 bc
       -0.06479178 0.10508421 -0.22968556 -0.007872588
000330 17 b0 36 3e 0c df 84 3d 4a 63 83 3d 85 29 9f 3d
       0.1784061 0.06487855 0.06415422 0.07771591
000340 2b 40 a3 bd 7f 8e 38 be 87 9d eb bb 00 46 73 be
       -0.079712234 -0.18023108 -0.0071904096 -0.23757172
000350 9e 5d 53 3e 57 5d 74 3d 7f d1 44 3e 03 7d 5f 3d
       0.20641181 0.05965933 0.19220541 0.05456258
000360 89 57 e9 3c 18 44 d8 bd 27 d5 10 3d 4e cb c5 3d
       0.028484123 -0.10559863 0.035359528 0.09657918
000370 72 1a 7a 3d 58 ab 70 bd ae c6 fe 3d 91 e4 2c 3c
       0.061060376 -0.058757156 0.12440239 0.010552541
000380 92 6d 9f bc c7 94 ea 3c dc a0 9c bd a0 d9 bd bd
       -0.019461427 0.028635396 -0.07647869 -0.09270024
000390 3d 8d 8c bc 02 e7 64 3b de 47 a5 bd fc 60 af bd
       -0.017157191 0.003492773 -0.08070348 -0.0856342
0003a0 6e f2 25 bd 0c b9 52 3c c6 16 b5 bd dc c5 99 bd
       -0.040514402 0.012861501 -0.08842234 -0.07508442
0003b0 16 eb 38 bd fe b8 f5 bd 1f 3f e2 bd 09 7e 67 bd
       -0.04514607 -0.11998175 -0.11047196 -0.05651668
0003c0 56 0d 7f bd 82 e5 97 3b 07 cd 11 be 9a a5 27 be
       -0.062268578 0.0046355138 -0.14238368 -0.16371766
0003d0 7f 6b 9e be ba 1f 35 be a2 e6 71 bd 40 d2 b0 ba
       -0.30941388 -0.17687884 -0.05905784 -0.0013490394
0003e0 2f 4c a4 bb 1a 62 cb 3c 28 8f 16 be 41 9e a5 bd
       -0.0050139646 0.024827052 -0.14703047 -0.08086825
0003f0 ff 48 8d bd 1c 17 9b 3d 69 85 a5 bd 68 c9 4e be
       -0.068986885 0.07572767 -0.080820866 -0.20194018

b3 f4 [40]
000000 99 1e 09 3d e3 de 8c 3d f1 40 f5 3d 49 cd 4c 3d
       0.033476446 0.0687845 0.11975277 0.050000463
000010 e4 db a6 3d da 79 f8 3d bf 9f 44 3d 81 ec 11 3e
       0.081474096 0.12132616 0.04800391 0.14250375
000020 d8 56 7c 3c ad 0a 49 3d ba 55 19 3b b2 db 78 3d
       0.015401565 0.049082447 0.0023397044 0.060756393
000030 b0 6a 9f 3e e2 4e 6e 3c bc cf 0f 3e 51 34 6e 3c
       0.31136084 0.014545174 0.14044088 0.01453884
000040 a4 d5 08 3e 34 63 94 3d 37 80 97 3d 57 11 25 3e
       0.13362747 0.07245484 0.07397502 0.16119896
000050 10 c5 4b 3d be 22 a2 3d f8 97 d8 3c 0b ce 5c 3e
       0.04974848 0.07916783 0.026439652 0.21562974
000060 0a e0 1f 3d cc 4d 98 bd ed d4 5f 3d 05 5e 84 3d
       0.03903202 -0.074367136 0.05464642 0.06463245
000070 98 0c c3 3d 9e 0b d9 3d 4c 0e 9e 3e ab 5b 4d 3d
       0.095238864 0.10597919 0.30870283 0.05013625
000080 78 2f 05 3e 44 52 7a bd 13 bf 75 3e 55 a6 06 bc
       0.13006389 -0.06111361 0.2399867 -0.008218368
000090 08 da 01 3e 8a 20 4b 3d e6 2c 70 3d 4a 6c c9 3d
       0.12680829 0.04959158 0.05863657 0.098351076

W4 f4 [1960, 30]
000000 27 c4 5d 3e 7e bc 10 3e 50 bf db bd af 84 cc 3c
       0.21656857 0.14134404 -0.10729849 0.024965612
000010 86 f6 3e 3e 57 e5 ab bd c7 d5 8c 3d 34 c4 12 bc
       0.18648729 -0.083933525 0.06876712 -0.008957911
000020 79 57 ec 3d fe ef 9b 3c 8b 49 37 bd 67 1b de 3c
       0.115401216 0.019035336 -0.04474787 0.027112676
000030 aa b7 15 bd 8b 07 f7 3d 69 d3 c7 bd d4 b7 9e 3d
       -0.03655211 0.120619856 -0.0975712 0.07749906
000040 4f 25 ad 3d 1f 5a 33 3c e9 ad 6e bc f5 c4 95 3c
       0.08454382 0.0109467795 -0.014567831 0.018282393
000050 c5 96 45 bb 02 0b d8 bd 6d ff 23 3e ca 66 29 bd
       -0.003014968 -0.105489746 0.16015406 -0.041357793
000060 34 ca 18 3d 33 e0 bf bd 62 ad 73 be 44 f9 f9 bc
       0.03730221 -0.093689345 -0.23796609 -0.030514367
000070 de 11 d2 bd d8 69 ed 3d 57 4c e4 3d f3 00 1f 3a
       -0.10257314 0.11592454 0.11147373 0.000606551
000080 43 fe 9d bd 39 04 38 3e 81 8c fd 3c cf 7c a1 bd
       -0.07714512 0.17970361 0.030950787 -0.078851335
000090 03 c4 3c 3e 48 e9 10 3d 43 1a 8a bb 92 40 0d 3d
       0.18434148 0.035378724 -0.0042145564 0.034485407
0000a0 db 57 3a 3e 8a 51 3f 3d 57 a5 17 3e 9c 85 0f be
       0.18197577 0.04670862 0.14809166 -0.14015812
0000b0 b7 aa 1c 3d 0a 29 d4 3d ba cd 7b 3d 15 0d c1 3d
       0.038248744 0.1035939 0.061475493 0.09426323
0000c0 cb bb 85 bc a1 68 85 3c 16 ff 93 3c 56 ca fe bd
       -0.016324898 0.016285243 0.01806597 -0.12440936
0000d0 1c 6e ea bc 51 05 a6 3d b8 22 36 3c 19 56 51 be
       -0.028616957 0.08106483 0.011116676 -0.20443
0000e0 de 12 07 3e 6f 72 3d 3e 36 83 1f be c9 d9 0a 3c
       0.13190791 0.18500684 -0.15577397 0.008474776
0000f0 60 47 df bd 04 66 0a be 26 d3 3b be b6 8f 85 bd
       -0.109022856 -0.13515478 -0.18342265 -0.06521551
000100 17 37 7c 3d 50 df ec 3c 6a f1 a7 bb 37 dc 11 bc
       0.061575975 0.028915077 -0.0051252143 -0.008902601
000110 a0 77 50 bd 62 49 62 3e f8 49 5e bd 51 79 79 3e
       -0.050895333 0.22098306 -0.05426976 0.24362685
000120 d4 42 30 3c d8 1a eb bd 4c 74 1d bd 8c e6 ca bd
       0.010758121 -0.114797294 -0.038440987 -0.099072546
000130 44 15 80 bd 7f d4 92 bd 1d 23 da 3c bd 6c e9 bd
       -0.06254056 -0.07169437 0.026628071 -0.11397693
000140 c7 76 b8 3c af 5e 8e 3c 8e 6f 04 3d 52 5d 3b bd
       0.022517575 0.017379133 0.03233295 -0.045743294
000150 ed 9b f5 3d 0f 36 00 bd 04 34 03 bd 5d 28 42 be
       0.11992631 -0.031301554 -0.032032028 -0.1896071
000160 cc 99 a2 bd e7 5b 75 be ee 9c ea bd 63 70 df 3d
       -0.07939491 -0.23960839 -0.11455713 0.10910108
000170 43 18 35 be 61 30 0c be 81 f9 16 be e0 01 1e be
       -0.17685036 -0.1369033 -0.14743616 -0.15430403
000180 d8 2f af bd 04 8f 53 bd 8b 2a 0f be a6 a3 11 3e
       -0.08554047 -0.051650062 -0.13981073 0.14222583
000190 fd f9 fa bd 17 55 24 bc 8c 88 b5 be db 1b 2f bd
       -0.12254713 -0.010030053 -0.3545574 -0.042751174
0001a0 ce 9c c7 3d 04 09 64 bd 15 29 53 3d c0 e7 3e bd
       0.09746705 -0.05567266 0.05155285 -0.046607733
0001b0 d9 cd 6e bd 6a 75 1d be 2a 80 ce bd fc e8 79 3d
       -0.05830178 -0.15376821 -0.10083039 0.061013207
0001c0 6f 84 55 3d 96 31 e8 3d a1 8f a3 3c fe 76 5b bd
       0.05212825 0.11337583 0.019965949 -0.053580277
0001d0 69 55 99 3d 1a 36 d9 3c 50 4c 41 be a2 53 6f 3e
       0.07486994 0.026515055 -0.18876767 0.23371747
0001e0 d6 b8 02 bd df 0c 07 3d 82 03 e6 3d 6a 87 27 3c
       -0.031914555 0.03297126 0.11231138 0.010225156
0001f0 2f 4c af bd 7d 56 05 3d 1a af 8d 3d 7a ac ec bd
       -0.08559453 0.032553185 0.069181636 -0.11556335
000200 1e f9 f4 bc d3 dc ad 3d 99 2c 3d 3d d4 18 e2 bd
       -0.029903945 0.084893845 0.04618511 -0.11039892
000210 af 55 90 bd a4 64 93 bc 0e 2c c4 bc 32 6a e7 bd
       -0.07047593 -0.017992325 -0.023946788 -0.11299552
000220 70 b4 84 bc e1 16 ce bb b9 34 5f 3e af 47 ff bd
       -0.01619932 -0.0062893485 0.21797456 -0.124648444
000230 74 30 39 be 43 31 c5 3c c0 29 88 3d 85 06 14 3e
       -0.1808489 0.024071341 0.06648588 0.14455612
000240 41 2e a1 3d a4 42 27 bd 5e 7c 16 be 01 5f 3a be
       0.0787015 -0.040835038 -0.1469588 -0.18200304
000250 a3 0b be 3d ae 7f 0d bc 58 df 03 bc fe 84 56 be
       0.09279563 -0.008636398 -0.008048855 -0.2094917
000260 ac 02 df bc ac 59 ba 3d 21 b9 1c bd 8a 25 af 3d
       -0.027222954 0.09099135 -0.03826249 0.08552082
000270 74 ed 4d 3e 46 39 e4 bd c9 b3 61 be 00 c0 01 be
       0.20110112 -0.111437365 -0.22041239 -0.12670898
000280 b4 a7 d7 3d d7 7d 0b 3e e8 6d 93 bd 8d a3 10 3d
       0.10530034 0.13622223 -0.07198697 0.035312224
000290 ad 69 28 3e 4a 67 13 3d d6 dc b5 bd 85 18 10 3d
       0.16446562 0.035987176 -0.08880012 0.035179634
0002a0 3b 3f 1c 3c b9 f5 42 bc 84 a3 3d be e9 4f 4e 3d
       0.00953656 -0.011899405 -0.18519408 0.050369177
0002b0 b4 1f b8 3b 36 0c 75 bd cd db 8f bc 5e 39 2a bd
       0.0056190137 -0.0598261 -0.017560864 -0.041558616
0002c0 23 37 15 3c 2d 31 83 bd d0 ba 34 3e 5e 8b 07 3d
       0.009107384 -0.06405864 0.17649388 0.033091895
0002d0 f1 64 eb 3c 95 92 b8 bd 3f b4 06 bd 17 12 a5 bd
       0.028734656 -0.09012333 -0.03288674 -0.08060091
0002e0 d8 94 06 bd 25 7a 4a be 80 e2 ae 3d 09 85 06 be
       -0.032856792 -0.19773157 0.08539295 -0.13136686
0002f0 8d d9 41 3e 16 80 e2 3d 65 7a 28 bc 38 57 65 3d
       0.18930645 0.11059587 -0.010283087 0.05599138
000300 d3 9c af 3c d0 6e f2 3d dc af e8 bd ff d1 9f be
       0.021437084 0.11837542 -0.113616675 -0.31214902
000310 fa 20 aa bd 49 eb ca bd 69 57 86 bd 0e a6 89 bc
       -0.08307071 -0.09908158 -0.06559641 -0.016802814
000320 a5 bd 6d 3c 9d 31 72 bd 19 f2 86 3c ed 62 03 3c
       0.014510547 -0.059129346 0.016472863 0.008019191
000330 ff ea 27 3e cd 5d 88 bd 6b 0c 94 3c ea b7 aa bd
       0.16398238 -0.06658516 0.018072328 -0.0833586
000340 0b d8 ab bd e1 51 1e 3e 56 8c ab 3d d7 1a 03 be
       -0.08390816 0.15460922 0.08376376 -0.12803207
000350 c7 76 2e be e9 50 76 3e b7 8e b1 bb a6 ea d9 bd
       -0.17037497 0.24054302 -0.0054186243 -0.10640459
000360 bb fa 93 bd 28 33 9d bd 29 49 72 3c e8 bc 6d be
       -0.072255574 -0.07675773 0.014787951 -0.23216593
000370 bc 0d ab bc 8a c2 78 be a3 02 e9 bd 79 88 ba bd
       -0.020880572 -0.24292961 -0.11377456 -0.09108061
000380 b3 f4 7d bd 2f 68 50 3e 10 41 64 3d 07 d2 f7 bd
       -0.06200094 0.20352243 0.05572611 -0.121006064
000390 df e4 c7 bc d7 1c ee bb 5e bb 86 bd 17 10 fa 3d
       -0.024401126 -0.0072666216 -0.06578706 0.122101
0003a0 10 19 5a 3d df 04 4a be 9b 6e f6 3c e7 9c cf bd
       0.053246558 -0.1972842 0.030082038 -0.101373486
0003b0 1d 29 57 bd 37 c0 ff bc 89 4b 12 3e a5 1d 61 be
       -0.052529443 -0.031219585 0.14286627 -0.21983965
0003c0 af d8 2d 3e c9 29 05 bc 9c ea 2d be 50 a8 07 bd
       0.1697719 -0.008127638 -0.16984028 -0.0331195
0003d0 d4 06 2d be 1d 23 0e bd 41 a5 9f 3d af 5b e4 bd
       -0.16897136 -0.034701455 0.077951916 -0.111503
0003e0 62 f9 bf bc d4 32 c5 3c 7b 82 f2 3d cc cb 94 3d
       -0.023434345 0.024072088 0.118412934 0.07265434
0003f0 af 96 d5 bd 49 8a 66 3e 63 cb 82 3b 38 03 59 bc
       -0.10429131 0.22513689 0.0039915307 -0.013245396

b4 f4 [30]
000000 a4 51 a8 3d 72 38 8f 3d 98 49 85 3d 81 1a 95 3d
       0.08218697 0.06993188 0.065081775 0.07280446
000010 8e 56 03 3d a6 75 a4 3d 22 d2 52 3d fe 0a 94 3d
       0.032064967 0.08030252 0.05146993 0.07228659
000020 6f 14 1b 3e 31 5a 58 3d 94 3b 08 3e 7b 9f 58 3e
       0.15144514 0.05282039 0.13303977 0.21154587
000030 b2 af 39 3e a2 53 90 3d 1f d5 83 3d 2f 2d 91 3d
       0.18133429 0.07047202 0.06437134 0.07088696
000040 f3 29 97 3d 0e 47 95 3d 23 92 3e 3d 5c c8 9f 3e
       0.07381048 0.07288943 0.046526086 0.3120755
000050 22 14 9a 3d 58 8f a9 3d ea ae 33 3c ac 10 b8 3d
       0.07523371 0.08279294 0.010966996 0.08987555
000060 bc 48 c5 3d 8a ef 9b 3d ef cd fb 3d ab 71 4f 3e
       0.096330136 0.07614048 0.12295138 0.20258205
000070 67 f8 91 3d 71 41 7b 3d
       0.07127457 0.061341707

W5 f4 [30, 4]
000000 a7 39 71 bd d0 e6 a7 bd 35 e5 77 3d 4e 39 49 3e
       -0.058892872 -0.08198321 0.060521323 0.19650766
000010 d3 b7 88 3e 28 ce d9 3d dc 83 55 3c 9f 09 31 3d
       0.26702747 0.10635024 0.013031926 0.043222066
000020 e1 1a 28 3e 43 13 77 bd 6e b4 01 bb 47 a5 3a 3d
       0.16416503 -0.060321104 -0.0019791382 0.045567777
000030 79 2b 91 3d d0 87 0a 3d e3 c1 f1 bd fb 51 ae bd
       0.0708837 0.033820927 -0.11804559 -0.0851173
000040 0e a8 12 3e ff dd 90 3d d2 88 9c 3c 71 1a c8 bd
       0.1432192 0.070735924 0.01910821 -0.09770668
000050 47 a6 f8 3c b6 ab 13 bd d7 8d 04 3e 8b db f6 3d
       0.030352725 -0.03605243 0.12944733 0.12053593
000060 6e 41 d6 3d 46 de 69 3d a8 f7 d1 bd c7 4f 93 3d
       0.104616985 0.057096742 -0.10252315 0.07192951
000070 43 f8 03 bc 6b 45 ef 3d 72 9a 5d 3d 7c 46 58 3e
       -0.008054796 0.11683162 0.05410237 0.21120638
000080 e8 c5 3e be 1e 5b e7 bd 80 14 ad 3d 15 4d d7 bd
       -0.18630183 -0.11296676 0.08451176 -0.10512749
000090 e6 cf 96 3c 85 ce bc 3d 47 6b e9 bd 23 76 fc 3a
       0.01840968 0.09219078 -0.11397415 0.0019261282
0000a0 3e 03 2b be 2e 06 b3 bd 38 c0 3f 3e 41 6b f5 bd
       -0.16700456 -0.08741413 0.1872567 -0.11983348
0000b0 a5 ad 01 bd af a6 87 bc 67 b7 99 bd 35 52 c4 3d
       -0.03165974 -0.016558973 -0.07505684 0.09585992
0000c0 04 d2 69 bd b0 bc 75 bd 81 7c 1d 3e b8 70 2b 3b
       -0.057085052 -0.0599944 0.15379526 0.0026159715
0000d0 37 b6 ef bc a8 a9 eb bc 82 1c 7b be dc 0f f1 bd
       -0.029261691 -0.028767422 -0.24522594 -0.11770603
0000e0 ce ec b2 bb b8 d4 9a 3d 64 65 26 3d 3a a4 00 bc
       -0.005460358 0.07560104 0.040624037 -0.007851655
0000f0 6e 3c 5d be b1 da 5c bd 60 ba 1c 3e d9 cf c4 bd
       -0.21605083 -0.053919498 0.15305471 -0.09609956
000100 e9 bf 06 bd 32 5b 1f be 63 20 7d 3b 0f fd 8d 3d
       -0.032897864 -0.15562132 0.003862404 0.06933033
000110 13 6b 06 3e bf 2e d9 ba 22 be 09 3d 3b bd b5 bc
       0.13126783 -0.0016569718 0.03362859 -0.022184959
000120 d4 f2 c7 3d 40 ec 96 bc 0a d0 3f 3d 46 55 e1 bd
       0.09763113 -0.0184232 0.04682926 -0.11002593
000130 6a 02 a6 bd e7 2e e7 bd 54 ec 14 bd af f4 2d 3d
       -0.08105929 -0.11288243 -0.036358193 0.042469677
000140 38 e3 b8 3d 63 0e 43 3d b6 b8 50 bd 85 0d 2f 3e
       0.090277135 0.047621142 -0.050957404 0.17095001
000150 01 b7 e5 bc ef 39 4b be 4d 01 18 3e d3 8d 2f bd
       -0.028041365 -0.19846319 0.14844246 -0.042859863
000160 73 38 b5 3c 1f 68 01 3e 94 95 82 bd 34 55 b6 bd
       0.022121644 0.12637375 -0.06376186 -0.0890297
000170 d2 21 bc bd 5c a1 2b be d5 bc d4 bd f3 09 45 bd
       -0.09186138 -0.16760772 -0.10387579 -0.04810519
000180 a4 84 c3 3d 04 cc 34 3b 4b c8 ef bd 1e 80 ec bc
       0.095467836 0.0027587423 -0.11708125 -0.028869685
000190 a3 2e 96 bd 91 d7 f1 3c f7 03 2b bd ae eb 9c bd
       -0.07333114 0.029521735 -0.041751828 -0.0766214
0001a0 82 8a 66 bd 39 82 e6 bb 7e b2 19 be 2a b5 b1 bb
       -0.056284435 -0.0070345667 -0.15009496 -0.005423208
0001b0 94 e3 1b 3d 50 c1 c6 3d b2 06 f6 bb 97 f9 3e 3e
       0.038058832 0.0970484 -0.0075081224 0.18649898
0001c0 a8 1a 26 be 0a a6 f9 3c 3f f1 34 3e 4d 71 7e bd
       -0.16221106 0.030474681 0.17670153 -0.06211977
0001d0 2e c4 c1 bb 79 b3 24 be 9a 71 cb 3d 75 59 b3 bc
       -0.005913279 -0.16084088 0.09933777 -0.021893242

b5 f4 [4]
000000 d8 3f 2b 3d ba a2 6b bd 83 fc 6b 3d 45 87 8e 3e
       0.041808933 -0.057528235 0.05761386 0.27837577
