furhatBartender/userPerception/model/cnn4class-strat.pth (torch, 365297 bytes, 10 tensors)

W1 f4 [16, 1, 5, 5]
-0.22645731 -0.16224506 -0.1441891 -0.0051478865 0.048188332 -0.10664901 -0.0850728 0.010736409
-0.026605478 -0.15119801 -0.013247036 0.044267077 0.07341051 -0.106919214 -0.05774863 0.0803619
-0.029410327 0.022079194 -0.031542614 0.13197641 0.1777876 0.10398356 0.12006156 0.019025933
0.28097087 0.0005052449 -0.033429716 -0.15607354 -0.027468052 0.13650955 0.087479234 0.018599523
0.024078498 -0.08640637 -0.09655538 -0.10001137 0.11316037 0.04908672 -0.22923575 0.0041822055
-0.090987794 -0.109876886 0.024481269 0.085089296 -0.07235035 0.06847879 -0.06735869 0.0817974
0.21756653 0.15247954 -0.07557811 0.15531197 0.06745125 0.032643244 -0.055566233 -0.09906117
-0.17306745 -0.03282152 -0.01313027 -0.03880692 0.06786489 -0.043847553 -0.040359113 -0.064365566
0.13008623 -0.03295447 0.10023347 0.0050270427 0.0077044675 0.13297492 -0.0036262716 0.03131206
-0.15498273 -0.059795503 0.1364122 0.045125253 -0.012002517 0.21454433 -0.004290265 0.0049957708
0.17494495 -0.028367111 -0.026524657 0.14514157 -0.05071988 0.019871747 -0.10304719 -0.00093465525
0.009795379 -0.11116861 -0.28227183 0.011181394 -0.0030468986 -0.051252883 0.035750065 -0.14707167
0.16430068 0.029597104 -0.00023654464 -0.07395187 0.05159774 0.041261915 0.039090563 0.09023308
0.08044077 -0.040409293 0.08654063 -0.06816442 -0.06458044 0.08747356 0.14295837 -0.19811195
-0.00815139 0.03303629 -0.101074636 -0.18848945 -0.073690794 -0.16279347 -0.14022005 0.13738056
-0.10813703 -0.066500366 -0.20326316 -0.020745916 -0.15804285 0.039918803 -0.13637124 -0.012709751
-0.15025339 0.010344652 0.073959015 0.05034931 0.10143765 -0.03947189 0.065076545 -0.12788719
-0.0765212 -0.16491269 0.050819386 0.030263284 -0.10905466 0.09936414 -0.15675195 -0.017900787
0.14128472 0.06365715 0.025701476 0.13111298 0.14859672 -0.062466856 0.0026696697 0.04569703
-0.10702732 0.06260044 -0.1611707 -0.007757649 0.08726919 0.026769174 -0.04934919 0.05836201
-0.07465697 -0.0326321 -0.05780674 0.09031786 0.15251125 0.012380832 0.033923164 -0.14715266
-0.14799118 0.027161464 -0.10516973 -0.05653013 0.08024902 -0.019333376 0.07332424 0.18591793
0.038662978 0.19140412 -0.038098674 0.07955519 -0.13612759 0.1532955 0.0851371 -0.044967245
0.06952126 -0.18068285 0.031295646 0.032583036 0.08944145 -0.1045523 -0.15508406 -0.041145347
0.014393612 0.074181065 0.060201712 -0.08586456 -0.04509187 -0.12465913 -0.012098484 -0.19167404
0.1597569 0.08043459 0.22441427 -0.06973033 0.09005379 0.09697511 -0.06616719 0.11436441
-0.002793783 -0.09936183 -0.05139162 -0.072726995 -0.20528412 0.026299587 -0.18444213 0.19230303
0.18024966 -0.2707469 0.0051009892 -0.3189804 -0.123567335 0.053321682 0.13295883 0.2406751
-0.11349443 -0.13374776 -0.05115097 -0.012115522 0.003790433 0.08049383 -0.01331848 -0.13432452
0.058852587 -0.1331014 -0.056773905 0.06480827 -0.031984724 0.0818315 -0.11187818 0.054404654
0.09479762 -0.03074095 0.13062209 -0.020693094 0.19124873 -0.12135182 0.06795233 -0.02029686
-0.07769818 0.0292348 0.033960197 0.0009746598 0.16291001 -0.05759865 0.22623816 0.08726457
00000000: 6de4 67be 9223 26be 4fa6 13be 9aaf a8bb
00000010: 2161 453d cc6a dabd a63a aebd c3e7 2f3c
00000020: bbf3 d9bc a7d3 1abe 190a 59bc 6551 353d
00000030: 4058 963d 76f8 dabd d489 6cbd c894 a43d
00000040: eded f0bc 6ddf b43c d432 01bd d324 073e
00000050: f40d 363e 55f5 d43d d6e2 f53d 46dc 9b3c
00000060: 6adb 8f3e 6972 043a 99ed 08bd bed1 1fbe
00000070: ae04 e1bc 29c9 0b3e 5028 b33d 075e 983c
00000080: 4540 c53c d3f5 b0bd d4be c5bd c3d2 ccbd
00000090: a0c0 e73d 280f 493d c7bc 6abe e20a 893b
000000a0: cf57 babd 2207 e1bd f18c c83c 4c43 ae3d
000000b0: 6c2c 94bd 9c3e 8c3d 5af3 89bd 6585 a73d
000000c0: c3c9 5e3e 9923 1c3e b2c8 9abd 1a0a 1f3e
000000d0: e223 8a3d ecb4 053d 6b99 63bd 95e0 cabd
000000e0: 9838 31be dc6f 06bd 5820 57bc 01f4 1ebd
000000f0: bffc 8a3d 7e99 33bd 994f 25bd 18d2 83bd
00000100: 5335 053e 44fb 06bd 3547 cd3d e4b9 a43b
00000110: c275 fc3b 942a 083e bea6 6dbb 1341 003d
00000120: cbb3 1ebe 21ec 74bd a4af 0b3e 42d5 383d
00000130: 34a6 44bc 82b1 5b3e 5a95 8cbb 90b3 a33b
00000140: c524 333e 2562 e8bc 3d4a d9bc fe9f 143e
00000150: a6bf 4fbd 13ca a23c 680a d3bd a703 75ba
00000160: cc7c 203c 5eac e3bd ef85 90be 2a32 373c
00000170: 7aae 47bb 8bee 51bd a96e 123d f599 16be
00000180: 703e 283e a075 f23c f808 78b9 1474 97bd
00000190: 2758 533d 4102 293d 6d1d 203d 1fcc b83d
000001a0: 21be a43d 3784 25bd 373c b13d ca99 8bbd
000001b0: c042 84bd 5625 b33d ae63 123e dcdd 4abe
000001c0: 688d 05bc 1051 073d 3800 cfbd 6103 41be
000001d0: 33eb 96bd 55b3 26be d895 0fbe 7dad 0c3e
000001e0: f276 ddbd 5831 88bd 3824 50be 57f3 a9bc
000001f0: fcd5 21be e681 233d e7a4 0bbe 8f3c 50bc
00000200: 06dc 19be 9e7c 293c d377 973d 143b 4e3d
00000210: 8bbe cf3d 47ad 21bd da46 853d dcf4 02be
00000220: 26b7 9cbd dfde 28be fd27 503d b5ea f73c
00000230: 0d58 dfbd 6d7f cb3d 9583 20be aca4 92bc
00000240: f1ac 103e ae5e 823d e78b d23c 7b42 063e
00000250: bd29 183e 3fdd 7fbd a0f5 2e3b cf2c 3b3d
00000260: 2431 dbbd a934 803d ef09 25be e033 febb
00000270: 30ba b23d 074b db3c 6022 4abd 010d 6f3d
00000280: c1e5 98bd 3da9 05bd c3c6 6cbd 92f8 b83d
00000290: e92b 1c3e f9d8 4a3c 04f3 0a3d 30af 16be
000002a0: 008b 17be b881 de3c 3a63 d7bd 238c 67bd
000002b0: 9959 a43d 0761 9ebc 052b 963d 4561 3e3e
000002c0: 125d 1e3d 71ff 433e 5b0d 1cbd d5ed a23d
000002d0: 0865 0bbe 7ff9 1c3e 5c5c ae3d 932f 38bd
000002e0: 2a61 8e3d ed04 39be dd2f 003d ca75 053d
000002f0: 142d b73d 841f d6bd 5bce 1ebe 0688 28bd
00000300: 2fd3 6b3c 3eec 973d 1296 763d c2d9 afbd
00000310: 41b2 38bd 494d ffbd b838 46bc 3346 44be
00000320: 5097 233e e4ba a43d dbcc 653e c6ce 8ebd
00000330: 1f6e b83d e39a c63d aa82 87bd e337 ea3d
00000340: e717 37bb 377e cbbd 0580 52bd e4f1 94bd
00000350: 0036 52be 3b72 d73c 66de 3cbe 16eb 443e
00000360: 5e93 383e 569f 8abe 3326 a73b 6651 a3be
00000370: df10 fdbd d667 5a3d 5c26 083e 8973 763e
00000380: c56f e8bd 2cf5 08be ae83 51bd 2f80 46bc
00000390: ea68 783b f3d9 a43d c135 5abc 5e8c 09be
000003a0: 690f 713d bc4b 08be c18b 68bd 33ba 843d
000003b0: 6a02 03bd 4697 a73d 6320 e5bd 6ad7 5e3d
000003c0: 4125 c23d 72d4 fbbc ccc1 053e 9084 a9bc
000003d0: b5d6 433e 4e87 f8bd 972a 8b3d 9a45 a6bc
000003e0: 3920 9fbd d27d ef3c d919 0b3d 5080 7f3a
000003f0: e2d1 263e 90ec 6bbd faaa 673e c4b7 b23d

b1 f4 [16]
0.10214532 0.02105921 0.045583524 0.084709816 -0.023560107 0.042269666 0.02188135 0.05654694
0.036593113 0.034149233 0.12510289 0.04537992 0.049869917 0.050318956 0.117356524 0.13454388
00000000: 9131 d13d 5d84 ac3c cab5 3a3d 577c ad3d
00000010: 2001 c1bc f522 2d3d 8440 b33c c49d 673d
00000020: a9e2 153d 11e0 0b3d f91a 003e 4ce0 393d
00000030: 6644 4c3d 401b 4e3d 9e58 f03d dfc5 093e

W2 f4 [28, 16, 5, 5]
-0.09095829 -0.10356229 -0.25162196 -0.035837248 -0.0036384703 -0.03142383 -0.16957715 -0.1836014
-0.092365034 -0.00033932235 -0.09023086 0.05904255 0.0512688 -0.029121526 0.052896183 -0.036949452
-0.01985153 -0.20502278 -0.08394378 0.05000072 -0.09454989 0.06588862 -0.08399404 0.05421299
-0.16620834 0.0351579 -0.09864318 -0.02094316 -0.061403725 0.019767918 0.042535223 0.09938706
0.04955686 -0.049793866 -0.08733764 -0.044685848 0.12788787 -0.15856133 0.12844948 -0.011235453
-0.0009815245 0.045487963 -0.09306339 0.009110791 0.044086758 -0.03256502 0.003171 0.02494082
0.07951126 0.15645327 0.13151802 -0.015684672 -0.17514758 0.0528852 -0.0030035346 -0.011452376
-0.16740069 0.10793548 -0.01676637 -0.055109803 0.1142654 -0.05721929 -0.10981685 -0.052947965
0.15959102 0.10146122 0.0078953095 -0.15815823 -0.17528391 -0.017793613 -0.19219302 -0.043517526
0.11221272 0.052684415 -0.065952845 -0.084691375 0.04326986 0.024586355 -0.044745836 -0.04548472
0.011426868 0.03901453 0.0010103186 -0.05885552 0.11501355 0.031368386 0.19594023 0.16545695
-0.10815256 0.07529057 -0.17813194 0.09354262 -0.104425915 0.10623916 0.1494203 0.05890404
0.08783201 -0.035776343 0.113244146 0.011255541 0.12418611 -0.015154951 0.19138132 -0.15008727
-0.029000817 0.019793242 0.20544735 -0.045327526 0.049202293 -0.099242754 0.115303844 -0.16224803
-0.019900842 -0.042491455 -0.08773384 -0.03288553 0.036176506 -0.06344643 -0.054355055 -0.08298243
-0.014311104 -0.20437486 0.07762792 -0.065950714 0.039642524 -0.035117846 0.05040977 -0.0054113436
-0.14433207 -0.1717258 0.026770912 -0.16114621 -0.23623243 0.016514055 -0.08543924 0.07332727
-0.048166227 -0.01588923 -0.0847741 -0.011805573 -0.030563956 -0.03762727 -0.076574594 -0.13230102
0.16845536 -0.1538829 -0.04367146 0.013523447 0.11989896 0.03324946 -0.17304368 0.15810168
-0.14631999 0.015078561 0.11019055 0.019235684 0.06221102 0.1504147 0.04968983 -0.044943895
0.07718597 0.07423795 -0.26945603 0.008460221 -0.08687597 -0.032665946 -0.15878974 -0.01915035
-0.22445352 -0.03784564 -0.0463551 -0.03867317 0.08332403 -0.05166564 -0.062439404 0.09820446
0.018997699 -0.042154144 -0.13709928 0.010728572 -0.01710232 0.07201528 -0.056658387 -0.03226916
0.009099702 0.14734781 0.046111632 0.010736592 -0.017964948 0.03190967 -0.2115657 -0.026747169
-0.10345751 -0.16393787 0.09641116 0.07869264 -0.017629003 -0.053871937 -0.089420386 -0.13866629
0.07709575 -0.12873594 -0.008509504 0.048158016 -0.07292745 0.07545637 -0.047183923 -0.05938825
-0.12488567 -0.076493524 -0.047268845 0.18012208 -0.095807865 0.17221102 -0.076400444 -0.17581666
-0.1346606 0.14801507 -0.037497245 -0.07422151 -0.10970228 0.104668975 -0.022484295 -0.07956207
-0.04958215 -0.06462155 0.02033454 -0.15897529 -0.024804784 -0.016640032 -0.0017418202 -0.03763449
-0.075466104 0.053089727 -0.16274033 0.14598659 0.112124175 0.02643941 -0.08220933 0.07657722
0.067068726 -0.09012407 -0.008471708 -0.06589853 0.15885969 0.21537414 0.051705893 -0.06206619
-0.1442337 -0.033499435 0.091826074 -0.028689513 0.0509713 0.10598121 0.12134469 -0.080095634
00000000: 5748 babd 7718 d4bd 98d4 80be 14ca 12bd
00000010: 6773 6ebb 46b6 00bd a2a5 2dbe 0102 3cbe
00000020: e129 bdbd 13e7 b1b9 f5ca b8bd 9ad6 713d
00000030: 3cff 513d 4490 eebc aba9 583d 4f58 17bd
00000040: ad9f a2bc 7ef1 51be b7ea abbd 8ecd 4c3d
00000050: 5fa3 c1bd 9df0 863d 1105 acbd 710e 5e3d
00000060: 8532 2abe bb01 103d 7005 cabd fd90 abbc
00000070: 7982 7bbd 54f0 a13c 6a39 2e3d 718b cb3d
00000080: 22fc 4a3d a7f4 4bbd 14de b2bd 8208 37bd
00000090: 0af5 023e e75d 22be 4388 033e e814 38bc
000000a0: 7fa6 80ba 9651 3a3d 0598 bebd 6d45 153c
000000b0: 5194 343d e662 05bd 8dd0 4f3b b150 cc3c
000000c0: cdd6 a23d 4935 203e a9ac 063e 247d 80bc
000000d0: e359 33be 279e 583d f3d6 44bb bfa2 3bbc
000000e0: 166b 2bbe 470d dd3d a059 89bc d1ba 61bd
000000f0: fa03 ea3d c65e 6abd a8e7 e0bd f7df 58bd
00000100: d46b 233e e6ca cf3d 545b 013c 3bf4 21be
00000110: a07d 33be e9c3 91bc 3fce 44be 6f3f 32bd
00000120: c8cf e53d 9dcb 573d 4912 87bd ac72 adbd
00000130: bd3b 313d 5369 c93c 6947 37bd 304e 3abd
00000140: c237 3b3c b3cd 1f3d ab6c 843a 7c12 71bd
00000150: 398c eb3d 237c 003d 8ea4 483e 8c6d 293e
00000160: 177f ddbd f131 9a3d 3868 36be 4693 bf3d
00000170: 41dd d5bd eb93 d93d a301 193e 5d45 713d
00000180: 45e1 b33d 378a 12bd 8cec e73d 2969 383c
00000190: 4a55 fe3d 794c 78bc 77f9 433e 7ab0 19be
000001a0: 1f93 edbc 7025 a23c ca60 523e 5ba9 39bd
000001b0: 5888 493d c93f cbbd 6c24 ec3d 5924 26be
000001c0: 1707 a3bc 850b 2ebd cdad b3bd fab2 06bd
000001d0: d12d 143d 34f0 81bd 68a3 5ebd b1f2 a9bd
000001e0: 1f79 6abc a547 51be 63fb 9e3d 2b11 87bd
000001f0: 3360 223d bbd7 0fbd 7a7a 4e3d a451 b1bb
00000200: c9cb 13be e3d8 2fbe ac4e db3c 8303 25be
00000210: eae6 71be 7c48 873c c5fa aebd 9c2c 963d
00000220: f349 45bd 212a 82bc 0b9e adbd 296c 41bc
00000230: 4361 fabc 0d1f 1abd 24d3 9cbd eb79 07be
00000240: 907f 2c3e 7b93 1dbe d8e0 32bd 7391 5d3c
00000250: 968d f53d 9630 083d 5d32 31be 68e5 213e
00000260: e8d4 15be 120c 773c 95ab e13d 2794 9d3c
00000270: fcd0 7e3d 5006 1a3e 9087 4b3d 1717 38bd
00000280: ae13 9e3d 110a 983d 24f6 89be bd9c 0a3c
00000290: 07ec b1bd bacc 05bd c799 22be 32e1 9cbc
000002a0: 25d7 65be 0804 1bbd d8de 3dbd c267 1ebd
000002b0: caa5 aa3d 5a9f 53bd 76c0 7fbd 6c1f c93d
000002c0: 10a1 9b3c d3a9 2cbd c163 0cbe e4c6 2f3c
000002d0: 2a1a 8cbc bf7c 933d a012 68bd ab2c 04bd
000002e0: eb16 153c 58e2 163e 8ddf 3c3d 88e8 2f3c
000002f0: 3a2b 93bc b7b3 023d aea4 58be e11c dbbc
00000300: 88e1 d3bd 54df 27be 3773 c53d 9b29 a13d
00000310: b36a 90bc d2a8 5cbd 0922 b7bd 89fe 0dbe
00000320: 60e4 9d3d 5bd3 03be 726b 0bbc 5741 453d
00000330: fd5a 95bd df88 9a3d ee43 41bd 1841 73bd
00000340: 0fc4 ffbd a3a8 9cbd fa9c 41bd ec71 383e
00000350: ea36 c4bd 1658 303e d677 9cbd 4809 34be
00000360: 78e4 09be 4391 173e b696 19bd 7201 98bd
00000370: 97ab e0bd b05c d63d fc30 b8bc 70f1 a2bd
00000380: a716 4bbd 4e58 84bd 9f94 a63c 6bca 22be
00000390: 6733 cbbc ad50 88bc ca4d e4ba 9f26 1abd
000003a0: f98d 9abd 9d74 593d 67a5 26be 827d 153e
000003b0: 5ca1 e53d 7697 d83c 5d5d a8bd 84d4 9c3d
000003c0: 545b 893d f892 b8bd ebcc 0abc cff5 86bd
000003d0: 1dac 223e 0a8b 5c3e 8fc9 533d 1e39 7ebd
000003e0: 00b2 13be b436 09bd 4f0f bc3d 4506 ebbc
000003f0: 48c7 503d ad0c d93d 9183 f83d 2e09 a4bd

b2 f4 [28]
0.081795104 0.1006458 0.055096403 0.06154944 0.076834485 0.1298191 0.0784529 0.07120263
0.08466261 0.1113168 0.032046612 0.12154954 0.07682183 0.06371683 0.13585655 0.040405903
0.07127188 0.054500923 0.084076606 0.07523693 0.13215043 0.08129629 0.09141615 0.10074711
0.060518246 0.081618644 0.09176278 0.09405633
00000000: 3184 a73d 631f ce3d c4ac 613d 441b 7c3d
00000010: 665b 9d3d 4cef 043e eaab a03d afd2 913d
00000020: 9763 ad3d 10fa e33d 4f43 033d f7ee f83d
00000030: c354 9d3d f87d 823d fb1d 0b3e a980 253d
00000040: fef6 913d 5c3c 5f3d 5b30 ac3d d215 9a3d
00000050: 7152 073e ab7e a63d 6438 bb3d 8054 ce3d
00000060: fbe1 773d ad27 a73d 20ee bb3d 9ba0 c03d

W3 f4 [40, 28, 4, 4]
-0.034232546 -0.14621541 -0.060758717 -0.15148662 -0.13744126 -0.06312131 0.027390946 -0.09009085
0.063023664 0.044744615 -0.018455893 -0.17726858 -0.0016490612 -0.09038268 -0.005516268 0.16005613
-0.092836455 -0.08836986 -0.25929993 0.034134597 0.10920536 -0.016653081 -0.01798357 0.03355586
0.10769708 0.025490968 0.036095 -0.09517912 0.021952948 -0.18106925 0.028075477 -0.054497987
-0.026797703 -0.011515705 -0.083770715 -0.020458948 0.007815865 -0.10310377 0.04126488 -0.0077170096
0.19159149 -0.15050545 -0.2701828 -0.0029523592 -0.07906349 -0.29648584 -0.053624097 -0.17713279
0.15595578 -0.041200086 0.10189369 -0.13980667 0.18610133 0.10557284 -0.06552345 -0.13516778
0.023377052 -0.15411846 -0.20121424 0.04613285 -0.032494575 0.009453321 -0.098515354 0.05157844
-0.07376133 0.017046936 0.03209478 -0.017291132 -0.14489645 0.1580189 0.062679365 -0.049186163
0.05912282 0.06318066 -0.048873436 0.13296907 0.054141223 0.19848156 0.08994597 -0.0046205213
0.032639142 -0.05727966 0.07052575 -0.012181346 0.060676783 0.03648391 0.17459226 0.018364571
0.06910649 0.051264737 -0.031254858 -0.08398226 -0.12112938 -0.032358974 -0.14531401 0.025996149
-0.021926347 0.06572331 -0.048724946 0.025728216 -0.23856978 0.07599369 0.039665863 -0.113203906
-0.117036186 -0.0013372432 0.027036592 0.017688712 0.100033745 0.13270038 0.11851656 0.063242815
0.05050473 0.12663285 -0.067896396 0.06566118 -0.17854291 0.104855396 -0.10812594 -0.029311003
-0.083193265 -0.09479755 0.06239766 -0.055158794 -0.00486325 -0.13345619 0.026194975 -0.06785084
-0.097103685 -0.026680693 -0.023174 -0.06668076 0.17593245 -0.11364725 -0.0071760085 0.117754
0.09130419 0.09331012 0.023262963 0.10065474 -0.017446654 -0.09575256 -0.1584863 0.017242767
0.034125738 -0.020536311 -0.13069865 -0.025512524 0.21205215 -0.12745576 0.018567508 -0.06252996
0.06742832 -0.05568909 0.04197251 -0.10671731 -0.13354574 0.06373262 0.08798879 -0.028775277
-0.25658217 -0.11399564 0.02785921 -0.008954213 -0.08490454 -0.072466955 0.049814228 -0.2278352
-0.06450704 0.094993375 -0.063130565 0.086537965 -0.0055661052 -0.023374425 -0.08611447 0.060682524
-0.020583367 0.038370963 0.07800903 -0.121726856 0.06615667 -0.010177307 0.087152846 -0.13685499
0.12744568 0.0743189 -0.014853041 -0.0017193516 0.1981156 -0.03782465 -0.030810645 0.039733957
0.09549984 -0.014550121 -0.13529576 0.009881204 0.25367078 -0.009371219 0.04609085 -0.09090725
0.044900313 0.063978374 -0.10159074 -0.11250382 -0.118214376 -0.014293397 -0.015517422 0.14201252
-0.27119598 0.1385253 -0.046178505 -0.016539298 0.10313049 -0.062323526 -0.03450443 -0.009042516
-0.22503875 0.012381727 -0.0566338 -0.05312843 -0.051527135 0.15679616 -0.06988407 0.09616324
0.060847662 -0.09905735 -0.19575113 -0.1716679 0.004788098 -0.01755707 -0.16811371 0.019232042
0.20943807 0.0072001736 0.122762784 0.21888463 -0.07595971 -0.00018601018 0.066971734 0.07591043
-0.14980869 0.14660226 0.0035241968 -0.028569581 0.12361325 0.09641202 -0.1412584 0.14652805
0.019815762 0.08050526 -0.1857235 0.0530041 -0.07528846 0.08528408 -0.060675815 -0.029893387
00000000: 6d37 0cbd 7eb9 15be 22de 78bd 4f1f 1bbe
00000010: 67bd 0cbe bf45 81bd fa62 e03c 8d81 b8bd
00000020: 8d12 813d 2146 373d d030 97bc e585 35be
00000030: 5025 d8ba 8e1a b9bd cfc1 b4bb c1e5 233e
00000040: 0a21 bebd 42fb b4bd f6c2 84be b8d0 0b3d
00000050: 0fa7 df3d 0b6c 88bc 4852 93bc df71 093d
00000060: 4990 dc3d 6fd2 d03c 5ad8 133d 45ed c2bd
00000070: abd6 b33c 386a 39be 8bfe e53c 4839 5fbd
00000080: db86 dbbc 5eac 3cbc fb8f abbd 8699 a7bc
00000090: 1d0e 003c 1228 d3bd 5d05 293d f8de fcbb
000000a0: 8f30 443e 1a1e 1abe 6655 8abe 5e7c 41bb
000000b0: 0aec a1bd fecc 97be f1a4 5bbd 4c62 35be
000000c0: dfb2 1f3e 6cc1 28bd a4ad d03d 7b29 0fbe
000000d0: 5991 3e3e 9336 d83d 2931 86bd 6c69 0abe
000000e0: 3b81 bf3c 3bd1 1dbe 1b0b 4ebe cdf5 3c3d
000000f0: 0819 05bd 1ae2 1a3c 6bc2 c9bd ea43 533d
00000100: 2e10 97bd 04a6 8b3c d175 033d 22a6 8dbc
00000110: bc5f 14be b5cf 213e 0a5e 803d 6e77 49bd
00000120: c52a 723d dd64 813d 832f 48bd 0b29 083e
00000130: 30c3 5d3d c03e 4b3e 9835 b83d be67 97bb
00000140: 9fb0 053d 149e 6abd ce6f 903d 4594 47bc
00000150: 3888 783d 2770 153d 50c8 323e 4c71 963c
00000160: b487 8d3d f9fa 513d 1805 00bd e4fe abbd
00000170: ae12 f8bd d88a 04bd 32cd 14be e0f5 d43c
00000180: e29e b3bc f199 863d cf93 47bd fbc3 d23c
00000190: a34b 74be 94a2 9b3d ac78 223d 73d7 e7bd
000001a0: abb0 efbd 7046 afba d87b dd3c ebe7 903c
000001b0: 7ede cc3d 9ce2 073e cfb8 f23d 7385 813d
000001c0: 0cde 4e3d 0bac 013e 440d 8bbd 5e79 863d
000001d0: f4d3 36be 6dbe d63d 2271 ddbd a11d f0bc
000001e0: 3b61 aabd 3825 c2bd b094 7f3d 30ee 61bd
000001f0: e65b 9fbb bda8 08be d896 d63c 62f5 8abd
00000200: 4cde c6bd 7891 dabc 67d7 bdbc ec8f 88bd
00000210: a327 343e e4bf e8bd b924 ebbb 0229 f13d
00000220: b1fd ba3d 6019 bf3d f891 be3c 1324 ce3d
00000230: 49ec 8ebc eb19 c4bd 3c4a 22be b440 8d3c
00000240: 6ec7 0b3d c43b a8bc ded5 05be a4ff d0bc
00000250: 3324 593e c383 02be e31a 983c b50f 80bd
00000260: dc17 8a3d 3e1a 64bd 5eeb 2b3d 9b8e dabd
00000270: 37c0 08be 3f86 823d 7733 b43d 21ba ebbc
00000280: bd5e 83be 8c76 e9bd ff38 e43c b1b4 12bc
00000290: 6ee2 adbd 8e69 94bd 010a 4c3d a14d 69be
000002a0: 441c 84bd e38b c23d 994a 81bd d13a b13d
000002b0: e063 b6bb b97b bfbc c95c b0bd 3d8e 783d
000002c0: 739e a8bc df2a 1d3d 33c3 9f3d ee4b f9bd
000002d0: 267d 873d b8be 26bc 317d b23d b723 0cbe
000002e0: 1f81 023e 8234 983d 2b5a 73bc de5b e1ba
000002f0: d1de 4a3e 05ee 1abd 9b66 fcbc 13c0 223d
00000300: 6c95 c33d a163 6ebc f98a 0abe c6e4 213c
00000310: 23e1 813e be89 19bc c2c9 3c3d 952d babd
00000320: 64e9 373d 1807 833d ce0e d0bd 6768 e6bd
00000330: 611a f2bd da2e 6abc c93c 7ebc bb6b 113e
00000340: 33da 8abe 94d9 0d3e ac25 3dbd 6c7d 87bc
00000350: 1436 d33d f446 7fbd 8454 0dbd 1027 14bc
00000360: 8f70 66be badc 4a3c d8f8 67bd 329d 59bd
00000370: 1e0e 53bd 2c8f 203e 611f 8fbd 3cf1 c43d
00000380: 663b 793d 94de cabd fc72 48be b6c9 2fbe
00000390: 7ae5 9c3b d8d3 8fbc 0026 2cbe 848c 9d3c
000003a0: ef76 563e 6fef eb3b 0e6b fb3d 4b23 603e
000003b0: c490 9bbd ba0b 43b9 7a28 893d ed76 9b3d
000003c0: 7367 19be e71e 163e 36f6 663b c10a eabc
000003d0: f228 fd3d aa73 c53d 0ba6 10be 730b 163e
000003e0: aa54 a23c f1df a43d 4d2e 3ebe d41a 593d
000003f0: d630 9abd 6ba9 ae3d 3487 78bd fae2 f4bc

b3 f4 [40]
0.10938296 0.10540341 -0.012803283 0.085353605 0.046985455 0.048818905 0.14609712 -0.03517696
0.10053542 -0.009115243 0.121287666 0.115788594 0.05164901 0.100081004 0.010337715 -0.06878732
-0.021843208 0.10186304 -0.025763124 0.024713168 0.026467167 0.03972435 0.11274021 0.16880552
0.12656073 0.22215927 0.08790861 0.056761313 -0.030977586 0.09471281 0.045063622 0.040828846
0.090941906 0.045838278 0.019904144 0.068778254 0.08375856 0.014601482 0.059877835 -0.057529278
00000000: 2c04 e03d bedd d73d dcc4 51bc dfcd ae3d
00000010: d273 403d 55f6 473d 7c9a 153e b715 10bd
00000020: 84e5 cd3d 1a58 15bc ab65 f83d 9222 ed3d
00000030: ea8d 533d 45f7 cc3d 855f 293c 5ee0 8cbd
00000040: 87f0 b2bc 929d d03d 300d d3bc 4573 ca3c
00000050: acd1 d83c 00b6 223d 57e4 e63d 5bdb 2c3e
00000060: 2399 013e b87d 633e 6e09 b43d 8d7e 683d
00000070: b5c4 fdbc caf8 c13d a294 383d 263c 273d
00000080: c03f ba3d ebc0 3b3d 040e a33c 9ddb 8c3d
00000090: 9c89 ab3d 0e3b 6f3c 7642 753d d2a3 6bbd

W4 f4 [1960, 30]
0.120616905 -0.07121009 -0.032801896 0.061293166 -0.042833757 -0.19285552 0.05856083 0.050436344
-0.042002812 0.10648374 0.11046503 0.013239143 0.16718481 -0.030519085 0.098772205 -0.001646268
-0.23124486 -0.09664295 -0.024989713 0.13732572 -0.028038466 0.0142879635 -0.032319628 0.030226938
0.018294472 0.113016784 0.0314158 -0.15103108 -0.06845514 0.055630747 -0.111604445 -0.12951589
-0.0021818252 -0.015198817 0.042473458 -0.22783859 -0.17405742 -0.13517006 0.09576038 0.045592614
-0.07120689 0.010274952 0.055833578 0.11619483 -0.0083768265 -0.08432708 -0.18252423 0.15265784
0.0030813776 0.018360278 0.025366144 -0.08660149 0.14173843 -0.06401215 -0.042584624 0.14302671
0.12755515 -0.001316742 -0.0038982702 0.09103947 0.0663256 0.022667797 0.1184288 -0.019968
0.055010118 -0.05246817 -0.09223397 -0.19638473 0.05333906 -0.09707025 -0.03228515 -0.11458652
-0.07951405 0.10330287 0.08800896 0.08638687 -0.09177271 0.15625805 0.009290618 -0.051577162
0.1401696 -4.4684974e-05 0.29986215 0.09469166 0.045955475 -0.0048948745 -0.10249781 0.05553915
-0.11453893 0.014611863 -0.11464554 0.023618206 0.025630994 0.0006540798 0.011063651 -0.018868037
0.1180299 0.03802694 -0.03492218 0.1394758 0.011032619 0.06489744 0.15076073 -0.053481065
0.15037914 0.22908543 -0.044834085 -0.11618254 -0.089085154 -0.07035479 0.14034653 -0.04358674
0.04554678 -0.053768594 -0.0023509862 0.051610924 -0.05355011 0.006310485 0.048914365 -0.0698888
0.015326663 0.023071747 0.063791424 0.090319775 -0.12753399 -0.017814284 0.018336132 0.10135852
0.12908052 -0.016356539 -0.09886682 -0.037517257 -0.039226312 -0.044672124 -0.07334988 0.21205214
-0.12812361 -0.08544064 0.09225234 0.027733369 -0.14294001 -0.010691498 0.03977797 -0.052207332
-0.049888715 -0.113673665 0.055086765 -0.06980838 -0.04446519 -0.019851929 0.013134803 -0.015052263
0.10396715 0.12719537 0.10015318 0.11953642 0.20431815 0.10121797 0.0561014 0.03706951
0.05491809 0.02480647 -0.06162369 -0.15393595 0.19425902 0.021881554 -0.052270737 -0.033268802
0.11905504 -0.04404294 -0.05700083 0.06734967 0.08009914 0.10762335 0.076728605 -0.062499657
0.19487216 0.09426666 -0.024473183 0.12227224 -0.1387659 0.16282265 0.118106045 -0.13973488
-0.045021717 0.021572169 0.014340955 -0.11135267 -0.053421143 -0.15060496 -0.020759664 -0.15383728
0.12284557 -0.048342027 0.025128026 0.014524103 0.05123681 0.08877203 -0.11027847 -0.053860098
0.044578217 -0.18835682 -0.1148126 0.024095953 -0.014586358 2.7670847e-05 0.09356173 0.08798498
0.101679765 -0.040384945 0.08073597 0.14085059 0.06963508 0.15645625 0.009387064 -0.1414646
0.06770253 -0.058055453 0.0072853514 -0.04196371 -0.04949847 -0.06681936 0.069765024 -0.021857455
-0.082111284 0.041740417 0.016807009 0.03637252 -0.037391182 0.06647727 0.26197377 0.055712655
0.17702515 -0.10641716 -0.05035509 -0.020997668 0.077208064 -0.01880764 -0.018009583 -0.007903144
0.10077611 0.00787603 0.009504167 -0.18364163 0.13821079 -0.0010954513 -0.054357864 -0.115092605
0.07842445 -0.15775579 -0.027028307 0.049129754 -0.059225675 -0.11604062 0.058074232 -0.025870431
00000000: ff05 f73d 98d6 91bd 485b 06bd 8b0e 7b3d
00000010: 7372 2fbd eb7b 45be 7bdd 6f3d 5796 4e3d
00000020: 240b 2cbd 2614 da3d 7d3b e23d fee8 583c
00000030: 7f32 2b3e 2903 fabc 1549 ca3d 96c7 d7ba
00000040: 74cb 6cbe bdec c5bd 3ab7 ccbc 1d9f 0c3e
00000050: edb0 e5bc 1018 6a3c 9661 04bd 7c9e f73c
00000060: 4ade 953c 5875 e73d dbad 003d e4a7 1abe
00000070: 3532 8cbd 11dd 633d df90 e4bd d09f 04be
00000080: f4fc 0ebb 7504 79bc a6f8 2d3d 854e 69be
00000090: 1c3c 32be 056a 0abe 051e c43d 52bf 3a3d
000000a0: ebd4 91bd 4658 283c c0b1 643d 8ef7 ed3d
000000b0: f53e 09bc adb3 acbd a2e7 3abe 5652 1c3e
000000c0: f0f0 493b 4b68 963c a9cc cf3c 1f5c b1bd
000000d0: e123 113e cd18 83bd 376d 2ebd 9875 123e
000000e0: d19d 023e 8896 acba 1f7a 7fbb e772 ba3d
000000f0: b7d5 873d d1b1 b93c cc8a f23d ee93 a3bc
00000100: 4a52 613d dde8 56bd 2ae5 bcbd 1419 49be
00000110: 0f7a 5a3d c4cc c6bd 6f3d 04bd 56ac eabd
00000120: 43d8 a2bd 7590 d33d 0b3e b43d 99eb b03d
00000130: 55f3 bbbd 1c02 203e ad37 183c 9342 53bd
00000140: 9f88 0f3e 206c 3bb8 8887 993e b3ed c13d
00000150: cf3b 3c3d 2f65 a0bb 5fea d1bd 057d 633d
00000160: 6393 eabd 9866 6f3c 48cb eabd f87a c13c
00000170: 17f8 d13c 8d76 2b3a 5144 353c 2491 9abc
00000180: a9b9 f13d 23c2 1b3d 8f0a 0fbd bed2 0e3e
00000190: 28c2 343c f3e8 843d 0561 1a3e f60e 5bbd
000001a0: fdfc 193e 5f95 6a3e f2a3 37bd 1df1 edbd
000001b0: 4772 b6bd 2c16 90bd 00b7 0f3e 0288 32bd
000001c0: 438f 3a3d 753c 5cbd 0113 1abb fa65 533d
000001d0: 5c57 5bbd 2fc8 ce3b 6e5a 483d dc21 8fbd
000001e0: af1c 7b3c f600 bd3c 14a5 823d 93f9 b83d
000001f0: 4598 02be 43ef 91bc a835 963c 0e95 cf3d
00000200: af2d 043e 26fe 85bc b07a cabd b2ab 19bd
00000210: c5ab 20bd 1efa 36bd 7638 96bd 3224 593e
00000220: d632 03be 81fb aebd cbee bc3d 1731 e33c
00000230: de5e 12be 652b 2fbc 3aee 223d 5bd7 55bd
00000240: 1c58 4cbd bdcd e8bd a9a2 613d b2f7 8ebd
00000250: 2221 36bd 83a0 a2bc 5b33 573c c49d 76bc
00000260: bbec d43d 813f 023e 1c1d cd3d 83cf f43d
00000270: c738 513e 5e4b cf3d 95ca 653d 33d6 173d
00000280: cbf1 603d f036 cb3c 1f69 7cbd 63a1 1dbe
00000290: d6eb 463e f240 b33c d719 56bd de44 08bd
000002a0: 21d3 f33d 5f66 34bd b479 69bd a0ee 893d
000002b0: 050b a43d a269 dc3d e323 9d3d a4ff 7fbd
000002c0: 918c 473e e10e c13d fc7b c8bc de69 fa3d
000002d0: a618 0ebe fbba 263e 95e1 f13d a916 0fbe
000002e0: b168 38bd 1eb8 b03c 53f6 6a3c de0c e4bd
000002f0: 21d0 5abd 3038 1abe 2c10 aabc 8587 1dbe
00000300: 7596 fb3d 4a02 46bd 4ad9 cd3c 81f6 6d3c
00000310: b0dd 513d 1cce b53d aed9 e1bd 689c 5cbd
00000320: a697 363d 9ce0 40be de22 ebbd e064 c53c
00000330: 9ffb 6ebc b11e e837 4b9d bf3d 7831 b43d
00000340: 7b3d d03d af6a 25bd e658 a53d 233b 103e
00000350: d69c 8e3d 1136 203e 33cc 193c 19dc 10be
00000360: a0a7 8a3d 8ecb 6dbd f5b9 ee3b 24e2 2bbd
00000370: e8be 4abd 97d8 88bd f7e0 8e3d 680e b3bc
00000380: f629 a8bd 00f8 2a3d daae 893c 5afb 143d
00000390: 7f27 19bd 3c25 883d 6d21 863e f432 643d
000003a0: 1546 353e 3df1 d9bd 2441 4ebd 4d03 acbc
000003b0: 431f 9e3d 7b12 9abc d588 93bc 307c 01bc
000003c0: b563 ce3d 770a 013c 5eb7 1b3c 8d0c 3cbe
000003d0: 2187 0d3e 3f95 8fba 5aa6 5ebd acb5 ebbd
000003e0: ff9c a03d bc8a 21be 786a ddbc 483c 493d
000003f0: 9f96 72bd b4a6 edbd 3fdf 6d3d 3aee d3bc

b4 f4 [30]
0.06795159 0.07312672 0.17346556 0.08765909 0.072264686 0.08029872 0.07932521 0.06481995
0.09985915 0.19888489 0.11347615 0.06356669 0.06587278 0.08659031 0.05120591 0.089810684
0.058486838 0.11885569 0.07433604 0.09662367 0.07335485 0.08860205 0.12610891 0.09826852
0.08872863 0.082494594 0.08236953 0.063263156 0.07990667 0.19079803
00000000: 342a 8b3d 76c3 953d f5a0 313e 9c86 b33d
00000010: 82ff 933d a873 a43d 4175 a23d 52c0 843d
00000020: f482 cc3d 7ba8 4b3e 2f66 e83d 412f 823d
00000030: 4fe8 863d 4356 b13d 4abd 513d aaee b73d
00000040: e58f 6f3d 9d6a f33d 7e3d 983d a1e2 c53d
00000050: 113b 963d fe74 b53d b222 013e 0141 c93d
00000060: 5bb7 b53d edf2 a83d 5bb1 a83d 1d90 813d
00000070: 1ca6 a33d 8f60 433e

W5 f4 [30, 4]
0.113695316 0.025680125 0.1340232 -0.03192464 -0.046262093 0.065331705 -0.012046056 -0.053223
-0.10967477 0.02094583 0.045639943 0.16003092 0.05066242 -0.017025054 0.092803754 0.08662091
-0.06343242 0.2813277 0.14910474 -0.040929142 -0.14160609 0.024036935 -0.07502739 0.054802284
-0.014140319 -0.034342457 -0.10435108 -0.06808218 -0.025638714 0.13245557 -0.10848291 0.091872945
-0.22161788 -0.0706049 -0.012753007 -0.011509291 -0.06783388 -0.09844648 0.21314456 0.038194
0.15262137 -0.039013077 -0.07291186 -0.0060966667 0.021660957 0.077763975 -0.09828131 -0.15038443
-0.12524374 0.031124607 0.06336142 -0.10513123 0.2704088 -0.05790295 0.094954625 0.07713526
-0.101022966 -0.008121731 -0.043912403 -0.19861749 0.034300376 0.18918681 -0.039873745 0.14766702
0.15975931 0.017226838 -0.047665283 -0.019914078 -0.066554286 -0.05111721 0.0024592485 0.091048144
-0.013207425 0.032958444 0.027538141 -0.08269784 -0.017848104 0.12685435 -0.05828742 -0.007113082
-0.03947543 0.10555405 -0.093124434 -0.010492173 -0.11359637 0.02577774 -0.10614687 -0.048341475
-0.059957735 -0.15767784 0.16914164 -0.06263646 0.17915706 0.03540954 0.1119439 0.0034722046
0.08555079 0.07412501 -0.12603205 0.006347666 0.07681697 0.023716485 -0.19930297 -0.0691537
0.026411775 -0.061665043 0.014098785 -0.102554716 0.06736316 -0.02690156 0.094302796 -0.059043635
-0.10901564 -0.0135042425 0.061156575 0.13892275 0.04408015 -0.039094124 -0.0647765 0.16740824
00000000: 17d9 e83d 205f d23c 613d 093e 69c3 02bd
00000010: 527d 3dbd a1cc 853d d25c 45bc 5c00 5abd
00000020: 2a9d e0bd 9796 ab3c f3f0 3a3d 25df 233e
00000030: 6683 4f3d 2078 8bbc e50f be3d 4e66 b13d
00000040: dbe8 81bd 2f0a 903e eaae 183e 51a5 27bd
00000050: 3001 11be 1be9 c43c f6a7 99bd 5c78 603d
00000060: ccac 67bc adaa 0cbd 05b6 d5bd ac6e 8bbd
00000070: 4808 d2bc 6fa2 073e 4a2c debd e227 bc3d
00000080: ccef 62be 4d99 90bd fdf1 50bc 7791 3cbc
00000090: 7dec 8abd 4f9e c9bd 9142 5a3e 5071 1c3d
000000a0: c748 1c3e 2dcc 1fbd d052 95bd 8cc6 c7bb
000000b0: 5272 b13c b842 9f3d b647 c9bd 60fe 19be
000000c0: e53f 00be 08f9 fe3c a2c3 813d 0b4f d7bd
000000d0: 0673 8a3e a52b 6dbd 9277 c23d 17f9 9d3d
000000e0: 21e5 cebd 0211 05bc 7edd 33bd 6262 4bbe
000000f0: 8d7e 0c3d 30ba 413e a752 23bd 0636 173e
00000100: f297 233e 4c1f 8d3c ac3c 43bd d922 a3bc
00000110: 9d4d 88bd 4860 51bd 582b 213b 7377 ba3d
00000120: f563 58bc 6fff 063d ab97 e13c 7c5d a9bd
00000130: 3036 92bc 1be6 013e cabe 6ebd db14 e9bb
00000140: fdb0 21bd b92c d83d 06b8 bebd 5de7 2bbc
00000150: 37a5 e8bd d72b d33c 8863 d9bd b601 46bd
00000160: 3e96 75bd 4d76 21be 7733 2d3e 8b47 80bd
00000170: f374 373e 9809 113d d842 e53d ed8d 633b
00000180: 4135 af3d dace 973d 8c0e 01be 1500 d03b
00000190: 3752 9d3d 1349 c23c 1416 4cbe 74a0 8dbd
000001a0: 825d d83c 7c94 7cbd 97fe 663c 3508 d2bd
000001b0: b2f5 893d a960 dcbc d321 c13d bdd7 71bd
000001c0: 9843 dfbd e640 5dbc 517f 7a3d c441 0e3e
000001d0: 638d 343d 2921 20bd 8ba9 84bd 116d 2b3e

b5 f4 [4]
0.062234662 0.025279004 0.09905605 0.1841628
00000000: c6e9 7e3d ea15 cf3c e6dd ca3d 2c95 3c3e
