furhatBartender/userPerception/model/cnn4big.pth (torch, 539633 bytes, 10 tensors)

W1 f4 [16, 1, 5, 5]
000000 1f be bf 3c cc a4 5a be 8b fb ec bd 0b 85 7a 3d
       0.023406086 -0.21351928 -0.115714155 0.061162036
000010 84 0b 72 3d de b7 d1 bd ed 9c e4 bd 28 88 4a be
       0.059093013 -0.10240148 -0.11162744 -0.19778502
000020 ae 21 97 3d d3 05 80 3d 38 a0 5d bd 6b 56 2c 3c
       0.07379471 0.06251111 -0.054107875 0.0105186505
000030 38 42 39 3d f6 f8 3c 3c da d2 58 3e 1d 13 a9 bd
       0.045229167 0.011533966 0.21174183 -0.08255599
000040 ba a6 38 bd 1c 1e dd 3d 51 32 8c 3d 48 19 37 3e
       -0.045080878 0.107967585 0.068455346 0.17880738
000050 b1 9d 9f 3c fe c6 b8 3d 61 cb 79 bd b9 73 bd bd
       0.019484373 0.0902233 -0.060984973 -0.09250588
000060 19 b7 d0 3d d0 dc 22 bd ab ff 7e 3b 95 42 44 3e
       0.10191173 -0.039761364 0.0038909714 0.19166024
000070 ae 4e 2c bd 47 bf 45 3c 65 ac a1 bd 64 d7 c5 3d
       -0.042067222 0.01206953 -0.0789421 0.09660223
000080 8c cc 79 bc 2c 11 64 bd ee 99 84 3d 0c 50 5d 3c
       -0.015246522 -0.05568044 0.06474672 0.013507854
000090 c3 e5 4b be 7d e3 08 3e 25 d9 58 bc 00 a2 0a 3b
       -0.19911866 0.1336803 -0.013235365 0.0021153688
0000a0 b0 09 07 be 5c 8e 11 3e fb 8f ba 3d 6c ce 78 3d
       -0.13187289 0.14214462 0.09109493 0.060743734
0000b0 f2 4f 06 be 78 2f 93 bd cd f5 c1 3d ff 83 48 b9
       -0.13116434 -0.07186788 0.09470711 -0.00019122659
0000c0 a1 c2 b4 3d 5d 8c 80 3c d3 62 a5 be 77 9d 98 bd
       0.08826185 0.01569193 -0.3230196 -0.07451909
0000d0 f8 b0 a3 bd 66 15 93 3d c1 8f 2b 3d 8a f4 96 bd
       -0.079927385 0.07181816 0.04188514 -0.07370861
0000e0 64 67 22 3d 76 15 f5 bd 76 1b d1 bd a2 b3 bb 3d
       0.039649382 -0.11966984 -0.10210316 0.091651216
0000f0 63 4a 27 be 5c 98 28 be 01 0a 07 bb 77 5c 2e 3d
       -0.1633697 -0.1646437 -0.0020605328 0.04256865
000100 24 68 75 3d 8a d9 76 bb 62 5b 74 bd b6 90 f9 3b
       0.05991377 -0.0037666284 -0.059657462 0.007616128
000110 cf 98 c4 3d 96 cd dc 3c fd 67 13 3b d7 95 57 3e
       0.095994584 0.0269535 0.0022492402 0.21053253
000120 e4 a3 0e 3e f1 16 5c 3e c2 1c 18 3e da 5d a1 3d
       0.13929707 0.21493126 0.1485472 0.07879229
000130 f2 95 56 3e 12 9b 9a 3e 13 b4 f6 3d ab 3e 24 3d
       0.20955637 0.30196434 0.12046065 0.040098827
000140 45 3a bb bd de f0 0a 3e 97 77 e3 3c 6e 9a a0 3d
       -0.091419734 0.13568446 0.027766986 0.07841955
000150 67 44 d3 3d 37 c2 35 3e 6e 23 e7 bb 17 d5 60 3c
       0.10315781 0.17749868 -0.007053784 0.01372268
000160 c7 5e 2d bd c6 1f a3 3d 1b b0 a3 3d 84 ab 04 bc
       -0.042326715 0.07965045 0.07992574 -0.008097533
000170 28 20 a9 b9 7e b3 58 be ff 67 f0 bd b7 28 7f be
       -0.0003225815 -0.21162221 -0.11738586 -0.24917875
000180 fb 61 d1 bd 44 a0 23 be 29 01 66 be 38 c0 62 be
       -0.102237664 -0.15979105 -0.2246138 -0.22143638
000190 ab 20 5f 3e a7 92 00 3e 1e f4 ad 3d 1a 09 dc 3d
       0.21789806 0.12555943 0.08493827 0.107439235
0001a0 94 39 52 3d 45 a0 f9 3c a2 43 da 3d 90 b0 bc 3d
       0.051324442 0.03047193 0.10657431 0.09213364
0001b0 12 a2 db 3d 48 e0 9a bc a8 d5 0b 3e 13 29 28 bc
       0.10724272 -0.018905774 0.13655722 -0.010263699
0001c0 ca ea 23 be 2e 84 54 bd d7 9b 1e be 13 85 7a 3c
       -0.16007534 -0.05188387 -0.15489136 0.015290516
0001d0 5a 4a a8 3d ef 3e 95 bd c7 42 a8 bd 90 f3 b4 bd
       0.082173064 -0.07287394 -0.08215862 -0.08835518
0001e0 e6 83 79 3d 43 83 e4 bd 91 a4 15 be 1f db a2 be
       0.060916804 -0.11157849 -0.14613558 -0.318078
0001f0 cf c5 79 bc a9 d0 52 bd 3b 29 0f be 1b c7 be be
       -0.015244915 -0.051468525 -0.13980572 -0.3726128
000200 76 74 72 3c b3 3c 1c be 4e 29 60 3c d2 58 d2 bc
       0.014798274 -0.1525753 0.013681723 -0.025677118
000210 cc 07 29 3d 44 4a 71 bd 1a b3 f8 bd 99 1d 9e bd
       0.0412672 -0.058908716 -0.12143536 -0.07720489
000220 15 b7 0b 3d 2c 74 b5 bd de 3d 20 be a9 26 ac bc
       0.034110148 -0.08860049 -0.156486 -0.021014528
000230 90 1a 01 bd 3b f2 34 3e b5 ec 83 bd 88 e6 a2 3d
       -0.031519473 0.17670529 -0.06441633 0.079541266
000240 e8 5b 15 3d 44 07 28 3e cf fc 21 3e c0 48 1e 3e
       0.0364646 0.16409022 0.15819095 0.1545744
000250 c4 1f a4 3e f8 87 45 3e 6b bc 12 be b8 04 ff 3d
       0.32055485 0.19290149 -0.14329688 0.12452072
000260 11 28 9f bb 4d 48 2b 3e 76 eb 37 3e 14 93 3d be
       -0.004857071 0.167268 0.17960915 -0.18513137
000270 6c 70 c9 3d d3 55 03 3e 0b 2e ba 3d c2 9c 60 3e
       0.09835896 0.12825708 0.09090813 0.21934798
000280 0f 24 ed bd ff 48 c6 bd f2 15 a3 be b8 ee 51 3d
       -0.11579143 -0.09681892 -0.3185268 0.05125305
000290 82 19 cb 3d 7a b6 01 be a9 e1 66 be 31 fb c5 3d
       0.099169746 -0.12667266 -0.2254702 0.096670516
0002a0 1b a3 d4 bc f5 8a 0f 3e 85 0d c8 bc 47 8b 2b 3d
       -0.025956681 0.14017852 -0.02442051 0.041880872
0002b0 40 2f 54 bd 03 3f 29 be 91 2f b5 3c c6 c6 24 3e
       -0.051802874 -0.16527943 0.022117408 0.16091451
0002c0 f9 2a 81 3e cc d2 1c 3d b5 0f 8b 3d e8 45 61 be
       0.25228098 0.03828697 0.06790105 -0.21999323
0002d0 64 81 3c 3e 80 ce 88 3d b1 3a 61 bd 83 64 a0 bd
       0.18408734 0.06680012 -0.054987613 -0.07831671
0002e0 57 d9 21 be 62 f1 24 3e 49 91 9a ba fb a1 9e 3d
       -0.15805565 0.16107705 -0.0011792566 0.07745739
0002f0 17 af 15 be 27 07 51 be e0 a7 00 3d fb 9c e6 3d
       -0.14617573 -0.20412885 0.031410098 0.112604104
000300 b8 65 08 3d 39 be 12 be 58 e6 29 be f8 70 ec 3c
       0.03330013 -0.14330377 -0.16591775 0.028862461
000310 74 6e 3a 3d 39 b6 d4 3c 38 c2 0e be 1c 00 a5 3d
       0.045515493 0.025965797 -0.13941276 0.080566615
000320 88 a9 c1 3c 5b e0 a7 3d 26 c8 d1 bd 0c 52 51 3d
       0.02364041 0.08197089 -0.102432534 0.051103637
000330 5e 3c f1 bd 4c d2 14 3e 18 11 ec 3d c2 70 8a 3d
       -0.11779092 0.14533347 0.11526698 0.06759788
000340 b9 d4 91 bd fc d2 76 be 0d d0 c9 3d c9 4b 0d 3e
       -0.07120652 -0.24103922 0.09854136 0.13798441
000350 8e 60 d4 bb 39 3c df bd 62 92 de bd 3c f9 e5 3d
       -0.006481237 -0.109001584 -0.10867764 0.11229178
000360 e1 28 17 3d 3b 5e 1a bd 60 af 28 bd 93 7f 2b be
       0.03690422 -0.03768752 -0.041182876 -0.16747884
000370 0b 64 13 3e bc 02 90 3c 6d 24 b5 3d 83 8d eb 3c
       0.14393632 0.017579429 0.08844838 0.028754001
000380 4d 28 f3 bd f6 0d 8b 3e c8 ea 24 be a9 b9 2a bd
       -0.11872921 0.2715909 -0.16105187 -0.041680966
000390 fe 5e 60 be c8 33 25 be f4 30 ec bc c3 f0 25 be
       -0.21911237 -0.16133034 -0.028831936 -0.16205125
0003a0 9b 08 4d be 00 a4 b1 be cd 51 c1 bd aa 87 48 3e
       -0.20022814 -0.34695435 -0.094394304 0.19583002
0003b0 24 ed 8c 3e a3 64 97 bd e1 08 11 bd ca a4 9f bd
       0.27524674 -0.07392242 -0.03540886 -0.07795103
0003c0 d9 46 e9 3d 71 7f f9 3d ee df e5 3d b7 be e1 3d
       0.11390466 0.12182511 0.11224352 0.11022704
0003d0 a5 9b 82 3a ea 57 81 3e 64 3c 79 3e 9b 96 67 bd
       0.0009964599 0.25262386 0.24339443 -0.056540113
0003e0 1e 06 5f bd dd c4 bd 3d 0b 14 b5 bb 66 63 29 bd
       -0.054449193 0.09266064 -0.005526071 -0.04135456
0003f0 3c db 93 bc 4d 6f 16 be e4 21 80 be f3 4a a0 3d
       -0.018048875 -0.14690895 -0.25025856 0.078267954

b1 f4 [16]
000000 82 99 fe bd 6f 4e ea 3d f6 b2 a0 3d f1 d3 e1 3d
       -0.12431623 0.11440741 0.07846634 0.11026753
000010 45 3e 66 3d 1e 5e c2 3d a2 a1 88 bd 08 8e 2a 3c
       0.05621173 0.09490608 -0.06671454 0.010409839
000020 29 08 e4 3d fb c8 e4 3d f2 5b 94 bd d2 cd a9 3c
       0.11134369 0.111711465 -0.072441 0.020728026
000030 cc bb 53 be 18 6c fa bd ab 7d 34 be fd 01 0a be
       -0.20677108 -0.122276485 -0.17626064 -0.13477321

W2 f4 [32, 16, 5, 5]
000000 69 99 40 be cd a7 70 3d 47 f5 b6 bd ac 71 5e b9
       -0.18808521 0.058753777 -0.08933502 -0.00021213916
000010 15 c8 d2 bd b4 5a 37 be 00 72 58 be ee 59 c2 3d
       -0.10292069 -0.17905694 -0.21137238 0.09489809
000020 e5 68 03 be cf 67 25 bb df ba f0 3d 19 7f b8 3d
       -0.12832983 -0.0025238877 0.11754393 0.09008617
000030 bb b0 2d 3d d5 46 97 bd de 15 23 bd e4 35 e6 3d
       0.04240487 -0.07386557 -0.039815776 0.112407476
000040 6e 48 cd bd 99 53 f3 bc b8 00 b1 3d 03 3c af 3d
       -0.100235805 -0.029702948 0.08642715 0.08556368
000050 51 fb 27 be 18 d6 44 3e 00 3d f2 3c fe 41 57 be
       -0.16404463 0.19222295 0.029570103 -0.21021268
000060 56 16 93 bd ff 8f 04 3e ec d6 f4 3d c9 c9 21 bd
       -0.071819946 0.12945555 0.119550556 -0.039499078
000070 66 82 8e 3e 0f 8a 00 bc ba 77 32 3e ba b7 d6 3c
       0.2783386 -0.007845416 0.17428485 0.026210655
000080 c6 35 89 3d 74 df ce bc 69 6c b0 3e 4f 87 1d 3e
       0.066997096 -0.025253035 0.3445771 0.15383647
000090 28 f2 3e 3e 6f 7d 39 bc 41 96 99 bb 5b d6 60 3d
       0.18647063 -0.01132141 -0.004687101 0.054891925
0000a0 67 9c 0a 3e 82 a2 7e be 48 aa 1e 3e ae 46 5b be
       0.13536225 -0.2486668 0.15494645 -0.21413681
0000b0 7c 26 b7 bc d7 f7 92 be a9 f0 34 be 67 13 06 be
       -0.022357218 -0.28704712 -0.1766993 -0.13093339
0000c0 48 82 37 bd 9f 28 c0 bc 5c 86 6a be 79 ed 39 bd
       -0.04480198 -0.02345687 -0.22902817 -0.045392487
0000d0 f2 d7 3c bc f2 23 9c 3d ca d6 62 bd 4b d2 00 be
       -0.011526095 0.076240435 -0.05538062 -0.1258022
0000e0 c6 f7 33 be c9 af af 3d 5c 15 bb 3d 01 f5 63 3d
       -0.17574987 0.0857845 0.09134933 0.055653576
0000f0 53 9b bc bd 3a 7d 56 be d9 f9 3c 3d 63 25 b8 3c
       -0.09209313 -0.20946208 0.04613671 0.022478765
000100 42 81 3a 3e 78 58 07 be ea 6c 99 bd 90 bb 91 be
       0.1821337 -0.13217342 -0.07491477 -0.2846341
000110 3a 78 9f be ef 5f cc 3d 4b 0d d6 bd 2a d9 9c bd
       -0.31146413 0.099792354 -0.10451754 -0.07658608
000120 ff af 0a be 01 03 dd bd ff 58 ee bc 22 27 f2 3c
       -0.135437 -0.107915886 -0.029095171 0.029559676
000130 00 43 12 3e a7 ec 68 3e 3f 96 0d 3b 6b a4 91 bc
       0.14283371 0.22746526 0.0021604446 -0.017778596
000140 b1 fd 46 3d 84 b1 59 3c cd da 79 3c 70 f1 2d 3e
       0.048581783 0.013286952 0.01524992 0.16986632
000150 9e e6 9e 3d 84 a8 18 3e b5 db 6e bd 6c ee 94 3c
       0.077588305 0.14908034 -0.058314998 0.018180095
000160 b4 1a 7c bd f2 ab 54 bb 59 90 f9 bd ec 71 4f bd
       -0.061548904 -0.003245112 -0.12185735 -0.050645754
000170 fd 21 61 bd e6 52 71 3d c9 c7 c5 bd 49 5a 56 be
       -0.054964054 0.05891695 -0.096572466 -0.20932879
000180 eb d3 1a be 8e 88 64 be ea d0 58 bc 82 f6 3a bc
       -0.15119903 -0.22317716 -0.013233403 -0.011411311
000190 56 14 07 be 16 da 79 3e 2b 55 88 3e fa 5d 78 bd
       -0.13191351 0.243996 0.26627478 -0.060636498
0001a0 b4 f7 2d bd 3b 3a e4 3d 44 bf 1c be b3 98 aa bd
       -0.042472556 0.11143919 -0.15307337 -0.08329906
0001b0 1e 3d 36 3d 64 46 bc 3d 81 3e 55 3d 05 27 4a be
       0.04449188 0.091931134 0.05206156 -0.19741447
0001c0 e9 26 16 be 51 d2 3b be d7 63 21 be a9 62 c1 bc
       -0.1466328 -0.18341948 -0.15760742 -0.023606615
0001d0 03 86 79 be 91 51 9b bc aa e9 7d be 31 1e 9b bb
       -0.24367528 -0.018959792 -0.24796167 -0.0047338237
0001e0 8b 97 14 be 9d c4 d3 bd bb 29 0b be 0f 80 93 bd
       -0.14510934 -0.103402354 -0.13590138 -0.072021596
0001f0 d2 78 96 3a 73 27 9b bd a0 da cb bd 3d 24 bb be
       0.0011480099 -0.07575884 -0.09953809 -0.36551085
000200 9f e2 82 be 6f 91 14 bd 42 22 77 be 1d 1b 57 bc
       -0.25563523 -0.03627151 -0.24134162 -0.013129023
000210 80 5f d6 bd fb dd 5a 3e 91 bb 47 3d 09 0b af bd
       -0.10467434 0.21373741 0.04876286 -0.08547027
000220 45 8b fe bd 51 02 ff bc af 1e a6 3d 6c 26 c3 bb
       -0.12428907 -0.031129034 0.08111321 -0.005955508
000230 b4 4b 86 be a1 16 8e be 79 ab 24 ba f6 db e6 bd
       -0.26229632 -0.2775164 -0.0006281655 -0.11272423
000240 1d cd 13 3d 0a 1a 64 be 28 43 1d be bd 69 db bd
       0.036084283 -0.22275558 -0.1535765 -0.10713527
000250 aa 95 09 be 57 c9 8d 3d 51 49 87 bd aa c7 44 be
       -0.13435999 0.06923168 -0.06605781 -0.19216791
000260 13 ef c6 3c 08 4f 11 be 9c c8 84 bc 21 ce ba bd
       0.024283921 -0.14190304 -0.01620894 -0.09121347
000270 2e 0c 09 be f3 15 64 be ea 1e 7a 3d cc ab 1f 3e
       -0.13383552 -0.22273998 0.06106464 0.15592879
000280 53 12 8d be b5 c7 d9 bd 8f 30 41 be e3 00 4a 3e
       -0.27553043 -0.10633794 -0.1886618 0.19726901
000290 49 6f e9 3b c8 a7 30 bc 9e 8f 22 bd ba 6e 7e be
       0.007123862 -0.01078219 -0.039687745 -0.24846926
0002a0 a6 35 9a 3d 60 f4 2d 3e 51 0c a1 bd b9 fa 00 be
       0.07529764 0.16987753 -0.07863677 -0.12595643
0002b0 da 56 72 be d2 b0 2a 3e e6 1f e0 3d 8e 61 3b 3d
       -0.23665944 0.16669014 0.10943584 0.045747332
0002c0 b8 7d 9b 3e 48 db 02 be 8d 5d 60 3d 97 b1 1b 3d
       0.30369353 -0.12778962 0.054776717 0.03801116
0002d0 e1 ef 85 3d 54 3e ae 3d 1d d3 43 be 9e 53 1a be
       0.06539894 0.08507982 -0.19123502 -0.1507096
0002e0 9d 0a 81 be 7b 94 62 bd 4d ea 03 3e f1 e5 06 be
       -0.2520341 -0.055317383 0.12882347 -0.13173653
0002f0 45 06 ce 3c 98 ec c2 bd 0d 5c 89 bd 23 f9 ab bd
       0.025149474 -0.09517783 -0.067070104 -0.083971284
000300 8b f9 40 3d 1c 65 8d 3d fe b4 14 bd 50 d9 98 be
       0.047112983 0.06904051 -0.03630542 -0.29853296
000310 bc 68 ab bd 1d e8 c5 3c db 6c cf bc fc 38 ed 3c
       -0.08369586 0.024158532 -0.025320461 0.028957836
000320 b4 f3 e9 3d db 0b a9 3d c0 6c 1e 3e c4 76 7a 3e
       0.11423436 0.082542144 0.15471172 0.24459368
000330 45 75 21 be f1 22 40 3e e0 da a1 3d d1 3d 1b be
       -0.15767391 0.18763329 0.07903075 -0.151603
000340 0f 5a 91 3d 2b 6f 39 bd fa 67 e3 3d be ed b3 3e
       0.070972554 -0.045272034 0.11103816 0.3514232
000350 c2 f3 18 3e 74 43 05 3e 2f 7f d6 be 5b 06 07 be
       0.14936736 0.13014013 -0.41893908 -0.13186018
000360 d2 4b ec 3d 56 f4 44 3d 13 61 8f 3d 7e c2 23 3d
       0.11537899 0.04808458 0.07000937 0.039980404
000370 d6 0b b3 be ce 19 82 3c 12 6b e0 bb 9a 5f 94 3c
       -0.34969968 0.015881445 -0.0068487013 0.018111993
000380 5e 41 0c be 64 bc cf 3d a0 4d 2d be 77 ba 8f bd
       -0.1369681 0.101433545 -0.16924143 -0.07017987
000390 20 8b 85 bd 81 1e 19 be ac 98 04 be 23 b5 e2 3b
       -0.065206766 -0.14953043 -0.12948865 0.006918566
0003a0 b9 bc 59 bd 40 b6 09 be 48 40 94 3d f8 7d 24 bc
       -0.053158496 -0.13448429 0.07238823 -0.010039799
0003b0 49 78 fc 3d a2 aa 77 bd 3f f7 b1 3d e3 29 7f 3c
       0.1232763 -0.060465463 0.086897366 0.015573951
0003c0 74 93 a1 be e6 3f e4 bb 5f 61 21 be 05 37 68 3d
       -0.3155781 -0.006965625 -0.157598 0.056693096
0003d0 ab 3c 3b be b1 2b 37 be bd 41 6e be 81 e5 33 be
       -0.18284862 -0.1788776 -0.23267265 -0.17568018
0003e0 55 d6 8e be e7 77 7c be 12 9c 8d bd b9 86 09 3e
       -0.27897897 -0.24655114 -0.06914534 0.13430299
0003f0 47 cd 0f be 5d a2 ad 3c 4b 98 2f be 62 61 03 be
       -0.14043151 0.021195585 -0.17147939 -0.12830117

b2 f4 [32]
000000 02 07 2d 3e c1 4f 0f 3e b9 bf e9 bc 22 8e f3 bc
       0.16897205 0.13995267 -0.028533803 -0.02973086
000010 55 c1 46 3d ed af b1 3c 4e 40 10 bd af 0d 0d 3e
       0.04852422 0.021690333 -0.035217576 0.13774751
000020 64 13 4b 3e a4 6c 62 bd 0a fa 0a 3e 40 cf ac 3d
       0.19831616 -0.05527939 0.13571945 0.08437967
000030 0c 81 14 bd 88 94 14 3d bb 7d 30 3e 21 0e 95 3d
       -0.03625588 0.036274463 0.17235462 0.072780855
000040 f7 e3 24 3e ef 49 2e be 4c de 29 be 47 17 1f 3e
       0.16102587 -0.17020391 -0.16588706 0.15536223
000050 7f 20 0b be 0c 29 ad bc 33 8f 07 3e 4f 5d 50 3d
       -0.13586615 -0.021137737 0.1323822 0.050870236
000060 20 0e 92 3e e5 bc aa 3d 6d a8 c0 3d ad 9a 55 3d
       0.28526402 0.0833681 0.09407125 0.052149463
000070 20 77 0c 3e 3e 24 84 3c 61 ef 2a 3d 16 cc 99 3d
       0.13717318 0.016130563 0.041732196 0.075096294

W3 f4 [48, 32, 4, 4]
000000 63 fe e7 3d 8f c2 c2 3d 21 45 8d 3d 34 c1 e2 bb
       0.11327817 0.09509765 0.06897951 -0.0069200043
000010 6a f1 26 3e 65 3b 86 3d ef c1 83 bc cb 61 eb bb
       0.1630303 0.06554297 -0.016083686 -0.0071832887
000020 6a d5 0a be 7a e0 14 3e 90 48 99 bc e0 83 a1 bc
       -0.13557974 0.14538756 -0.018711358 -0.019716203
000030 c9 7e b9 3d 8c 90 1c 3d ac 5e cd bd 3a 57 55 3e
       0.090573855 0.03822379 -0.10027823 0.20834056
000040 95 93 a9 bc 9d 8d b7 bd 7a 9c 02 be 91 af f2 3d
       -0.020700255 -0.089625575 -0.12755004 0.11849893
000050 1d c0 52 be 52 82 9e bb 6e 9a 46 3d 82 a5 cb 3d
       -0.20581098 -0.0048373127 0.04848712 0.099436775
000060 88 2a 59 bd a8 17 7a be 01 71 6d be 38 fb c1 bd
       -0.053019077 -0.24423087 -0.23187639 -0.09471744
000070 55 80 fa bd ec eb 20 3d 6e 6d ca bd 4c 11 44 3d
       -0.12231509 0.039287493 -0.09884153 0.047868058
000080 35 48 1e be f9 80 ad be 12 fa 17 bc 50 b7 3c be
       -0.15457232 -0.3388746 -0.00927593 -0.18429303
000090 09 64 39 be 0e 51 68 bd 6f 0a 52 3d f6 2e 81 3d
       -0.18104567 -0.056717925 0.05127948 0.06307785
0000a0 47 80 50 3e 4f 95 0e 3e 72 66 3c 3e 8d 58 e8 3d
       0.20361434 0.13924144 0.18398455 0.11345015
0000b0 75 75 36 3e 43 fc 6e 3e a4 a7 99 bd 61 d9 ed bd
       0.17818244 0.23338418 -0.07502678 -0.11613727
0000c0 36 93 b9 bc 43 f6 41 3e 9c ce 1b be 26 2e 45 3e
       -0.022653203 0.18941598 -0.15215534 0.19255885
0000d0 f6 38 84 3d db d1 27 be 5c aa c7 bd 44 4b 0c 3c
       0.06456177 -0.16388647 -0.0974929 0.008562867
0000e0 fd 6d dd bd 7d 2d 60 bd a3 1f c5 be 8e 10 8f be
       -0.10811994 -0.05473088 -0.385007 -0.27942318
0000f0 a7 56 94 be c1 40 f0 bd 43 8a 33 be 00 59 0d be
       -0.2897236 -0.11731101 -0.17533211 -0.13803482
000100 5a 55 f5 bc cb 30 41 bd e0 57 0c bd 2e 7d 2f be
       -0.029947925 -0.047165673 -0.03426349 -0.17137596
000110 55 da e2 3c 1e eb 53 be 53 24 87 be 1e a4 c0 3d
       0.027692 -0.20695159 -0.263949 0.09406303
000120 5f ff 15 3d b3 06 a2 be 4b e0 99 bc f3 4f ba 3a
       0.036620494 -0.31645736 -0.018783709 0.00142145
000130 42 08 ce bd 32 e3 83 be 6a 6a a8 be f7 24 99 bd
       -0.10060169 -0.25759274 -0.32893687 -0.074777536
000140 4a c2 77 be 51 2e 07 be f9 5d 23 be 0d b2 53 bd
       -0.24195209 -0.13201262 -0.15953816 -0.051683474
000150 db e8 8a bd 28 b9 57 bd 35 3f c0 bd eb c3 4f 3d
       -0.06782695 -0.052666813 -0.09387056 0.05072395
000160 a1 1e ed 3c 0f 07 25 bd c5 55 02 be 57 4e 9d bc
       0.028945269 -0.040289935 -0.12728031 -0.019202394
000170 3b 39 b1 bb b3 b6 91 3d 1b 70 83 b9 c3 c4 92 3c
       -0.0054084337 0.07114925 -0.00025069792 0.017916089
000180 6a c5 85 be c7 45 05 be 69 03 e1 bd ce 31 14 be
       -0.26127177 -0.13014899 -0.109869786 -0.14472124
000190 95 fe 5a be ad 9b 21 be 12 2c d8 3c 35 c4 f8 bd
       -0.21386178 -0.15782042 0.026388202 -0.121467985
0001a0 72 98 b4 3d 08 84 b9 3d f5 84 1d 3d 19 69 82 3e
       0.08818139 0.09058386 0.038456876 0.25470808
0001b0 47 8b 2c 3d e9 d9 bf 3d 49 02 0b 3d 20 a2 38 3e
       0.042125013 0.09367735 0.033937726 0.18030596
0001c0 08 8d 47 3d 94 58 ce bd 50 1d 86 3a 81 8a 07 3d
       0.048718482 -0.10075489 0.0010232124 0.033091072
0001d0 51 1a f3 bd 47 3b 3a bd 97 9c 67 3e 79 b5 dc bd
       -0.11870254 -0.045466688 0.22618328 -0.10776801
0001e0 94 e4 ba be 44 ed 10 be 5e 21 57 be 35 17 09 be
       -0.36502516 -0.1415301 -0.21008822 -0.13387759
0001f0 87 8a 31 3e 94 f4 ce 3a 55 76 de 3b 33 15 a6 3e
       0.17338 0.0015789443 0.0067890086 0.3243805
000200 c2 da 29 3d 86 df d1 3d 27 19 cb bc a3 e1 ba be
       0.04146839 0.10247712 -0.024792267 -0.36500272
000210 25 18 c2 3d 6c 23 7f 3e c2 3e 83 be 3d fc fe bc
       0.094772615 0.24915856 -0.25633818 -0.031126136
000220 5e c8 f0 bc f5 45 a1 bb 8d f9 d4 3d 39 2b 7d be
       -0.029392418 -0.0049216696 0.103991605 -0.2472352
000230 da 40 42 bd 01 f2 ae bd b0 1c 91 bd ac ab 77 3d
       -0.04742513 -0.08542252 -0.0708555 0.060466453
000240 18 92 28 bc 66 ee 34 3d 2e e4 b3 3c 41 67 c4 bd
       -0.010288738 0.044172667 0.02195939 -0.095900066
000250 0f bf 81 3e 30 fd 77 3d 17 6b 70 3c c4 64 89 3e
       0.2534108 0.060544193 0.01467397 0.2683469
000260 df c8 42 3d b4 8e 7b bd a4 e0 03 bd 35 15 40 3d
       0.047554847 -0.06141539 -0.032196656 0.046895225
000270 c9 a9 15 be b3 6c 8b be fa 78 8e be 6b 50 8f be
       -0.14615549 -0.27231368 -0.27826673 -0.27991042
000280 3c 83 2f 3d a6 86 36 3d 70 f0 11 be 64 74 12 be
       0.042849764 0.044562005 -0.14251876 -0.14302212
000290 aa c4 c5 bc c4 94 59 3e c7 01 c4 3d 6b 05 2c be
       -0.024141628 0.21248156 0.095706515 -0.16798942
0002a0 57 fe 3e be 61 ca 59 be 44 cf 44 be 37 e4 25 be
       -0.1865171 -0.21268608 -0.1921969 -0.16200338
0002b0 2d c2 63 3c 8d 0a f3 bc f3 a7 9a bc d0 aa 53 3e
       0.013901276 -0.029668117 -0.018878913 0.20670629
0002c0 ff 6d 64 bd eb af 91 3c 74 43 b0 3d a1 70 f8 bd
       -0.055768963 0.01778408 0.08606616 -0.12130857
0002d0 32 f2 86 bc c9 ce 33 bd cd e6 5d bc 32 3b 81 be
       -0.01647291 -0.043898378 -0.013543797 -0.25240475
0002e0 b3 9c 68 be 9f 7e 1a be b9 f8 ee bb 3d ba 91 be
       -0.22716026 -0.15087365 -0.0072928336 -0.284624
0002f0 73 fa 0e be df 22 4d bd 23 af d7 bd 35 af 83 be
       -0.13962726 -0.050082084 -0.105314516 -0.2571961
000300 38 b7 16 bd a0 ac a9 ba 90 c8 33 bd 33 29 b8 3d
       -0.036795825 -0.0012945123 -0.043892443 0.08992233
000310 ad 73 96 be 59 e3 28 be a3 db 8d bd c1 5b 4c be
       -0.2938513 -0.16492976 -0.06926658 -0.19956876
000320 82 ad 8f bd b9 25 1a bd e4 1f f6 3c cb 60 77 bd
       -0.07015516 -0.03763363 0.030044504 -0.060395043
000330 57 9e b2 be 8b cc a0 be a2 e9 18 be d0 ce 0e be
       -0.3488643 -0.31406054 -0.14932874 -0.1394608
000340 e8 57 3b 3c 9b 7c 05 bd 10 3e 7d be ab 2b 04 bd
       0.011434533 -0.032589536 -0.24730706 -0.032268208
000350 45 55 46 3e 98 2e 9f 3d 08 a3 e5 3d f3 1a eb 3d
       0.19368465 0.07772559 0.11212736 0.114797495
000360 f2 a5 bd 3d c9 63 93 bd e6 fe 4d bd 4f 53 dd bd
       0.09260167 -0.07196767 -0.05029192 -0.108069055
000370 1e 60 ba bd 41 bb ce bd 2b 41 66 bd e1 88 a5 bd
       -0.09100364 -0.100943096 -0.056214493 -0.08082748
000380 47 39 5d 3b 76 81 c6 3d 52 37 e0 bd 05 34 32 3e
       0.0033756064 0.096926615 -0.109480515 0.17402656
000390 a8 bd 7b bd c5 2a f4 bd e6 a3 b5 be e2 2f dd bd
       -0.061460167 -0.1192222 -0.35476607 -0.108001485
0003a0 70 27 de 3b f9 16 8b be 70 34 b9 be 56 f4 89 be
       0.0067796037 -0.27165964 -0.3617282 -0.26944226
0003b0 4d ee 36 bc ff cd c3 bd 6e 41 a5 bb 14 a1 96 3e
       -0.011165214 -0.09560775 -0.0050432 0.29419768
0003c0 73 0d f8 bc f2 54 ad 3d 02 b7 e8 bd f2 e1 a2 3c
       -0.03027985 0.08463468 -0.11363031 0.01988313
0003d0 43 8b 02 bd ba ca 49 3e cb 5d dd bd f6 81 a0 b8
       -0.03187109 0.1970624 -0.10808905 -7.653602e-05
0003e0 b6 8a 2a be 07 3b 52 be 4d 4a 07 be d0 bf 88 bc
       -0.16654477 -0.2053033 -0.13211937 -0.016693026
0003f0 dd 29 02 be 67 19 eb be e3 96 0c be 29 e5 e0 bd
       -0.12711282 -0.45917818 -0.13729434 -0.10981209

b3 f4 [48]
000000 f1 ac 39 bd ad 5e f4 bd 56 6a 24 be a6 d1 a1 3e
       -0.045330945 -0.119321205 -0.16056189 0.31605262
000010 6f 05 4f bb 19 d7 7a be 8a f9 a6 3e 80 36 ec 3c
       -0.0031588932 -0.24496116 0.32612258 0.028834581
000020 76 11 18 3e b6 42 32 ba 20 4b 5a be 2d c0 2f 3d
       0.14850411 -0.0006800102 -0.2131772 0.042907882
000030 5c 9c ae 3d a0 ec 7d be 3e 3a 28 bd ba c3 ee bc
       0.08525917 -0.24797297 -0.04107117 -0.029146064
000040 c4 b3 4e bd 6f 9b 26 be 6c db 79 bc ab 0c 57 be
       -0.050464407 -0.1627023 -0.015250068 -0.21000926
000050 8d 60 5a 3d 9b 03 4b 3e 79 ba c6 3e 58 9b 5c 3d
       0.053314734 0.19825594 0.38814142 0.053859085
000060 75 c4 e5 3d 72 fd 8b 3e 12 fb 04 be d7 41 c6 3e
       0.11219112 0.273418 -0.129864 0.38722107
000070 96 a9 88 3d 34 4b c6 3b 3a 76 0d 3f d3 ed 50 3d
       0.06672971 0.0060514454 0.55258524 0.051008057
000080 fb 10 f5 b9 10 77 23 be 7a 59 6c be de 41 35 bd
       -0.00046742693 -0.15963387 -0.23081008 -0.04425227
000090 f6 67 a5 bb f4 79 69 bd d3 b4 26 be c4 52 e4 3e
       -0.0050477935 -0.05700107 -0.16279916 0.44594395
0000a0 1e c9 81 be 06 e5 17 bd 84 04 a6 be c5 00 98 bd
       -0.25348753 -0.03708365 -0.3242532 -0.07422022
0000b0 4c 4f de bd 62 63 bd 3c 18 90 a1 3c 56 d0 f4 bc
       -0.108549684 0.023118678 0.01972203 -0.029884499

W4 f4 [2352, 40]
000000 e1 de 2f 3e 3d fa 08 3d c0 f1 89 3d a1 a9 99 bb
       0.17174865 0.03344177 0.06735563 -0.004689411
000010 ae 97 0c bd 60 10 94 be 72 aa 2a be e0 4a d1 bd
       -0.03432434 -0.28918743 -0.16666582 -0.102193594
000020 ab a7 11 bd 16 8f de bd fb 40 30 3d d8 ff 08 be
       -0.03556029 -0.10867135 0.04303072 -0.13378847
000030 3f 39 1e 3e 5c f1 62 bd 5d b9 7e be bb ca 57 bd
       0.15451525 -0.05540596 -0.24875398 -0.052683573
000040 1f e8 28 bd 51 e9 b2 bc 42 43 71 bc 1b c8 ac 3b
       -0.041236993 -0.02183977 -0.014725508 0.005272878
000050 62 05 b4 3c ad 31 38 be aa f4 8f bc 4b 13 64 bd
       0.021975223 -0.179877 -0.01757272 -0.05568246
000060 a7 ac 05 bd 53 1d db 3d 77 b0 37 3e d3 9b f2 bb
       -0.032635357 0.106989525 0.1793841 -0.0074038296
000070 09 26 88 be 09 ce 86 bd db dc 1a bd c4 e1 71 bd
       -0.2659152 -0.06582267 -0.03780828 -0.059053198
000080 96 5b e6 bc e8 10 9a 3d 99 17 d2 3d 2e 41 28 3e
       -0.028119843 0.07522756 0.10258407 0.16431114
000090 5b 68 0f 3e 20 a1 b8 bc 52 8a 2d be 74 0b 5a 3c
       0.14004652 -0.022537768 -0.16947296 0.013308395
0000a0 30 7b 42 3c db 93 3f be fc 1e 5c 3d d1 f1 86 3d
       0.0118701905 -0.18708746 0.053740487 0.065890916
0000b0 f7 6e 2e 3e aa 14 d9 bd ad 9f 34 be bd 90 59 3e
       0.17034517 -0.105996445 -0.17639036 0.2124662
0000c0 5d 70 34 3e c8 7b 7a bd 88 40 30 3c 51 50 e1 bd
       0.17620988 -0.061153203 0.010757573 -0.11001647
0000d0 8f 9f 03 3d 3d e1 c7 3d 58 41 5f bd 9c ed 95 3e
       0.03213459 0.09759758 -0.054505676 0.29282844
0000e0 9b 00 1e be 39 6d 07 3e b4 cd 76 3d 03 c4 3a bd
       -0.15429918 0.13225259 0.060254768 -0.045597088
0000f0 29 76 50 3e b7 77 86 bd fa 15 b6 3d 56 cb f9 bc
       0.20357575 -0.065658025 0.088909104 -0.030492466
000100 e9 d7 00 be 0d c8 3b 3e e5 49 c1 bd 2e d1 c8 bd
       -0.12582363 0.18338032 -0.094379224 -0.09805523
000110 c7 36 35 bc 20 a4 2c 3e d7 96 7d bd ad 90 f1 bd
       -0.011060423 0.16859484 -0.06191143 -0.11795173
000120 4d 15 99 3b 36 db bc 3b 06 32 62 3b 9b f4 30 3d
       0.0046717287 0.0057634367 0.003451468 0.043202024
000130 c5 63 e8 bd 6c a1 89 bd 31 41 e3 bd ec 72 a4 3b
       -0.113471545 -0.06720242 -0.11096419 0.0050185826
000140 a5 07 ac 3b 35 b5 f9 bd e7 a0 25 bd 15 23 28 3b
       0.0052499347 -0.121927656 -0.04043665 0.0025655676
000150 e9 67 7f 3d 30 27 88 bd 86 37 06 bd f4 d4 a8 3d
       0.062354956 -0.066480994 -0.032767795 0.082437426
000160 4f e3 d1 3d d9 cf e3 bd c6 c0 f3 bc af 18 10 be
       0.10248434 -0.11123628 -0.029755007 -0.14071916
000170 bf 2e 1c 3d 9d a5 30 3d 5a f0 1f 3d 83 75 be 3b
       0.038130518 0.04312669 0.039047576 0.0058123483
000180 fb f2 13 3d 39 19 c4 bd 79 2e 1a bd 9d e5 2f 3c
       0.036120396 -0.09575123 -0.037641976 0.010735896
000190 63 8e c7 bd dc d2 32 be 29 a8 42 be 8b 1e 6e be
       -0.09743955 -0.17463249 -0.1900946 -0.23253839
0001a0 25 92 8c 3d 7a fa f3 ba ea d3 b2 3d 9b 8b 75 bc
       0.06863812 -0.0018614077 0.08731826 -0.014986898
0001b0 68 42 f9 3c 69 d3 c9 3d 94 7b 42 bd b9 13 62 3c
       0.030427173 0.098547764 -0.047481135 0.013798648
0001c0 81 ba 2d be 71 e3 d0 bd 42 42 fc 3c ec fe 5a be
       -0.16965677 -0.10199631 0.030793313 -0.21386307
0001d0 7e d3 93 3d e7 04 04 3e 09 6e 29 3d 92 1b 4a be
       0.07218073 0.12892495 0.041364703 -0.1973708
0001e0 c6 38 a5 3d bb 03 13 be 16 4e ef 3c 73 ba ce 3d
       0.08067469 -0.14356892 0.029212039 0.10094156
0001f0 d3 fb 13 bd 78 db 24 3e 8d 6d e0 3c d2 89 96 3d
       -0.03612883 0.16099346 0.027395988 0.07350506
000200 7b 35 dc 39 0e 71 a5 3d e9 cd 17 bd 0e 59 b3 3c
       0.00042001516 0.08078204 -0.037061606 0.02189305
000210 0a f0 74 3c be b5 2b 3d 73 29 0d 3d 48 cb 4b bd
       0.014949808 0.04192137 0.034463357 -0.04975441
000220 20 cf 69 be bc 9b 5c 3e 87 70 59 be 1f 7a 1b 3e
       -0.22832918 0.21543783 -0.21234332 0.15183304
000230 13 d3 a8 bc e1 de 49 be 06 69 56 3e df 16 09 3e
       -0.02060846 -0.19713928 0.20938501 0.13387631
000240 3c 66 b2 3d b4 49 7b 3e 1f a2 9c bc fa 8f 01 3e
       0.08710906 0.24539834 -0.019120274 0.12652579
000250 52 37 a6 be 3b 5b b5 bc 7e ca 35 be a5 29 36 be
       -0.3246408 -0.022138229 -0.17753026 -0.17789324
000260 af b3 c4 3d fc a3 55 bb 1b fa 93 3c 00 ce 07 be
       0.096045844 -0.0032598963 0.018063596 -0.13262177
000270 98 d3 67 be ee 84 a9 bd 6b 81 36 3e 16 05 5c bd
       -0.2263931 -0.082773075 0.17822807 -0.053715788
000280 0b 54 73 bd f0 12 5f 3d 19 59 65 3e 52 1d 96 3c
       -0.05940632 0.05446142 0.2239727 0.018324528
000290 f2 07 0f be 80 7d 41 3e cf cc 0f be f6 c7 92 bd
       -0.13967875 0.1889553 -0.14042972 -0.07167046
0002a0 97 68 df 3d 3d 45 74 bc 2e 28 77 bc 27 9f 67 3e
       0.10908621 -0.014909086 -0.015085263 0.22619306
0002b0 d6 80 85 3e 67 75 17 be f4 a6 8c bd 5c df 73 bd
       0.26074857 -0.14790879 -0.06867781 -0.059539184
0002c0 4b 05 5b 3e 65 0d 6a 3e d7 00 38 be 3f 7d 85 3d
       0.21388738 0.22856672 -0.1796907 0.065180294
0002d0 7d 75 c8 bd e6 e7 b8 be 15 0d 69 3e dc b2 fa bc
       -0.09788034 -0.36114424 0.22758897 -0.030602865
0002e0 a4 88 9e bd 78 cd 06 3d 97 b4 da bd 94 94 29 bd
       -0.07740906 0.032910794 -0.10678976 -0.04140146
0002f0 1a 17 63 3c 2b 68 e0 bd 78 1f 9c 3c 20 70 06 3e
       0.013860488 -0.109573685 0.019057974 0.1312871
000300 88 22 b8 3d 25 e4 2c 3a f4 c5 22 be 6a e6 d9 bd
       0.08990961 0.00065952755 -0.15895826 -0.10639651
000310 d7 f2 c9 bd e2 d9 53 3d a6 94 39 3d 1f ae 74 be
       -0.09860771 0.05172146 0.045307778 -0.23894547
000320 36 28 0f 3e 2c 3f d8 3d d5 78 10 be 38 bd 0f bd
       0.13980183 0.10558924 -0.14108594 -0.035092562
000330 65 9e fd 3d e4 a3 ee 3d ad 59 5a 3d b1 b0 fe 3c
       0.12383727 0.116523534 0.053308178 0.031090112
000340 51 f0 ce bc b1 cf 54 bd 77 04 de bd 23 be 6d 3e
       -0.025261076 -0.051955882 -0.10840695 0.23217063
000350 be 6e 64 3e ed b9 eb bc 67 db 5e 3e f9 e5 8d 3d
       0.2230787 -0.02877518 0.21763383 0.069286294
000360 0c c0 49 be c2 55 61 be 51 04 68 be 3e 31 3a bd
       -0.19702166 -0.2200537 -0.22657897 -0.045457117
000370 88 b1 e5 3c 36 bc d0 be 6e 3e ab bd 5b 2a 8e be
       0.028038755 -0.40768594 -0.08361517 -0.2776669
000380 6a 7c 77 bc 5b dd c4 bd 97 2c 4b 3e 85 aa 1a bb
       -0.015105346 -0.09612533 0.19841228 -0.0023600173
000390 6b 96 43 be 68 a6 bb 3c 44 7e 92 bd 21 c8 7a 3d
       -0.19100349 0.022906497 -0.071529895 0.061226014
0003a0 4b b4 63 b9 38 ee d7 bd 28 71 47 bb 69 dd a1 3d
       -0.00021715571 -0.105434835 -0.0030432437 0.07903559
0003b0 2b c2 a3 3d 1e 54 ce 3b e7 50 79 bd 93 c7 4a 3c
       0.07996019 0.0062966486 -0.06086817 0.012376684
0003c0 af 7e 8c 3d cd f6 1b be 2c 96 85 3e 1e 4a 2d 3d
       0.068601005 -0.15230866 0.26091135 0.04230701
0003d0 1d e0 52 be e9 94 38 bd 4e 46 91 bd 7f 16 10 be
       -0.20593305 -0.045063887 -0.07093488 -0.14071082
0003e0 80 10 ee 3d 40 dc f2 bd ae 33 be bd 72 6c e4 3d
       0.11624241 -0.118584156 -0.09287201 0.11153497
0003f0 13 b1 25 3d e9 c1 42 3c dd 41 67 bc a0 a4 0a be
       0.040452074 0.011887052 -0.014114824 -0.13539362

b4 f4 [40]
000000 9d 1f 22 3d 0e 66 99 3d a0 29 d0 3c 1d 1a 01 3d
       0.03958093 0.074901685 0.025410473 0.031519044
000010 87 9b 0a 3e 9e c6 86 3e 39 95 88 3d ac df fa 3d
       0.13535891 0.26323408 0.06669087 0.12249693
000020 68 82 f3 3c 5d 40 97 3e ed 39 51 3d 3a 1f cf 3d
       0.029725268 0.29541293 0.051080633 0.10113378
000030 9e b5 92 3e a6 77 d8 3e 6a 4f 96 3d 84 f2 1c 3d
       0.28654188 0.42278785 0.07339366 0.03831722
000040 09 b9 42 bd b9 ea 3a 3d 35 9e 67 3d ce 45 c8 3e
       -0.047539745 0.045634005 0.056547362 0.39115757
000050 90 1e 6f 3d 50 57 39 3e 49 8e cd 3e 03 93 9f 3d
       0.058378756 0.18099713 0.40147617 0.07791712
000060 ed d1 23 3d 16 6e c7 3e 10 0d 5d bc 9e bb 03 3d
       0.039995123 0.38951176 -0.013491884 0.032161348
000070 dc bd 3a 3e 8e 3d da 3d 57 bf 8d 3d 56 f9 c2 3d
       0.18236488 0.10656272 0.06921261 0.09520213
000080 95 47 00 3e 1f ae 5c 3e 92 f1 82 3d 0a b3 eb 3e
       0.12527306 0.21550797 0.06393732 0.46035033
000090 55 12 a2 bc 68 07 5f 3e 51 c3 ac 3d 85 f5 04 3e
       -0.019784132 0.21780169 0.08435691 0.12984283

W5 f4 [40, 4]
000000 45 74 56 3d 60 ba 2a be 82 98 0d be 3c c1 00 be
       0.052356977 -0.16672659 -0.13827708 -0.12573713
000010 66 f8 66 3e cf 37 c2 3d 2c bb 1d 3d 8f b1 e1 bd
       0.22555694 0.09483301 0.03850858 -0.11020195
000020 1c 2d 05 3e 26 21 8b bd 9e d5 da bc 9a ba 2f 3d
       0.13005489 -0.06793432 -0.026713189 0.042902566
000030 41 80 9d bd 46 6a 95 bd 32 fd 00 3e 13 1e b4 bd
       -0.07690478 -0.07295661 0.12596586 -0.08794799
000040 91 41 7d 3e 32 9e 9a bd e6 a6 55 bd 1e c0 8f bd
       0.24732043 -0.075497046 -0.05216112 -0.07019065
000050 88 b9 a2 3d eb 01 8d 3d 9e e5 0b be 5b d1 6a 3d
       0.079455435 0.068851314 -0.13661811 0.057328563
000060 ae db 84 3e 4d 07 e5 3d 04 c2 62 3d dd 39 66 bd
       0.25948852 0.11183033 0.05536081 -0.056207526
000070 cd 7a 01 be cb ef 90 bd 3c bc f1 bd 77 1c 12 3e
       -0.12644501 -0.07076987 -0.11803481 0.14268671
000080 64 88 f4 bc 17 0f b3 bd 12 ae fa bc 30 01 de bd
       -0.029850192 -0.087431125 -0.030600581 -0.1084007
000090 f2 c3 6a 3d 64 0d 0e be 94 67 94 bc 5f d1 ce 3b
       0.057315774 -0.13872296 -0.018115796 0.00631158
0000a0 ba 8c d7 3c 13 fe 3f be c3 88 d1 bc 0a e1 81 3c
       0.02631222 -0.18749265 -0.025577908 0.015854377
0000b0 17 bd bb bd 85 5d f3 bd eb 3a 46 be 16 3d a7 3d
       -0.091669254 -0.11883072 -0.19358413 0.08165948
0000c0 c5 3a 42 3c 59 8c b2 3d d1 83 20 be 6e 92 ef 3d
       0.011854832 0.087181754 -0.15675284 0.11697851
0000d0 ab 7a aa bd e8 08 99 bd 8d 2b f6 3d 5f 7f aa 3d
       -0.08324178 -0.07472402 0.120200254 0.08325075
0000e0 1e e9 a6 bb fe ee 12 3a 83 37 c6 bd a9 d8 9f 3e
       -0.0050937077 0.00056050706 -0.09678557 0.31219986
0000f0 46 9e aa 3c 3b 8d a0 bd 36 84 88 3d 58 fc 9f 3d
       0.020827424 -0.078394376 0.06665842 0.078118026
000100 bc 2c 10 3e 46 91 41 3e 4d 07 57 bd a0 71 af bd
       0.14079565 0.18903074 -0.052497197 -0.08566594
000110 5c 8d 20 bc d5 57 0d 3e a4 cf cc bd a6 fd f7 bb
       -0.009799328 0.13803037 -0.10000542 -0.007568079
000120 77 8c 12 3b 31 82 1c 3e 02 08 f2 bd 5b f8 13 3e
       0.0022361556 0.15284039 -0.118179336 0.14450209
000130 83 41 cc 3c 9c 9d 88 3c 2f f4 21 3e 29 3d e0 3d
       0.024933582 0.016676717 0.15815805 0.109491654
000140 94 74 e5 bb 76 15 d7 bd 67 79 60 3e 38 2d 05 ba
       -0.0070024226 -0.1050214 0.21921311 -0.00050802855
000150 33 a4 08 3d dc 45 b5 3d ef a7 41 3e ef e5 ba 3b
       0.033359718 0.08851215 0.18911718 0.0057036798
000160 9f d9 97 3a 54 2c 80 3c 50 f0 7c 3d 57 36 39 3e
       0.0011585242 0.015646137 0.061752617 0.18087135
000170 e3 2b b4 bb 94 a7 c4 3d 42 e8 28 be d1 41 d9 b9
       -0.0054983958 0.096022755 -0.1649485 -0.00041438502
000180 db d2 a4 3e e6 5f 1c 3c 0c bb 0b be d7 63 c0 bd
       0.3219212 0.009544348 -0.13645571 -0.09394043
000190 b8 81 22 be 11 e3 bc bc 35 f1 80 3c e3 54 f9 3b
       -0.15869796 -0.023057492 0.015740016 0.0076089962
0001a0 12 4e 3e 3d ff 73 04 3d a7 1c 7a 3d 3d b1 1b be
       0.046461172 0.032337185 0.06106248 -0.1520433
0001b0 70 1c 58 be ca 54 73 3c e0 b7 4c bd 45 ff 1b be
       -0.21104598 0.014851758 -0.049980044 -0.15234096
0001c0 68 6c 7d bd 2c e1 e2 bd 0d b3 56 3d 66 99 25 be
       -0.061870962 -0.110781044 0.05241685 -0.16171798
0001d0 de 48 e3 bc 8e f0 5c bd bf b0 66 3e 15 b7 9c bd
       -0.027744707 -0.05394035 0.22528361 -0.076521076
0001e0 d7 5a d1 3d 1f 9c eb 3c 0f 97 61 bc 23 12 d6 bd
       0.102224045 0.028760968 -0.013768925 -0.10452678
0001f0 c9 82 4f 3d ba cb 92 bd 59 bd 1c be 7a ff 3a 3d
       0.050661836 -0.07167764 -0.15306605 0.045653798
000200 19 c9 9a 3d 30 0d 96 3d 03 5a 34 be df 53 77 bd
       0.075578876 0.07326734 -0.17612462 -0.06038272
000210 85 c6 9f 3d a6 0b 88 bc d8 73 23 be a8 54 01 3d
       0.078015365 -0.016607117 -0.1596216 0.031574875
000220 ac 46 0e 3e b9 1a 02 be 47 30 00 be 6c e0 ef bd
       0.13894147 -0.12705506 -0.12518416 -0.11712727
000230 be 80 8d bc 0e b1 be bd 5c 16 ab bc e6 2f 8a 3d
       -0.017273303 -0.09311114 -0.020884685 0.06747417
000240 37 f9 85 3c b4 f9 ad 3d 53 c6 3f bd ea 1b 6e be
       0.016354186 0.08494893 -0.046819996 -0.23252836
000250 c8 92 0b bd e3 66 98 bd 74 a0 9b bc f7 02 0c 3e
       -0.03407553 -0.07441499 -0.018997408 0.13673006
000260 d3 f0 f0 3d b3 c4 0d bd 5a 5b ce bd b8 54 5e 3d
       0.117646836 -0.034611415 -0.10076018 0.054280013
000270 73 d5 bd bc fe 59 70 bd cb 58 0b be 95 10 ef 3d
       -0.02317307 -0.058679573 -0.1360809 0.11673085

b5 f4 [4]
000000 3d 1a 0b be 7b d7 9a be 8f 8d 3a 3e 14 9c bc 3e
       -0.13584228 -0.30242524 0.18218063 0.36837828
